models/adam.pth (torch, 518492 bytes, 8 tensors)

conv1.weight f4 [8, 3, 3, 3]
0	0x3c1c54cb	0.009541701
1	0xbc903341	-0.017602565
2	0xbc9e0db8	-0.019293651
3	0x3ccfcaf4	0.02536533
4	0x3cddfcbe	0.027098056
5	0xbce72d72	-0.028219912
6	0x3cd7d521	0.026346745
7	0x3c093605	0.008374696
8	0xbc916d4c	-0.017752312
9	0x3ca1ac5f	0.019735513
10	0x3c0035fb	0.00782537
11	0xbca73b94	-0.020414151
12	0x3c9ee0ae	0.019394245
13	0x3c5bc6a1	0.013414056
14	0xbcef2510	-0.029192477
15	0x3d16491a	0.03669081
16	0xbc3af635	-0.011411239
17	0xbd27f265	-0.04100265
18	0x3c7b1c15	0.0153265195
19	0x3c5fd9b9	0.013662749
20	0xbd089300	-0.033343315
21	0x3c3b85c2	0.011445465
22	0x3c265f11	0.010154502
23	0xbcda672c	-0.026660524
24	0x3c7c1ab6	0.015387228
25	0xbc1f4801	-0.009721757
26	0xbcbfef32	-0.023429487
27	0xbb463b79	-0.003024785
28	0xbc05eb52	-0.0081737805
29	0xbc85e4cd	-0.016344452
30	0xbc20f3e6	-0.009823775
31	0xbc153e7a	-0.009109134
32	0x3aa9cd00	0.0012954772
33	0xbbeeb4ac	-0.0072847214
34	0xbbb6a1c5	-0.0055734836
35	0xbbce5410	-0.006296642
36	0xba79e489	-0.00095326506
37	0xbc09d06d	-0.008411509
38	0xbbc6f713	-0.006071934
39	0xbbe06c45	-0.0068488442
40	0xba42e516	-0.0007434649
41	0xbb0c3554	-0.002139409
42	0xbc18e5e6	-0.009332156
43	0xbb679c46	-0.003534095
44	0xbc0070bc	-0.007839378
45	0xbc87adcc	-0.016562365
46	0xba06ba96	-0.0005139498
47	0xbc47eb3d	-0.012202081
48	0xbacc59fa	-0.001559078
49	0xbcfb104c	-0.03064742
50	0xbc588806	-0.013216024
51	0x3bb67c30	0.0055690035
52	0xbb5530f6	-0.0032530404
53	0xba59b8f8	-0.00083054556
54	0xbc7c747e	-0.015408633
55	0x3b431826	0.0029769032
56	0xbaca04f9	-0.0015412859
57	0xbc5ab8ef	-0.013349756
58	0xbc121a64	-0.008917425
59	0xbbe8c70c	-0.0071038064
60	0xbc80beee	-0.015716042
61	0xbc016ade	-0.007899014
62	0xbc2e1f3b	-0.010627563
63	0xbc0919a8	-0.008367933
64	0xbc2da90d	-0.010599387
65	0xbc12126f	-0.008915528
66	0xbcaa4e53	-0.020789301
67	0x3c55cbf4	0.0130491145
68	0xbc624eb9	-0.013812714
69	0xbcb84a47	-0.022496356
70	0xbc620811	-0.0137958685
71	0x3cd4a7cd	0.02595892
72	0x3bb7cd2b	0.0056091747
73	0xbbedb66e	-0.0072544133
74	0xbcbe00fa	-0.023193825
75	0x3b881495	0.004152844
76	0xbb208e0b	-0.0024498727
77	0xba972786	-0.0011532165
78	0xbc0c4358	-0.008560978
79	0x3b74eaf8	0.0037371498
80	0xbb9d0892	-0.0047922814
81	0xbc35c883	-0.011095169
82	0xbc7a16d0	-0.015264228
83	0x3bc88bea	0.0061201947
84	0xbbd6b313	-0.006552109
85	0xbc9d2218	-0.019181296
86	0x39391298	0.00017649902
87	0xbaf89fc8	-0.0018968517
88	0x3be159d5	0.006877164
89	0xbca17cdf	-0.019712863
90	0xbb502824	-0.0031762207
91	0x3c01e1c1	0.007927359
92	0xbc0d8c8e	-0.008639468
93	0xbc4c7de4	-0.012481187
94	0xbc5fe6d0	-0.01366587
95	0xbca1427e	-0.019685026
96	0xbc6003c0	-0.013672769
97	0x3b82c5c7	0.003990862
98	0xbb9a04af	-0.0047002654
99	0xbcd5a294	-0.0260785
100	0xbbd29a1a	-0.0064270617
101	0x3bd623e2	0.0065350393
102	0xbbcacc71	-0.006188922
103	0xbbf37166	-0.0074292896
104	0x3c6110f2	0.01373695
105	0xba4344e5	-0.0007448926
106	0xbc294011	-0.010330216
107	0xbc142d4c	-0.009044003
108	0xbaa2f30d	-0.0012432054
109	0x3b9effb2	0.0048522586
110	0xbbfceef8	-0.007718917
111	0xbcb2b462	-0.021814529
112	0xbc8f08f6	-0.017460328
113	0xbbcbefb4	-0.006223643
114	0xbc3c5ceb	-0.011496763
115	0xbbbde36a	-0.005794932
116	0xbc6fa938	-0.014627747
117	0x3c0cd319	0.0085952515
118	0xbb1c7613	-0.0023874089
119	0x3c14d66f	0.009084328
120	0xbc0dc676	-0.008653274
121	0xbb3876ed	-0.0028147057
122	0xbc4e4f1d	-0.012592104
123	0xbc5677e9	-0.013090112
124	0xbc161dd1	-0.009162382
125	0x3b1e8fdd	0.0024194636
126	0xbb7d31f3	-0.0038634508
127	0xbc0dfe4d	-0.008666587
128	0xbc09222d	-0.008369965
129	0xbc15158a	-0.009099374
130	0xbbbf20e6	-0.005832779
131	0xbbe46344	-0.006969841
132	0xbc548d3e	-0.012973128
133	0xbc79902f	-0.01523213
134	0xb83d8db6	-4.519309e-05
135	0xbaf0f8e9	-0.0018384728
136	0xbcfa18e1	-0.030529441
137	0x3c06cf02	0.008228065
138	0xbc14a209	-0.009071835
139	0xbc2f925b	-0.010716046
140	0xbc96aa75	-0.018391827
141	0xba4ac0fe	-0.00077344466
142	0xbbe144a0	-0.006874636
143	0xb9772108	-0.0002356806
144	0x3bb2ebc7	0.0054602358
145	0x3c1f3ad1	0.009718613
146	0xbb03628d	-0.0020047755
147	0xbc13113b	-0.008976276
148	0xbab1838a	-0.001354323
149	0xbbbfdbfd	-0.005855082
150	0xbc829196	-0.015938561
151	0xbc327ef2	-0.010894524
152	0xbae81ad1	-0.0017708187
153	0x3bd87a2a	0.00660636
154	0x3b84d90c	0.0040541943
155	0xbb351cc7	-0.002763556
156	0x3cae0bce	0.021245863
157	0x3beedd77	0.0072895843
158	0xbb243512	-0.0025056046
159	0xbc9b37df	-0.01894754
160	0xbc93bbdd	-0.018033916
161	0xbc2a345b	-0.010388459
162	0xbbad4b8d	-0.0052885474
163	0xbc972262	-0.018449012
164	0xb94fce36	-0.00019817878
165	0xbaea41b7	-0.0017872368
166	0xbc4dc6b0	-0.012559578
167	0xbb60c866	-0.0034299134
168	0xbbda2437	-0.006657149
169	0xbc6f1e86	-0.01459468
170	0x3b3303e5	0.0027315554
171	0x3c87c185	0.01657177
172	0xbb9ebf27	-0.0048445645
173	0xbb95bad0	-0.004569389
174	0x39ab93cc	0.0003272578
175	0x3b4224bc	0.0029623946
176	0x3ab55dfd	0.0013837215
177	0xba8c9011	-0.0010724087
178	0xbcb94db9	-0.022620069
179	0xbcaf0288	-0.021363512
180	0xbbd360c4	-0.0064507443
181	0x3c5735bc	0.01313537
182	0xbbbc49ce	-0.005746103
183	0xbb7cbb02	-0.0038563614
184	0xbc58d31a	-0.013233924
185	0xbc254338	-0.010086827
186	0xba76510c	-0.0009396232
187	0x3b35c2a4	0.0027734423
188	0x3b82f861	0.003996894
189	0xbc2f348d	-0.010693681
190	0xbce56ca3	-0.028005904
191	0xbc519319	-0.0127914185
192	0xbae91beb	-0.001778481
193	0xbc62652c	-0.013818067
194	0x3bc70a5c	0.006074233
195	0xbb87d8d3	-0.0041457205
196	0xbcce3f96	-0.025176805
197	0x3ae7e92f	0.0017693395
198	0x37a44e4e	1.9586787e-05
199	0xbce90b2f	-0.028447716
200	0x3840b0ca	4.5941015e-05
201	0x3ae839cb	0.0017717419
202	0xbca5b320	-0.020227015
203	0xbcb05dde	-0.021529134
204	0x3c32693a	0.010889346
205	0xb8a2d0a2	-7.763623e-05
206	0xbb9c5261	-0.0047705625
207	0xbc8a41f6	-0.016877156
208	0xbc741a3f	-0.014898836
209	0x3c59138e	0.013249291
210	0xbbe968cb	-0.007123088
211	0x3c0bc671	0.008531199
212	0xbac40a27	-0.0014956639
213	0xbc9cb11f	-0.019127427
214	0xbc8853e8	-0.016641572
215	0xbcb199aa	-0.021679718

conv1.bias f4 [8]
0	0xbac12238	-0.001473493
1	0xbbd3cfdc	-0.0064639878
2	0xbb9619b3	-0.0045807003
3	0xbbd17f82	-0.006393374
4	0xbbe7b27e	-0.0070708385
5	0xbba0373f	-0.0048893983
6	0xbbad2d9d	-0.0052849785
7	0xbc230222	-0.009949239

conv2.weight f4 [16, 8, 3, 3]
0	0x3d2d2a83	0.04227687
1	0xbcb8f60c	-0.022578262
2	0x3c9cad0e	0.019125488
3	0x3d290020	0.041259885
4	0x3bbd641e	0.005779757
5	0xba8284a3	-0.0009957742
6	0x3d3b80ad	0.04577701
7	0x3c481bfa	0.012213701
8	0xbcd2a3d0	-0.025712878
9	0xbc5374f7	-0.012906305
10	0x3bbb35aa	0.0057131844
11	0x3b0929e6	0.0020929514
12	0x3c28f50e	0.010312332
13	0xbb8fe6a5	-0.0043915086
14	0xbaaf685f	-0.0013382545
15	0xbac0b756	-0.0014703076
16	0xbb4063d0	-0.0029356368
17	0x3c87e423	0.016588276
18	0xbb3ac4c5	-0.0028498631
19	0x3c723f9a	0.014785672
20	0xbc85f921	-0.016354145
21	0xbcad50ff	-0.021156786
22	0x3c13b4e0	0.009015292
23	0x3bf6c9eb	0.0075313947
24	0xbc5def4c	-0.013545822
25	0x3cc21cfb	0.02369546
26	0xbb67682c	-0.0035309894
27	0xbba8ecbb	-0.0051551736
28	0xbccff81d	-0.025386864
29	0x3bb9970c	0.005663758
30	0x3c51a8d3	0.0127965985
31	0xbbb32376	-0.0054668738
32	0xbbbeb2eb	-0.0058196685
33	0xbc8e4b9f	-0.017370043
34	0xbbe9df70	-0.0071372315
35	0xbb9de914	-0.004819045
36	0xbb4d2819	-0.0031304418
37	0xbb7ae0a1	-0.0038280862
38	0x3c5a8333	0.013336944
39	0x3c877c04	0.016538627
40	0x3a601aeb	0.0008548933
41	0x3c03b040	0.008037627
42	0x3cabd93a	0.020977605
43	0xb935a1a0	-0.00017321715
44	0x3c5b0abd	0.013369259
45	0x3b81927f	0.0039542313
46	0x3bb20458	0.0054326467
47	0xbb02aac3	-0.0019938208
48	0xbc9840a1	-0.018585505
49	0xbc41979d	-0.011815933
50	0xbb0a1c03	-0.0021073825
51	0x3b2dd19f	0.002652265
52	0x3b82e558	0.003994625
53	0xbba836be	-0.005133479
54	0x3cbc2153	0.022965109
55	0x3ba4574e	0.0050152903
56	0xbb8b3194	-0.0042478535
57	0xbcd881d4	-0.026429094
58	0x3c768d2f	0.015048309
59	0x3bea758d	0.0071551264
60	0x3c33d356	0.010975679
61	0x3a9e0b05	0.0012057727
62	0x3b27ef4f	0.0025624817
63	0x3c3cd9c5	0.01152653
64	0x3bfdd7cb	0.007746672
65	0x3cd05128	0.025429323
66	0xbb7ddf34	-0.0038737776
67	0x3b054812	0.0020337147
68	0xbbb0841b	-0.005386842
69	0xbc5641cf	-0.013077213
70	0x3c93aa06	0.01802541
71	0xba96de33	-0.0011510312
72	0xbc7b6d18	-0.015345834
73	0xbca66ee1	-0.020316543
74	0xbc3826bb	-0.011239703
75	0xbc66343b	-0.014050539
76	0x3cda2d84	0.026633032
77	0xbca1bff8	-0.019744858
78	0xba87efec	-0.0010371185
79	0xbbe81ba9	-0.0070833755
80	0xbc8418e8	-0.016125157
81	0x3b5bad41	0.0033520015
82	0xbb26f94c	-0.0025478182
83	0xbbd60105	-0.0065308833
84	0x3b387590	0.0028146245
85	0x3bfb86bb	0.0076759732
86	0xb9a1942e	-0.00030818715
87	0xbb9dcc92	-0.0048156464
88	0x3bc43ff9	0.0059890714
89	0x3bb91ff1	0.0056495597
90	0xbc0e8079	-0.008697622
91	0xbc638081	-0.013885618
92	0xba313b1d	-0.0006760823
93	0xb9984be4	-0.00029048242
94	0x3c263d46	0.010146445
95	0xbc2a2b73	-0.010386336
96	0xbc9fd2ef	-0.01950976
97	0xbbefa7b0	-0.007313691
98	0x3b85df33	0.0040854453
99	0x3ca3a23a	0.019974817
100	0xbcd715b9	-0.026255475
101	0xbb763249	-0.0037566593
102	0xbc03f93f	-0.00805503
103	0x3c1a26b5	0.009408643
104	0x3bc8a9e9	0.0061237705
105	0xbc9734ca	-0.018457789
106	0x3b36ed0f	0.0027912294
107	0x3bed13d1	0.0072350283
108	0xbb012d20	-0.0019710734
109	0xbbd35318	-0.0064491145
110	0xbbb17841	-0.0054159467
111	0x3b908457	0.0044103074
112	0xbc9d0253	-0.019166147
113	0xbbb63142	-0.005560071
114	0x3afd41a6	0.0019321933
115	0xbb460b25	-0.0030219045
116	0x3b4c0019	0.0031127988
117	0xbc0b1edb	-0.008491243
118	0xbc5a4cc8	-0.01332397
119	0x3b9689f6	0.004594083
120	0xbc5a10b4	-0.013309646
121	0x3b09c71a	0.0021023215
122	0xbcd42971	-0.025898667
123	0x3b30da56	0.0026985607
124	0xbc817f20	-0.015807688
125	0xbc4a39e0	-0.0123429
126	0xbc63ecdb	-0.013911451
127	0xbb66a6df	-0.0035194678
128	0xbaf72655	-0.0018856028
129	0x3a03b74d	0.00050245674
130	0x3bac2d15	0.0052543976
131	0xbc3f8e85	-0.011691694
132	0xbb5d7986	-0.0033794357
133	0x3ca7b725	0.020473072
134	0x3a19a5a4	0.0005861169
135	0xbb5344b7	-0.0032237002
136	0xbc27edfe	-0.010249613
137	0x3b9962dd	0.004680975
138	0xbc4b828a	-0.01242126
139	0xba036bbe	-0.0005013308
140	0xbb4cd595	-0.0031255234
141	0xbbc7318f	-0.006078906
142	0x3c2e5cdb	0.010642256
143	0x3b97dc87	0.004634443
144	0xba7ba74b	-0.0009599819
145	0x3c79336d	0.015210015
146	0xbd50257c	-0.050816998
147	0x3c9510b2	0.018196438
148	0x3cde6d5c	0.027151756
149	0xbd0105bd	-0.031499613
150	0x3d1bfe32	0.038084216
151	0x3ccbafe1	0.024864139
152	0xbca13617	-0.019679112
153	0x3c3627bd	0.011117873
154	0x3ca795ae	0.020457115
155	0xbcb8a6db	-0.0225405
156	0xbab4446f	-0.0013753305
157	0xbb8f7b55	-0.004378716
158	0xbc9db284	-0.019250162
159	0xb9a0a93e	-0.00030643673
160	0xbc32ff26	-0.01092509
161	0x3becebd2	0.0072302604
162	0xbc0ebd6c	-0.008712154
163	0x3cd1f44f	0.02562919
164	0xbc9698fa	-0.018383492
165	0x3c1cbab7	0.009566001
166	0x3c2910fd	0.010318992
167	0xba0b8f94	-0.0005323824
168	0x39ee893b	0.00045497142
169	0xbb467a18	-0.0030285176
170	0xbc5a1c97	-0.01331248
171	0x3b667630	0.003516566
172	0xbb6d2869	-0.0036187416
173	0x3b18ae1b	0.0023297134
174	0x3c29bf0f	0.010360493
175	0x3acedb29	0.0015781868
176	0x3acd2ec6	0.0015654198
177	0x3c42b015	0.011882802
178	0x3b3a7204	0.0028449306
179	0x3c69fb3b	0.014281089
180	0xbae97f86	-0.0017814494
181	0x3b79d3dc	0.0038120663
182	0xbb8b2e37	-0.0042474526
183	0xbbb919c7	-0.005648825
184	0x3c455183	0.01204336
185	0xbcb09e7e	-0.02155995
186	0x3a519178	0.0007994394
187	0xbadb7728	-0.0016743885
188	0x3c89ef12	0.01683763
189	0xbc347402	-0.011013987
190	0xbb6f22b0	-0.0036489181
191	0xbc3a7407	-0.011380202
192	0x3c564e7f	0.013080238
193	0xbc23b5d8	-0.009992085
194	0x3ba0baab	0.004905065
195	0x3c86c9ad	0.016453588
196	0x3cce1eea	0.025161225
197	0x38ff472e	0.00012172606
198	0xbc381240	-0.01123482
199	0xbc83bd98	-0.016081616
200	0xbc0a8ac8	-0.00845594
201	0xbc45aeea	-0.012065629
202	0xbaafe863	-0.0013420697
203	0xbc6705e8	-0.014100529
204	0xbbbf8caa	-0.005845626
205	0x3be45063	0.0069675907
206	0xbc2ed05f	-0.010669797
207	0x3acd5426	0.0015665337
208	0x3bc8f7de	0.0061330637
209	0xbc5f636d	-0.013634545
210	0xbc7fcd28	-0.015612878
211	0xbc04a7a3	-0.008096608
212	0x39890a3f	0.0002613831
213	0xbb8325fb	-0.0040023304
214	0xbc216d84	-0.009852771
215	0xbc58d499	-0.013234281
216	0x3cb73903	0.022366052
217	0xbd048ed5	-0.032362778
218	0xbcd5554b	-0.026041647
219	0x3d2b42cb	0.041811746
220	0xbcf8a609	-0.03035261
221	0xbccb38a4	-0.024807282
222	0x3d27f9cd	0.041009713
223	0xbc8a7484	-0.016901262
224	0xbc5d506f	-0.013507946
225	0xbb261268	-0.002534056
226	0xbbbde286	-0.005794826
227	0x3ab19b58	0.0013550324
228	0x3c6cfb3e	0.014464198
229	0xbc788dcc	-0.015170526
230	0x3c1b45d0	0.009477094
231	0x3cabc2cb	0.020966908
232	0xbbdb9783	-0.006701411
233	0xbc0981e4	-0.008392785
234	0xbb820ca4	-0.003968792
235	0xbcb0c16d	-0.021576608
236	0xbc367a77	-0.011137596
237	0xbab0e910	-0.0013497192
238	0xbb6ae759	-0.003584346
239	0x3a554378	0.0008135359
240	0xbac126ce	-0.0014736296
241	0xbcabe12d	-0.020981396
242	0x3cd99e50	0.026564747
243	0xba22342a	-0.00061875826
244	0x3b22c7c1	0.00248383
245	0xbb83394a	-0.004004632
246	0x3c518eb9	0.012790375
247	0x3c1e3b68	0.009657718
248	0x3b203f5f	0.0024451835
249	0xbcecb33f	-0.028894065
250	0x3c5bf077	0.0134240305
251	0xbc49507b	-0.012287254
252	0x3b50b3a7	0.0031845362
253	0x3b7be0f0	0.0038433634
254	0xbc876cdc	-0.0165314
255	0xbc31af1a	-0.01084497

conv2.bias f4 [16]
0	0xbc965b3a	-0.018354047
1	0xbaaa5ed3	-0.001299823
2	0xbc0b4e32	-0.00850253
3	0xbc55e098	-0.013054036
4	0x3a845b1f	0.0010097957
5	0xbca4b8ef	-0.020107714
6	0xbb1c448b	-0.0023844566
7	0xbb7fc032	-0.003902447
8	0xbc4b70b3	-0.012417006
9	0xbc8a72b4	-0.016900398
10	0xbb484f65	-0.00305649
11	0xbbb21715	-0.0054348805
12	0xbc312814	-0.010812778
13	0xbb4f752a	-0.0031655529
14	0xbc077558	-0.008267723
15	0xbb615cf8	-0.003438769

conv3.weight f4 [32, 16, 3, 3]
0	0x3aae4cfd	0.0013298091
1	0xbd7ac3bf	-0.061221834
2	0xbca72fbf	-0.02040851
3	0x3d1ed9af	0.038781818
4	0x3c3a84d4	0.011384208
5	0xbd38cc82	-0.04511691
6	0x3d5c252f	0.0537464
7	0x3a3e1643	0.0007251242
8	0xbd763a45	-0.060114164
9	0xbb3d10d7	-0.0028849149
10	0xbcfa1aec	-0.030530415
11	0x3b67d276	0.0035373247
12	0x3cf856dc	0.030314855
13	0xbb9163d6	-0.00443695
14	0x3a9b182e	0.0011832768
15	0x3d587274	0.052843526
16	0x3bc9f1de	0.006162866
17	0x3c143368	0.009045459
18	0xbcdb25c9	-0.026751416
19	0xbcfe3ba9	-0.031034308
20	0xbd027c4e	-0.031856827
21	0x3d3e2e90	0.046431124
22	0x3b4d04a8	0.0031283293
23	0xbd03b65e	-0.03215634
24	0x3d46109b	0.04835568
25	0x3c59ca0c	0.013292801
26	0xbd1c4f29	-0.03816143
27	0x3b133e4e	0.0022467556
28	0xbd9a633c	-0.07538459
29	0xbcd00e4a	-0.025397439
30	0x3d276675	0.040869195
31	0xbc84a30f	-0.016191034
32	0xbd17dfd5	-0.037078697
33	0x3d82d51c	0.06388304
34	0x3d079033	0.033096503
35	0xbd6d5b2c	-0.057948276
36	0xbcbc951a	-0.023020316
37	0xbd079231	-0.033098403
38	0xbc8b9caa	-0.017042477
39	0xba454d14	-0.0007526439
40	0xbcec121b	-0.028817227
41	0xbd0c5985	-0.03426506
42	0x3ce4df9d	0.027938658
43	0xbbace583	-0.0052763834
44	0xbcd15682	-0.025553945
45	0xbcb91399	-0.022592353
46	0xbd7fbe93	-0.062437605
47	0xbcaba531	-0.020952793
48	0x3d20afd1	0.03923017
49	0xbc0c3c7a	-0.008559341
50	0xbd23837a	-0.039920308
51	0x3d7ec2f2	0.062197633
52	0x3c836d1a	0.016043235
53	0xbd8453e7	-0.064613156
54	0xbc220914	-0.00988986
55	0xbd2c195c	-0.042016372
56	0x39bdfc07	0.00036236664
57	0x3d563024	0.052292004
58	0xbcba7ea2	-0.022765461
59	0xbcc0a111	-0.023514302
60	0x3d83e749	0.064405985
61	0xbc9b703b	-0.018974414
62	0xbcf166e6	-0.029468011
63	0x3d225405	0.03963091
64	0xbbe08c7d	-0.006852685
65	0xbd44e102	-0.048066147
66	0x3da48a60	0.080342054
67	0x3d387c35	0.045040328
68	0xbc25777f	-0.010099291
69	0x3c60f13b	0.013729389
70	0x3c4dbe98	0.012557648
71	0xbc9ba1e7	-0.0189981
72	0x3bd21c05	0.0064120316
73	0xbd0569b3	-0.032571506
74	0xbc3cb699	-0.011518144
75	0x3d41945d	0.04726063
76	0x3be3ca89	0.0069516343
77	0xbc94407c	-0.018097155
78	0x3cb04711	0.021518262
79	0x3c349b5c	0.011023369
80	0xbcf8db34	-0.030377962
81	0xbca54945	-0.02017654
82	0x3c1817c2	0.009283008
83	0x3abbe7f6	0.0014336098
84	0x3b6c264d	0.0036033571
85	0xbbc178c3	-0.0059042885
86	0xbb2dbb7c	-0.0026509454
87	0xbc6868a3	-0.014185104
88	0xbc9bc172	-0.01901314
89	0xba444f1a	-0.00074885937
90	0x3cdfa9cc	0.027302645
91	0xbd109ada	-0.035303928
92	0xbb6b7e3c	-0.0035933396
93	0x3d75aeb0	0.059981048
94	0xbcc3ee16	-0.02391724
95	0xbc99cb09	-0.018773573
96	0x3cd681e6	0.026184987
97	0xbcb468a6	-0.022022557
98	0x3bff21eb	0.0077860258
99	0xbc4f3916	-0.012647888
100	0xbcbcae73	-0.023032403
101	0xbc18696a	-0.009302476
102	0x3cc7cf2f	0.024390785
103	0xbc64cca2	-0.013964804
104	0xbd40db8f	-0.047084387
105	0x3d32f555	0.043690998
106	0xbc6d0d00	-0.0144684315
107	0xbd27dbd4	-0.04098113
108	0xbc864fd4	-0.016395487
109	0xbc703c71	-0.014662848
110	0xbc4a5f96	-0.012351891
111	0x3c5f5d4a	0.013633082
112	0xbb829b14	-0.003985772
113	0x3b83d556	0.0040232344
114	0x3c78b64d	0.015180183
115	0xbc2ac91b	-0.010423924
116	0x3c28bbdc	0.010298695
117	0xbc994d00	-0.018713474
118	0xbd2446a4	-0.04010643
119	0x3b07602f	0.0020656695
120	0x3d574d21	0.05256379
121	0xb90a8574	-0.00013210421
122	0xbcbd56e2	-0.023112718
123	0x3d726e2c	0.0591871
124	0xbb224e5b	-0.0024765942
125	0xbcb42ed0	-0.021994978
126	0xba54a409	-0.00081116013
127	0xbd8b2bc3	-0.06795456
128	0xbcabbf12	-0.020965133
129	0x3cf7071b	0.030154755
130	0xbbd00be1	-0.0063490723
131	0xbd21414d	-0.039368916
132	0x3d9aa87e	0.075516686
133	0x3d268f2c	0.040663883
134	0xbd61f88f	-0.055168685
135	0xbc854ace	-0.016271021
136	0x3bb1f858	0.005431216
137	0x3c636f16	0.013881465
138	0x3b786455	0.00379016
139	0xbc772be1	-0.015086145
140	0xbd180e25	-0.037122864
141	0x3d16aa09	0.036783252
142	0xbd2ce7b6	-0.042213164
143	0xbd1af713	-0.037833285
144	0xbb3e274a	-0.0029015117
145	0xbad5cd16	-0.0016311731
146	0xbc0d6ce0	-0.008631915
147	0xbc46be32	-0.012130307
148	0x3d02fb8a	0.031978168
149	0xbad7c7f4	-0.0016462789
150	0xbcd0b5dd	-0.025477344
151	0x3d2d4931	0.04230613
152	0xbce9657b	-0.028490772
153	0xbc151d54	-0.009101231
154	0xbbbcf09e	-0.0057659885
155	0x3abeff7b	0.0014571989
156	0x3c3220f7	0.010872117
157	0x3cbefd77	0.02331422
158	0x3bf29d16	0.00740398
159	0x3b86ec53	0.0041175275
160	0xbbee96ed	-0.0072811753
161	0xbc8b68e8	-0.017017797
162	0xbc9c3e0c	-0.019072555
163	0x3d1bbd54	0.038022354
164	0xbcca41a3	-0.024689501
165	0xb97333da	-0.00023193602
166	0x3d6e3f7b	0.05816601
167	0xbcad932b	-0.02118834
168	0xbcad401b	-0.021148732
169	0x3d076683	0.033056747
170	0xbcdfaa72	-0.027302954
171	0x3c4a36d4	0.012342174
172	0x3d19efee	0.03758233
173	0xba876a5a	-0.0010331378
174	0xbc63e91d	-0.013910559
175	0x3d92ebe0	0.07173896
176	0x3ca8eb06	0.02061988
177	0xbd1a755e	-0.037709586
178	0x3d90f7aa	0.07078488
179	0xbc8de39f	-0.017320452
180	0xbd6452a3	-0.05574287
181	0xbd828487	-0.06372934
182	0xbd51683b	-0.051124793
183	0xbd39f4e9	-0.04539958
184	0x3bd9def6	0.0066488935
185	0xbd327636	-0.043569766
186	0xbd1adacc	-0.037806317
187	0x3c8a95be	0.016917106
188	0xbd3e098c	-0.046395823
189	0xbbf0cb18	-0.0073484294
190	0x3a9c52b6	0.0011926505
191	0xbb6e1a6c	-0.0036331667
192	0xbc128f88	-0.008945353
193	0x3bac2c81	0.0052543287
194	0xbd27c285	-0.040956993
195	0xbcbdc535	-0.023165325
196	0x3c9842f2	0.01858661
197	0xbcb7ff08	-0.022460476
198	0xbcd39331	-0.025827022
199	0x3cea1c1d	0.028577859
200	0xbd267e89	-0.040648017
201	0x3c66ecfa	0.014094586
202	0x3d01ae49	0.031660352
203	0xbce52271	-0.027970525
204	0xbb8bcc74	-0.004266316
205	0x3b4d9ef2	0.0031375256
206	0xbd00666a	-0.03134767
207	0xbc3586bb	-0.0110794855
208	0x3c968b88	0.01837708
209	0xbbddce1c	-0.006768955
210	0xbc82e55a	-0.015978504
211	0x3d00bb49	0.03142861
212	0xbc80d26a	-0.015725333
213	0xbd278dff	-0.040906902
214	0xbcc33df7	-0.023833258
215	0xbc8072ba	-0.015679706
216	0xbc22b4c6	-0.009930795
217	0x3c87c977	0.016575558
218	0x3ac8b03b	0.001531131
219	0xbabfb26b	-0.0014625316
220	0x3d1113d6	0.035419308
221	0xbc0ac8ee	-0.008470757
222	0xbcb170c6	-0.02166022
223	0x3d17b01e	0.037033193
224	0xbc898676	-0.016787749
225	0xbc12b075	-0.008953203
226	0x3c041ee2	0.008064004
227	0xbcd23cb9	-0.02566372
228	0x3c0f835e	0.008759348
229	0xbcbf9f7b	-0.023391476
230	0xbbcf8a97	-0.00633366
231	0xbc8bf477	-0.017084343
232	0xbc6fe24b	-0.014641355
233	0xbc663f46	-0.0140531715
234	0xbcd3da64	-0.025860973
235	0xbb9baea4	-0.0047510434
236	0xbcbcb24b	-0.023034235
237	0xbad04277	-0.0015888949
238	0xbd2143fe	-0.039371483
239	0x3c1bc3f8	0.009507172
240	0xbc7d2831	-0.015451477
241	0xbc5b7dd9	-0.013396704
242	0xbbf534a5	-0.0074830824
243	0xbcde8092	-0.027160916
244	0x3c190db0	0.009341642
245	0xbd30a262	-0.04312361
246	0x3d286114	0.041108206
247	0xbae32bc4	-0.0017331769
248	0xbcf968e6	-0.030445527
249	0x3c6fb5aa	0.014630714
250	0xbb342af1	-0.0027491415
251	0xbcc126c4	-0.023578055
252	0xbb26f745	-0.0025476974
253	0x3b88cec7	0.0041750404
254	0x3c07ad92	0.0082811285
255	0xbc568086	-0.013092166

conv3.bias f4 [32]
0	0x3b615e1f	0.0034388376
1	0xbcbf0a5b	-0.023320368
2	0xbbba3682	-0.0056827674
3	0xbb20d678	-0.0024541896
4	0x3bfa6211	0.007641085
5	0xbc4e2de8	-0.012584187
6	0xbc98f9b5	-0.018673757
7	0xbc89a3be	-0.016801711
8	0xbc1133c2	-0.008862438
9	0x3ad87c8b	0.0016516609
10	0x3d000a6f	0.03125995
11	0xbc8fe641	-0.017565848
12	0xbbf85d65	-0.007579493
13	0xbb20f5f6	-0.0024560667
14	0xbb32d92d	-0.0027290091
15	0xbc9c9f11	-0.019118818
16	0xbce39b55	-0.027784029
17	0xbc2c65af	-0.01052229
18	0xbbf7399b	-0.007544709
19	0x3bb83ed6	0.005622725
20	0xbd0cc613	-0.034368586
21	0x3ceeece5	0.029165694
22	0xbc839896	-0.01606397
23	0xbb1444e8	-0.002262408
24	0xbc017766	-0.007902002
25	0x39dda23b	0.00042273276
26	0x3c263c95	0.01014628
27	0xbc091e4a	-0.008369038
28	0xbbe6cec3	-0.007043691
29	0xbc49ad19	-0.012309336
30	0xbbac8388	-0.005264703
31	0xbc096ee0	-0.008388251

fc.weight f4 [15, 8192]
0	0xbc46238e	-0.012093438
1	0xbd0a218b	-0.033723395
2	0xbcf87394	-0.03032855
3	0xbce4a78d	-0.027911926
4	0x3ce09b33	0.027417755
5	0x3caafcb7	0.020872457
6	0x3a854bd2	0.0010169691
7	0xbd17e5f4	-0.037084535
8	0x3b817afa	0.0039514275
9	0xbcb60aed	-0.022222007
10	0xbd066292	-0.032808848
11	0xbb9298d6	-0.004473786
12	0xbd193160	-0.037400603
13	0xbd726107	-0.059174564
14	0xbd02f781	-0.03197432
15	0xbc6ab3dc	-0.014325108
16	0x3b8361ab	0.0040094457
17	0x3ccdc6c0	0.025119185
18	0x3c9caa06	0.019124042
19	0xbd82d2e9	-0.06387884
20	0x3d290177	0.041261163
21	0xbc19f1f3	-0.009396064
22	0xbbe70cde	-0.0070510944
23	0xbcf28fd0	-0.02960959
24	0xbb9d47b8	-0.0047998093
25	0x3d17b744	0.03704001
26	0x3bc32ed0	0.005956508
27	0xbb9db895	-0.0048132637
28	0xbbba2ca2	-0.00568159
29	0xbd510228	-0.051027447
30	0x3c811edf	0.01576179
31	0x3ae3f0f6	0.0017390538
32	0x3c901a96	0.017590802
33	0x3d303762	0.043021567
34	0x3c6a5ac7	0.01430387
35	0xbc85563f	-0.016276477
36	0x3ca0e0e2	0.019638482
37	0xbcaa1aa2	-0.020764653
38	0xbc6f4b0a	-0.014605293
39	0xbc11d5d5	-0.008901079
40	0x3b0f0218	0.0021821316
41	0x3cae8286	0.021302473
42	0x3b476b2c	0.003042887
43	0x3aa0b038	0.0012259549
44	0xbd17540f	-0.0369454
45	0xbd31c7c7	-0.043403413
46	0x3a0a7bde	0.000528274
47	0x3cdf06f0	0.027224988
48	0x3c89093a	0.016728032
49	0x3d3cece4	0.046124354
50	0x3c765807	0.015035636
51	0xbc41b9bb	-0.011824067
52	0x3bf8472e	0.0075768447
53	0xbd2fd7d8	-0.042930454
54	0xbc398e80	-0.011325479
55	0x3d337780	0.043815136
56	0x3bea3dee	0.007148496
57	0x3c8c4f17	0.017127557
58	0xbca11127	-0.0196615
59	0x3bce1370	0.006288938
60	0xbd325fae	-0.04354828
61	0xbbe375e7	-0.0069415453
62	0xbb91d039	-0.004449871
63	0x3c76a5c6	0.015054172
64	0x3cc28565	0.023745248
65	0xbb7a3413	-0.0038178011
66	0xbcafec42	-0.021474961
67	0x3c5d6de2	0.013514968
68	0x3cbff58e	0.02343252
69	0xbd660e44	-0.05616595
70	0xbc918b9c	-0.017766766
71	0x3bc8cca1	0.0061279093
72	0xbd6f085c	-0.05835758
73	0x3ca9502d	0.020668114
74	0xbcb654ef	-0.022257296
75	0x3b1a46e0	0.002354078
76	0xbd174d32	-0.036938854
77	0xbcc720c2	-0.024307612
78	0xbd4919dc	-0.049096927
79	0xbce1533c	-0.02750551
80	0x3b06fc1c	0.0020597046
81	0x3b685818	0.0035452899
82	0x3c1d52b9	0.009602242
83	0x3ca79936	0.020458799
84	0x3d0de9f5	0.034646947
85	0xbd9b2d60	-0.07577014
86	0x3bd4458c	0.006478017
87	0xbd0900d7	-0.033448067
88	0xbd29dc2a	-0.04146973
89	0x3cf5f0e3	0.03002209
90	0xbd1d580c	-0.038414046
91	0xbc363523	-0.011121067
92	0x3c2e4471	0.010636435
93	0xbcbee586	-0.023302805
94	0xbd169c60	-0.036770225
95	0x3b21512a	0.0024615028
96	0x3bbfe004	0.005855562
97	0xba190f69	-0.0005838783
98	0x3ccea110	0.025223285
99	0x3c94a5c0	0.018145442
100	0x3d4e0c27	0.050304558
101	0x3bd0707e	0.0063610664
102	0x3b3bdc1a	0.0028665126
103	0x3ce9b98b	0.028530857
104	0xbd64572e	-0.055747204
105	0x3d47723a	0.04869292
106	0xbd04c7ef	-0.032417234
107	0xbca453e2	-0.02005953
108	0x3d22e284	0.039766803
109	0x3ca5d4c7	0.020243062
110	0xbc8fa1f5	-0.017533282
111	0x3ba3333c	0.004980473
112	0x3c1df56a	0.009641031
113	0x3d0f40a5	0.03497376
114	0x3b889476	0.0041680885
115	0x3c8bddfc	0.017073624
116	0x3d2da5a7	0.042394307
117	0x3c64c91d	0.013963965
118	0x3ce6645a	0.028124023
119	0x3bf8f52b	0.0075975857
120	0xbd216184	-0.03939964
121	0xbceb594f	-0.02872911
122	0xbce94aaa	-0.028477985
123	0xbda3f115	-0.08004967
124	0x3cecbc6d	0.028898442
125	0x3ca0c85a	0.019626785
126	0x38ac8060	8.225511e-05
127	0x3cbec55d	0.02328747
128	0x3bf57909	0.007491235
129	0x3cd7f41b	0.026361516
130	0x3c4eab35	0.012614061
131	0xbc8eaaff	-0.017415522
132	0x39d9bd68	0.00041530584
133	0xbca6790f	-0.020321397
134	0x3b035703	0.0020040877
135	0xbd3b18a9	-0.045677815
136	0xbd10e2d6	-0.035372578
137	0x3a1e54fb	0.0006039885
138	0xbcd80343	-0.026368743
139	0xbd880df0	-0.06643283
140	0xbb2d9586	-0.0026486828
141	0xbd2b2118	-0.041779608
142	0x3cc37469	0.02385922
143	0x3cb2c7fe	0.02182388
144	0x3c901fc5	0.017593274
145	0xbc23f04d	-0.010006023
146	0x3c93a78a	0.018024225
147	0xbc3965f5	-0.011315812
148	0x3c639c0f	0.013892188
149	0xbcaeca5b	-0.021336725
150	0xbd2768cd	-0.04087143
151	0xbd06d963	-0.03292216
152	0xbd6d7ab3	-0.057978343
153	0xbcc14ee4	-0.023597188
154	0xbd66fdf6	-0.05639454
155	0xbca42d14	-0.020041026
156	0x3d5bf20e	0.05369764
157	0xbca6c760	-0.020358741
158	0xbcf2cc63	-0.029638475
159	0x3b2a1937	0.002595497
160	0x3c13d2c3	0.0090224175
161	0x3c44a362	0.012001844
162	0x3cb8a843	0.022541171
163	0xbc531544	-0.012883488
164	0xbb2299f6	-0.0024811006
165	0x3bb82ba2	0.005620436
166	0xbd13b403	-0.036060344
167	0x3cf76a5f	0.030202089
168	0x3b1d7306	0.0024024858
169	0x3b35cfb6	0.0027742214
170	0xbcb648ac	-0.02225145
171	0x3bc5ac37	0.0060324925
172	0x3d256212	0.04037673
173	0xbc8f8a07	-0.017521871
174	0xbd29c2e5	-0.04144563
175	0xbbdecc42	-0.006799252
176	0x3c178350	0.009247616
177	0x3c346169	0.0110095525
178	0x3b2a8448	0.0026018787
179	0xbd385982	-0.045007236
180	0xbc9b83ff	-0.01898384
181	0xbcc8ca02	-0.024510387
182	0xbd310f24	-0.04322733
183	0x3a3fe350	0.0007319944
184	0x3c8d48e7	0.017246677
185	0x3c4fd7c0	0.012685716
186	0x3bacca17	0.0052731144
187	0x3a67d116	0.0008843107
188	0xbb4466ba	-0.0029968456
189	0xbd00c130	-0.031434238
190	0xbd4db5d0	-0.050222218
191	0xba7fbeac	-0.00097558904
192	0x3bbcd1e3	0.005762325
193	0x3be50bc6	0.006989929
194	0x3cf08a1f	0.029362736
195	0xbc99702a	-0.018730242
196	0xbcb632ba	-0.022240985
197	0x3c7f6af6	0.015589466
198	0xbc3f4e7d	-0.011676428
199	0xbb9c2d1c	-0.0047661196
200	0x3bb92a09	0.005650763
201	0x3cc61330	0.024179071
202	0xbad96353	-0.0016585387
203	0xbc80f886	-0.015743505
204	0xbd0a8def	-0.033826765
205	0xbc1fc3e5	-0.009751295
206	0x3be28700	0.006913066
207	0xbc25b44e	-0.010113789
208	0xbb83f410	-0.0040268973
209	0xbab124f2	-0.0013515039
210	0x3cc53f61	0.024078073
211	0xbcdfa8b8	-0.027302131
212	0xbc982cb6	-0.018576007
213	0x3a70fb3d	0.0009192711
214	0x3d146f09	0.036238704
215	0xbd38fb7a	-0.0451617
216	0xbd817bfb	-0.063224755
217	0x3c870048	0.016479626
218	0xbcd1f663	-0.025630182
219	0xbcfe26ec	-0.031024419
220	0xbc2c21d3	-0.010506111
221	0xbcf1c55d	-0.029513055
222	0x3c344125	0.01100186
223	0xbcd5be87	-0.026091827
224	0x3bf91ca3	0.0076022907
225	0x3d2f0af4	0.042735055
226	0x3d319e25	0.04336371
227	0xbc1a34c3	-0.009411993
228	0x3aa510c0	0.0012593493
229	0x3c2d8a5d	0.01059207
230	0xbc5aa5b0	-0.013345167
231	0xbbe2d1f1	-0.0069219996
232	0xbd16fc12	-0.036861487
233	0xbd282f65	-0.041060824
234	0xbc8eac78	-0.017416224
235	0x3c5bb430	0.013409659
236	0xbd848a60	-0.064717054
237	0xbd1da034	-0.03848286
238	0x3c29ecf6	0.010371437
239	0xbda01433	-0.07816353
240	0xbcaf2f3f	-0.021384833
241	0xbc0d9dc4	-0.008643571
242	0x3c95a285	0.018265972
243	0xbce79719	-0.028270291
244	0x3bc94025	0.00614168
245	0xbcf808b0	-0.03027758
246	0x3c1c648e	0.0095454585
247	0xbbb46631	-0.005505346
248	0xbd355109	-0.044266734
249	0xbd98422f	-0.074344985
250	0xbc0d3ebc	-0.008620914
251	0xbc47c288	-0.012192376
252	0xbd3bc4ed	-0.0458421
253	0x3bb8de9c	0.0056417715
254	0x3c7c2a55	0.015390952
255	0xbc883936	-0.016628843

fc.bias f4 [15]
0	0xbccee2f9	-0.025254713
1	0x3c9a57a8	0.018840626
2	0x3ca86c7f	0.020559547
3	0x3d01b71f	0.03166878
4	0xbcad28c5	-0.021137604
5	0xbc688d2a	-0.014193812
6	0xbcba996e	-0.02277824
7	0xbc254885	-0.010088091
8	0x3cf9f906	0.030514251
9	0x3bdb2ca5	0.0066886717
10	0x3d05b2f1	0.032641355
11	0xbd09998f	-0.03359371
12	0x3ad7ee50	0.0016474221
13	0xbc7f789a	-0.0155927185
14	0xbbeb3a38	-0.007178571
