models/augmentedBatch.pth (torch, 523982 bytes, 20 tensors)

conv1.weight f4 [8, 3, 3, 3]
0	0xbb1421af	-0.0022603085
1	0xbc4e3c5c	-0.012587633
2	0xbcb535b1	-0.022120329
3	0x3c40b75e	0.011762468
4	0xbba2d0e1	-0.004968748
5	0x3ca62fba	0.02028643
6	0x3c24754e	0.010037733
7	0x3cbd4ff1	0.023109408
8	0x3d254f42	0.04035879
9	0xbc564719	-0.013078474
10	0xbbd0ed35	-0.0063759335
11	0xbcbe85d8	-0.023257181
12	0xbc03ec3f	-0.008051931
13	0x3c78d08e	0.015186442
14	0x3ca523f6	0.02015875
15	0x3bda912a	0.006670137
16	0x3d167807	0.03673556
17	0x3be55324	0.0069984365
18	0x3b1ef3ce	0.0024254206
19	0xbbd55c0f	-0.0065112184
20	0xbbea39cb	-0.0071480027
21	0x3c16ccab	0.00920407
22	0x3c62cb46	0.0138424095
23	0xbc9d9ce5	-0.019239852
24	0x3ce31de3	0.027724212
25	0x3d12196d	0.03566878
26	0x3b5c013e	0.0033570076
27	0x3d7b686b	0.061378878
28	0xbd8a41d9	-0.06750841
29	0xbc156f4e	-0.009120775
30	0x3d962c78	0.073327005
31	0xbd1b7184	-0.037950054
32	0xbcce119b	-0.02515488
33	0x3d5a6e94	0.05332811
34	0xbcc028b3	-0.023456907
35	0xbc4b0489	-0.012391218
36	0x3d7e6bdf	0.062114593
37	0xbd5a49e1	-0.053293113
38	0xbc5cefe6	-0.013484931
39	0x3d86af00	0.06576347
40	0xbd1cfc15	-0.03832634
41	0xbd3ed981	-0.046594147
42	0x3d673055	0.056442577
43	0xbd3b64d4	-0.045750454
44	0xbc3c1053	-0.011478501
45	0x3d61cd18	0.055127233
46	0xbd1ebbf5	-0.03875347
47	0xba559d17	-0.00081487134
48	0x3da0b0f9	0.07846255
49	0xbd1e5a22	-0.038660176
50	0xbd1f4aa7	-0.038889553
51	0x3d7d6932	0.0618679
52	0xbd4c0eb7	-0.04981872
53	0xbcac467a	-0.0210297
54	0x3bd30852	0.006440201
55	0x3c13202d	0.008979839
56	0x3c5652ff	0.013081311
57	0x3c3a33b2	0.011364864
58	0x3c38d1aa	0.011280457
59	0x3caa2714	0.020770587
60	0x3b8842bc	0.004158346
61	0x3c837adf	0.0160498
62	0x3c50306f	0.01270686
63	0xbc831ddb	-0.016005447
64	0xbc2dc52b	-0.010606091
65	0x3be91f2c	0.0071143117
66	0x3bc9716a	0.006147553
67	0x3b88331e	0.0041564843
68	0x3c8985cd	0.016787434
69	0x3b0565c0	0.0020354837
70	0x3d093357	0.033496227
71	0x3c92b781	0.017909767
72	0xbc4eedbf	-0.012629925
73	0x3b4fb728	0.0031694863
74	0xbb1475e0	-0.0022653267
75	0x3a51a570	0.00079973694
76	0x3cb7fae1	0.022458496
77	0xbc25e499	-0.010125303
78	0xbbb6bb22	-0.005576507
79	0x3bee985b	0.007281346
80	0x3cf470e3	0.029838985
81	0x3d1f9c20	0.03896725
82	0x3d683cdb	0.05669866
83	0x3cc8b2b1	0.02449927
84	0xbc92e210	-0.01793006
85	0xbb6451d1	-0.0034838805
86	0xbba7b802	-0.005118371
87	0xbd398752	-0.045295067
88	0xbd340d79	-0.04395816
89	0xbc7a6803	-0.015283587
90	0x3d4def59	0.050277088
91	0x3d49034d	0.049075413
92	0x3cf669ac	0.030079685
93	0xbcbe0d5e	-0.023199733
94	0xbb127b34	-0.0022351267
95	0xbb647404	-0.003485919
96	0xbd03f7bf	-0.03221869
97	0xbd0e10ae	-0.034683876
98	0xbcd40a0d	-0.025883699
99	0x3d3b7265	0.045763392
100	0x3d97bacb	0.07408675
101	0x3c34667d	0.011010763
102	0x3bced7c5	0.006312343
103	0xbca119f0	-0.019665688
104	0xbc2ce50f	-0.010552659
105	0xbca1f40b	-0.019769689
106	0xbd5ba08b	-0.053619903
107	0xba651756	-0.0008739134
108	0xbbbd6b22	-0.0057805935
109	0xbd430537	-0.047612395
110	0x3d812df9	0.06307597
111	0xbcd925b3	-0.026507234
112	0xbd5eab53	-0.054362606
113	0x3d9b770b	0.07591065
114	0xbc8d86d2	-0.017276201
115	0xbd43f562	-0.047841437
116	0x3dca90dc	0.09890911
117	0x3c49f40c	0.012326252
118	0xbd6cfe5f	-0.057859775
119	0x3d5afb48	0.053462297
120	0xbd4367d6	-0.047706448
121	0xbd714420	-0.05890286
122	0x3dca5ea6	0.09881334
123	0xbd3be36f	-0.045871194
124	0xbd5a8f41	-0.053359274
125	0x3d9c1ff6	0.076232836
126	0xbc359f9e	-0.011085419
127	0xbd8a2c12	-0.06746687
128	0x3d569c19	0.05239496
129	0xbcdcbf7b	-0.026946774
130	0xbd8256f5	-0.06364242
131	0x3dbd6688	0.09248072
132	0xbd45fc46	-0.04833629
133	0xbd20c687	-0.03925183
134	0x3dbf99a7	0.09355479
135	0xbaef775a	-0.0018269822
136	0xbcd6209d	-0.026138598
137	0xbb651e54	-0.0034960704
138	0xbd0f712c	-0.03502004
139	0xbd4d6f45	-0.050154943
140	0xbd4c13ac	-0.049823448
141	0x3d1aca5e	0.03779065
142	0x3d8c1b0b	0.068410955
143	0x3d2c7b69	0.04210988
144	0xbc609140	-0.013706505
145	0xbc45d223	-0.012074026
146	0xbb2b022f	-0.002609383
147	0xbd44c154	-0.048035935
148	0xbd8fd6b1	-0.07023371
149	0xbd1149df	-0.03547084
150	0x3d4b2c93	0.049603056
151	0x3da2621c	0.07928869
152	0x3d1345bf	0.035955187
153	0x36abbe81	5.1183747e-06
154	0xbcb45466	-0.0220129
155	0x3ba694da	0.0050836625
156	0xbce4b2fa	-0.027917374
157	0xbd5eaecd	-0.05436592
158	0xbd0a278a	-0.033729114
159	0x3cdcd2ab	0.026955923
160	0x3d94fa26	0.072742745
161	0x3ce5dddf	0.028059898
162	0xbcb98b38	-0.022649392
163	0x3b708836	0.0036702282
164	0x3c053691	0.008130685
165	0xbc9d06e8	-0.019168332
166	0x3bb108e5	0.0054026716
167	0x3aa56338	0.001261807
168	0xbc5fa073	-0.013649094
169	0xbcb31122	-0.021858755
170	0xbb93f0dd	-0.004514797
171	0xbcef2e5d	-0.029196912
172	0xbb64aa64	-0.00348916
173	0xbb953c9a	-0.0045543434
174	0xbcb04c8a	-0.021520872
175	0xbc980a3b	-0.018559566
176	0xbc9a6e5d	-0.018851453
177	0xbc5002b3	-0.012695956
178	0x3bb3bbf0	0.0054850504
179	0x3b121132	0.0022288081
180	0xbd0cfd09	-0.034421
181	0xbc5d88c1	-0.013521374
182	0xbc19c21b	-0.009384657
183	0xbcc6ad72	-0.024252627
184	0xbc532fcb	-0.012889813
185	0xbba28c49	-0.004960571
186	0xbd087d46	-0.033322595
187	0xbc0b4e6a	-0.008502582
188	0xbccf320b	-0.025292417
189	0x3d4300e4	0.04760827
190	0x3c5a4515	0.0133221345
191	0xb9c8346f	-0.0003818604
192	0xbc8d2015	-0.017227212
193	0xbd948739	-0.07252354
194	0xbdd36049	-0.10321099
195	0x3d5ab44e	0.05339461
196	0x3d9cff75	0.07665912
197	0xbc46133a	-0.012089545
198	0x3d838c0d	0.06423197
199	0xbaa05108	-0.001223118
200	0x3a947bbd	0.0011328381
201	0xbb574f9f	-0.0032853854
202	0xbd6c55ac	-0.05769889
203	0xbdb5496d	-0.088518955
204	0x3d8d0381	0.06885434
205	0x3d962303	0.07330897
206	0xbc6cb4ae	-0.014447374
207	0x3d59f516	0.053212248
208	0x3c4708ca	0.012148092
209	0x3bf9b022	0.0076198736
210	0xbcb0d7d5	-0.021587292
211	0xbd775c15	-0.06039055
212	0xbdeb7e71	-0.11498726
213	0x3da7760a	0.08176811
214	0x3d6ec242	0.058290727
215	0xbc09986a	-0.008398155

conv1.bias f4 [8]
0	0xb1b8c005	-5.376935e-09
1	0x32c2c6de	2.2675007e-08
2	0x317fb9b8	3.7212953e-09
3	0x307785c2	9.004816e-10
4	0x31ef2fb6	6.9612396e-09
5	0x32ad350d	2.0163975e-08
6	0x3200f85f	7.507054e-09
7	0xb33fd360	-4.4662897e-08

conv2.weight f4 [16, 8, 3, 3]
0	0x3a28f843	0.0006445685
1	0x3c7e79bf	0.015531956
2	0x392fa1ba	0.00016749548
3	0x3b94d806	0.0045423536
4	0x3b8dbccc	0.004325485
5	0xbca59bb7	-0.020215852
6	0x3c2bf0ab	0.010494391
7	0x3ca4fbd2	0.020139609
8	0xbccf25ec	-0.025286637
9	0x3c39c37f	0.011338114
10	0x3bde62b3	0.006786668
11	0x3bf83982	0.007575215
12	0xbc327bf0	-0.010893807
13	0xbb822c28	-0.003972549
14	0x3b6e0d63	0.0036323897
15	0xbbcfd79b	-0.006342841
16	0xbb8c54db	-0.0042825765
17	0x3c478507	0.012177712
18	0x3b49b2e6	0.0030776798
19	0x3c5368b9	0.012903386
20	0xbb009298	-0.0019618627
21	0x3c713644	0.014722411
22	0x3c9bdca3	0.019026106
23	0x3bdf000b	0.006805425
24	0x3ca5ff13	0.02026323
25	0x3cf4ea03	0.029896742
26	0x3982f3c6	0.00024977158
27	0x3c4fb1a7	0.012676633
28	0xbcbb7bb0	-0.022886127
29	0xbca8bcad	-0.02059778
30	0x3c710250	0.014710024
31	0xba8436b3	-0.0010087102
32	0xbc8d4fa3	-0.017249888
33	0x3c340b7d	0.010989067
34	0x3c15e995	0.009149929
35	0xbbec418f	-0.0072099636
36	0xb9bf671e	-0.00036507187
37	0xbbf7e965	-0.0075656646
38	0xbcc10a7e	-0.023564573
39	0x3d05eb91	0.032695357
40	0xbc2bff1b	-0.010497834
41	0xbc587198	-0.013210677
42	0x3cef8bc5	0.029241452
43	0xbc0b4eee	-0.008502705
44	0xbc93d6b7	-0.01804672
45	0xbd193c0f	-0.037410792
46	0xbc5a979b	-0.01334181
47	0x3c9dcbf1	0.019262286
48	0xbcbbfb44	-0.022946961
49	0xbc88d626	-0.016703676
50	0xbc26049d	-0.010132936
51	0x3b13cb2d	0.0022551522
52	0xbce1ed88	-0.027579084
53	0xbc877c74	-0.016538836
54	0xbcadf0c0	-0.021232963
55	0xbb1433cf	-0.0022613888
56	0xbb5d1c87	-0.0033738927
57	0x3c9bd009	0.019020097
58	0xbcc4397c	-0.023953192
59	0xbc2f3d23	-0.0106957285
60	0x3c817d3e	0.01580679
61	0x3bb0b32f	0.005392454
62	0xbb255b01	-0.0025231245
63	0xbcd5c9b3	-0.026097154
64	0xbb85b637	-0.0040805596
65	0xbcc896f7	-0.024486048
66	0xbc8c38e7	-0.017116977
67	0x3c118d2a	0.008883754
68	0xbcf4174f	-0.02979627
69	0xbcb3330d	-0.021874929
70	0x3c0aa387	0.0084618395
71	0xbcb31c43	-0.021864062
72	0x3a9bfff0	0.0011901837
73	0xbcdafceb	-0.026731929
74	0xbc9446be	-0.018100139
75	0xbb71e12e	-0.00369079
76	0xbbe28da4	-0.0069138575
77	0xbca4de50	-0.020125538
78	0x3bbe3066	0.0058041094
79	0xbca631fd	-0.020287508
80	0xb8c838be	-9.547312e-05
81	0x3b210118	0.0024567302
82	0xbc653d94	-0.013991732
83	0xbacc6d89	-0.0015596609
84	0xbc460ae8	-0.012087561
85	0x3aeba4c2	0.0017978179
86	0xbbd1d374	-0.006403381
87	0xbc2b055a	-0.010438288
88	0xbc77fe47	-0.015136308
89	0x3bc23661	0.0059268926
90	0xbc9ab4ff	-0.018885134
91	0xbc4471de	-0.011990039
92	0xbd00c77b	-0.03144024
93	0xbc83dbe4	-0.016096063
94	0xbd03d69f	-0.0321871
95	0xbcb6b542	-0.022303227
96	0xbc8b02e0	-0.016969144
97	0xbccb1055	-0.024788061
98	0xbc853578	-0.016260847
99	0xbc91546f	-0.017740456
100	0xbc19612e	-0.009361548
101	0xbccced88	-0.025015607
102	0xbca5b540	-0.020228028
103	0xbd017b5a	-0.031611778
104	0xbd032a07	-0.032022502
105	0xbbe78c82	-0.0070663104
106	0x3b9569dd	0.004559739
107	0xbc615108	-0.0137522295
108	0x3c25c39e	0.01011744
109	0x3b94764b	0.004530703
110	0x3c1a4ae0	0.009417266
111	0x3c09d48c	0.0084124915
112	0xbce4eb91	-0.027944358
113	0xbca786a3	-0.020449942
114	0xbb2cb33b	-0.0026351947
115	0x3a8e020c	0.001083435
116	0x3bd55620	0.006510511
117	0xbbca64f6	-0.0061765863
118	0xbc2cb554	-0.010541279
119	0x3bc1d375	0.0059151
120	0xbc3922f1	-0.011299835
121	0xbcd4d8d0	-0.02598229
122	0xbc9249f0	-0.017857522
123	0xbb81b3a1	-0.003958181
124	0x3c9ec976	0.019383173
125	0xbc9d754e	-0.019220974
126	0xbb57d7fc	-0.0032935133
127	0xbb88c83d	-0.004174261
128	0x3c10039a	0.008789921
129	0xbc95088b	-0.01819255
130	0x3a57b85b	0.000822907
131	0xbd22af55	-0.03971799
132	0xbc2b09cd	-0.010439348
133	0x3c7ab567	0.015302039
134	0xbc567a71	-0.013090716
135	0xbc9a1000	-0.018806458
136	0xbcaa2a83	-0.020772224
137	0x38db23f6	0.00010449432
138	0xbac96cb8	-0.0015367484
139	0xbcbd65e9	-0.023119884
140	0xbca7c679	-0.020480381
141	0x3c017eb6	0.007903745
142	0xbc2a8d2e	-0.010409636
143	0xbc620220	-0.013794452
144	0xbafe7478	-0.0019413373
145	0xba7404fc	-0.0009308604
146	0xbc41c5fc	-0.011826988
147	0xbc8db147	-0.017296446
148	0x3c033d74	0.008010257
149	0xbc855118	-0.01627402
150	0x3cff2bd4	0.031148829
151	0xbbaba519	-0.005238187
152	0x3b795e4d	0.0038050592
153	0xbcf09078	-0.029365763
154	0xbd174c25	-0.03693785
155	0xbc706cb1	-0.014674352
156	0xbd014d39	-0.031567786
157	0xbcf84848	-0.030307904
158	0xbc4a2ca3	-0.012339744
159	0xbc9474f3	-0.018122172
160	0xbcb30ab1	-0.021855684
161	0xbc96274e	-0.018329289
162	0xbc3cce5c	-0.011523809
163	0xbcaea115	-0.021317044
164	0x3b031811	0.0020003358
165	0xbcc8d001	-0.024513246
166	0xbd0c6bc9	-0.03428248
167	0xbc7f3fd0	-0.015579179
168	0xbd24df46	-0.040251993
169	0xba812e11	-0.0009855648
170	0x3c80a85a	0.015705276
171	0x3ccdf939	0.025143253
172	0x3cbe73c3	0.023248559
173	0x3c94b545	0.018152842
174	0x3b532def	0.0032223423
175	0x3b80e8f8	0.003934022
176	0xbb1b0435	-0.002365363
177	0xbbb670c9	-0.0055676443
178	0xbc048cc0	-0.008090198
179	0xbca306d3	-0.019900715
180	0xbcfe0124	-0.031006403
181	0xbd33c9df	-0.04389369
182	0xbca22fbf	-0.019798158
183	0xbd34809f	-0.044067975
184	0xbd48c593	-0.049016546
185	0xbce5b1ef	-0.028038947
186	0xbcb025b7	-0.021502359
187	0xbcd624f5	-0.02614067
188	0xbbc70bb8	-0.006074395
189	0xbbae06c6	-0.005310866
190	0xb9c0e09d	-0.00036788444
191	0x3b90670a	0.0044068145
192	0xbc2b9877	-0.010473362
193	0xbc34d916	-0.011038085
194	0x3b8fd3c5	0.0043892586
195	0x3ab75ec7	0.0013990038
196	0xba8cedd5	-0.0010752032
197	0x3b4a8a21	0.0030905085
198	0x3b883706	0.00415695
199	0xbc9f558f	-0.019449977
200	0xbc2f896f	-0.010713919
201	0x3c74f903	0.014951947
202	0x3a495254	0.00076798094
203	0x3cb10884	0.021610506
204	0xbb6e9f1b	-0.0036410752
205	0xbc15e7e4	-0.009149525
206	0xbb87cbc2	-0.004144163
207	0xbc462b40	-0.012095273
208	0xbc0d2aff	-0.008616208
209	0xbb98f6e2	-0.0046681026
210	0xbcb54fb1	-0.022132726
211	0xbcd92143	-0.026505118
212	0xbcb70594	-0.022341527
213	0xbcc2095c	-0.023686104
214	0xbca014b8	-0.01954113
215	0xbaf89a24	-0.0018966836
216	0x3c238866	0.00998125
217	0x3c9494af	0.018137304
218	0x3ba6d388	0.0050911345
219	0x3ccd2636	0.025042634
220	0x3bc1ff6e	0.005920342
221	0xba68d26e	-0.0008881454
222	0x3bd1d23b	0.0064032353
223	0xbc33bb90	-0.010970011
224	0x3c33a615	0.01096489
225	0xbc3c60fc	-0.011497732
226	0x3cc4822d	0.023987854
227	0x3c7a4ec5	0.015277569
228	0xbbdee9ba	-0.0068027647
229	0x3c84f549	0.016230242
230	0x3bb38a32	0.0054791206
231	0x3ca3018f	0.019898204
232	0x3d156fab	0.036483448
233	0xbad3b758	-0.0016152663
234	0x3ced5f2c	0.028976046
235	0x3cb175ad	0.021662557
236	0x3cdf130f	0.027230768
237	0x3c6b9a56	0.014380058
238	0xbc27aeba	-0.010234529
239	0x3d092d90	0.033490717
240	0x3cc7edde	0.024405416
241	0x3c9d9809	0.019237535
242	0x3c1d1ecc	0.009589862
243	0x3c2642a3	0.010147723
244	0x3bc6dbd7	0.0060686874
245	0xbbec2881	-0.007206977
246	0x3bdd501f	0.006753936
247	0xbc23a005	-0.009986882
248	0x3ccbb535	0.02486668
249	0x3cf70689	0.030154483
250	0x3c1882c6	0.009308523
251	0xbc634cd1	-0.013873295
252	0x3cc5e427	0.024156643
253	0x3bd3fb6d	0.0064691813
254	0x3d01396f	0.031548914
255	0x3ada2a2f	0.0016644652

conv2.bias f4 [16]
0	0xb2a4e52d	-1.919633e-08
1	0xb334f2b7	-4.2130264e-08
2	0xb47dc963	-2.3635725e-07
3	0xb226f482	-9.718066e-09
4	0xb521b965	-6.024696e-07
5	0xb4090cc0	-1.2763758e-07
6	0xb417846b	-1.4111144e-07
7	0xb42a5e99	-1.5866898e-07
8	0x3394aed6	6.9235895e-08
9	0x33940fd8	6.894669e-08
10	0x349cfa49	2.923937e-07
11	0x344793aa	1.8587039e-07
12	0xb4accad8	-3.2185085e-07
13	0x342db561	1.6177866e-07
14	0xb29f7a27	-1.8565585e-08
15	0xb20a59c8	-8.053071e-09

conv3.weight f4 [32, 16, 3, 3]
0	0xbc801550	-0.015635163
1	0xbc945a0d	-0.018109346
2	0xbc3414c9	-0.010991284
3	0xbcbd0faa	-0.023078758
4	0xbac2eed9	-0.0014872208
5	0xbc84abba	-0.016195167
6	0x3c3a1d00	0.011359453
7	0xbc486723	-0.012231621
8	0x3cb55fd5	0.022140423
9	0x3c9bbba4	0.019010372
10	0x3ca34040	0.019928098
11	0x3ce6d91c	0.028179698
12	0x3d03a8c4	0.03214337
13	0x3d102217	0.03518876
14	0x3cc7407a	0.024322737
15	0x3ceb6563	0.028734868
16	0x3c447115	0.0119898515
17	0x3ba72cef	0.005101792
18	0x38b90edd	8.824256e-05
19	0x3ccd41b4	0.025055744
20	0x3bd71a42	0.0065644095
21	0x3c17c90e	0.009264244
22	0x3ca1b41e	0.019739207
23	0x3c9e384a	0.01931395
24	0xbc2717ba	-0.010198528
25	0x3c37ad59	0.011210763
26	0xbc18848e	-0.009308947
27	0x3c458c64	0.0120573975
28	0x3b6b69f9	0.003592132
29	0x3c61ee04	0.0137896575
30	0xbb09fea1	-0.0021056312
31	0x3c8b6a51	0.017018469
32	0x3b57f1a0	0.0032950416
33	0x3c96a220	0.018387854
34	0x3b9d3831	0.0047979583
35	0xbc4c8a5d	-0.01248416
36	0xbb8bb35b	-0.004263324
37	0xbbc0d0ed	-0.005884281
38	0x3cb28de0	0.021796167
39	0xbc2f3e50	-0.010696009
40	0xbc8b0f77	-0.016975148
41	0x3b9a0b6f	0.00470107
42	0xbb473133	-0.0030394315
43	0x3c98bf5d	0.018645937
44	0xbb37d4ac	-0.0028050346
45	0x3c385abe	0.011252103
46	0xbbc428d2	-0.0059863115
47	0xbc1945fa	-0.009355063
48	0x3bf3430e	0.007423765
49	0x3a8fd488	0.0010973373
50	0x3bba4878	0.0056849085
51	0xbbdedb4d	-0.006801045
52	0xbc8cd8f5	-0.017193297
53	0xbc2858ae	-0.010275049
54	0x3cb0899b	0.02154999
55	0xbc3a85a9	-0.011384406
56	0xbbfa1f8d	-0.0076331557
57	0x3c7cf302	0.015438797
58	0xba980c85	-0.0011600411
59	0xbbcbc449	-0.0062184674
60	0xbb99b47c	-0.004690705
61	0x3b770803	0.0037693984
62	0xbb268a68	-0.0025412086
63	0x3cdb5c5b	0.026777437
64	0x3c1a1b5c	0.009405937
65	0x3ab096cd	0.0013472677
66	0x3c72c785	0.014818077
67	0x3c911ba2	0.017713372
68	0x3c5ae589	0.0133603895
69	0x3c5dffe0	0.013549775
70	0x3be8001e	0.007080092
71	0x3cd7f677	0.02636264
72	0xba833394	-0.0010009878
73	0xba863157	-0.0010238093
74	0xbb34c28c	-0.002758178
75	0xbc26e384	-0.01018608
76	0xbb4eefbb	-0.0031575996
77	0xba227e86	-0.0006198663
78	0xbc91f4db	-0.017816951
79	0x3c95ccf5	0.018286208
80	0x3b1e11d1	0.0024119506
81	0x3be8f211	0.0071089347
82	0x3c9daa90	0.01924637
83	0x3ca9370f	0.020656137
84	0x3c152151	0.0091021815
85	0x3c423cc7	0.011855311
86	0xbb108a99	-0.0022055267
87	0x3bb43a94	0.005500147
88	0xbc21c914	-0.009874601
89	0xbb9f4fba	-0.004861799
90	0xbc3840b4	-0.011245895
91	0xbc1208a8	-0.008913197
92	0xbc7d7f55	-0.015472253
93	0xbbc0b9a9	-0.0058815074
94	0x3b247444	0.0025093714
95	0xbbab6d14	-0.005231509
96	0xbb5ddd1f	-0.0033853722
97	0xbc4a2a71	-0.01233922
98	0x3c1f9912	0.009741085
99	0xbab1b5c3	-0.0013558198
100	0x3be6b9d5	0.007041196
101	0xbb8f61af	-0.0043756585
102	0xbc6a77c7	-0.014310784
103	0xbb73ecb1	-0.0037219936
104	0xbb245a26	-0.0025078147
105	0xbbaca55c	-0.005268736
106	0xbc2c6a5d	-0.010523406
107	0xbbbed2f9	-0.0058234897
108	0xbc251049	-0.010074683
109	0xbc8ba5ad	-0.017046774
110	0xbc534970	-0.012895927
111	0xbc5be41b	-0.013421084
112	0xbc240ea2	-0.010013254
113	0xbbdbb2b8	-0.0067046545
114	0xbc6c5723	-0.014425072
115	0x3c0bbf04	0.008529428
116	0xbbff09b2	-0.007783138
117	0xbc861a24	-0.016369887
118	0xbc3f9b82	-0.011694791
119	0xbc875c22	-0.016523425
120	0xbc718793	-0.014741796
121	0xbccd6879	-0.02507423
122	0xbb92373a	-0.00446215
123	0xbc75dcb2	-0.015006231
124	0xbb57210a	-0.003282609
125	0xbaa242e3	-0.0012379553
126	0xbc908806	-0.017642986
127	0xbc5fc11e	-0.013656883
128	0xbbab0d3d	-0.005220084
129	0xbc1b1cb9	-0.009467297
130	0x3baa3245	0.005193981
131	0xbcae752e	-0.02129611
132	0x3c2cfa20	0.010557681
133	0x3c358248	0.011078425
134	0x3c86c75d	0.016452486
135	0x3cb8e20a	0.022568721
136	0x3c317bd3	0.010832745
137	0x3c4ac08e	0.01237501
138	0x3c47075f	0.0121477535
139	0x3cd4fc7f	0.025999306
140	0x3c03d508	0.008046396
141	0xbad342d1	-0.0016117935
142	0x3b65a09e	0.0035038362
143	0x3c1a273c	0.009408768
144	0x3cde9a6e	0.027173247
145	0xbbaac060	-0.005210921
146	0xbc0a5b9a	-0.008444691
147	0x3cceb242	0.025231484
148	0x3c24cc75	0.010058512
149	0x3cc9d3f7	0.024637206
150	0xba5865ca	-0.0008254914
151	0xbb6934f0	-0.0035584532
152	0xbc17af7b	-0.009258146
153	0x3c8c36ff	0.017116068
154	0xb8b29c38	-8.5167994e-05
155	0x3c9256e8	0.017863706
156	0xbb250255	-0.0025178392
157	0xb9b2dbd1	-0.00034114582
158	0x3ce83cb4	0.028349258
159	0x3c843ac9	0.016141312
160	0x3cd6d2cc	0.026223563
161	0x3bf41873	0.0074492036
162	0x3a5fdce9	0.0008539693
163	0xbb93f04a	-0.0045147287
164	0xbc28208a	-0.010261664
165	0xbc945be6	-0.018110227
166	0x3a616a7a	0.0008598935
167	0xba05ff8f	-0.00051116286
168	0xbc6995d7	-0.014256916
169	0x3b952fd8	0.0045528226
170	0x3b2d2641	0.0026420506
171	0x3aebd57e	0.0017992703
172	0xbbac45c0	-0.0052573383
173	0xbaf3becf	-0.0018596294
174	0x3cf7a16a	0.030228335
175	0x3bd6c507	0.006554249
176	0x3b4e176f	0.0031447073
177	0x3c4cfbe7	0.01251123
178	0x3b415c5d	0.0029504516
179	0xbd1f9293	-0.038958143
180	0xbc19aeb3	-0.00938003
181	0x3a01bff5	0.00049495633
182	0x3b789d06	0.003793539
183	0xbc513df4	-0.012771118
184	0xbb2b3350	-0.0026123114
185	0xbc98734c	-0.018609665
186	0x3b77b56e	0.003779735
187	0x3caa6ae6	0.020802926
188	0x3c0e14cc	0.008671951
189	0xbb201523	-0.002442666
190	0xbbc17a97	-0.0059045064
191	0xbc9eb66e	-0.019374099
192	0xbb91351c	-0.00443138
193	0xbc1cf694	-0.009580273
194	0xbae75959	-0.0017650529
195	0xbc27bfbc	-0.010238584
196	0xbaf5b3d3	-0.0018745608
197	0xbc59ca16	-0.01329281
198	0x3c030458	0.007996641
199	0xbb000d3f	-0.0019539145
200	0xbb3c0c68	-0.0028693918
201	0x3b0f4397	0.0021860355
202	0xbc0aa0b8	-0.00846117
203	0x3ca32f5e	0.019920047
204	0xba9391d8	-0.0011258675
205	0xbc42db2b	-0.011893074
206	0xbb1b7429	-0.002372036
207	0x3c3a037d	0.011353371
208	0x3c695fff	0.014244079
209	0x3c1de1f5	0.009636392
210	0x3d317432	0.043323703
211	0x3d26387d	0.040581215
212	0x3c977fc8	0.018493548
213	0x3c1b2f24	0.009471688
214	0x3c6bfdee	0.014403803
215	0xbc0ce7a6	-0.008600151
216	0xba86c5f5	-0.0010282384
217	0x3c30493c	0.010759648
218	0x3c0f6c82	0.008753898
219	0xbc9d7562	-0.019221012
220	0xbc9e1d2e	-0.019301023
221	0x3bef2507	0.007298115
222	0xbc8f2821	-0.01747519
223	0xbbb2a6c2	-0.005452008
224	0xbce5a6a4	-0.028033562
225	0xbb93c7e1	-0.0045099114
226	0x3b1bb710	0.0023760237
227	0xbc4d2d17	-0.012522957
228	0xbcca19fe	-0.024670597
229	0x3baac232	0.005211138
230	0xbc3cdf56	-0.011527857
231	0xba12f889	-0.00056064926
232	0xbc02d3e2	-0.007985087
233	0x3c76142e	0.01501946
234	0x3bc2ee28	0.0059488006
235	0x3c3fd957	0.011709533
236	0x3c58af54	0.013225395
237	0xbbb6f745	-0.005583676
238	0xbb88d3c0	-0.004175633
239	0x39bb837a	0.00035765377
240	0x3cbfe7c1	0.023425939
241	0x3caff6a5	0.021479914
242	0xbcaac8df	-0.020847736
243	0xbc68b0c3	-0.0142022995
244	0xbc1f4e4f	-0.00972326
245	0xbc8bfa8e	-0.017087247
246	0x3a87f812	0.0010373613
247	0xbbc82216	-0.006107579
248	0xbc9b16f0	-0.018931836
249	0x3b24f63c	0.0025171181
250	0xbc0a5673	-0.008443463
251	0xbc95da26	-0.018292498
252	0x3b20188c	0.0024428694
253	0x3c9905ce	0.018679526
254	0x3cc3d5b9	0.023905622
255	0xbc8c053c	-0.01709234

conv3.bias f4 [32]
0	0x32461566	1.1529982e-08
1	0xb2a3bfd5	-1.9062933e-08
2	0xb2543db7	-1.23540564e-08
3	0x3024f6e7	6.001372e-10
4	0x31fa3102	7.281529e-09
5	0x32192745	8.914701e-09
6	0xb0f57d55	-1.7861718e-09
7	0x32d5e809	2.4901981e-08
8	0x3246f84a	1.1581571e-08
9	0xb30de55a	-3.3037715e-08
10	0xb3834229	-6.112197e-08
11	0x31256235	2.4066484e-09
12	0x32846a40	1.541514e-08
13	0xb319bb4c	-3.5793434e-08
14	0x30204b90	5.831504e-10
15	0x3242bce5	1.1335236e-08
16	0x32ce7816	2.4036165e-08
17	0xb2ae9578	-2.0324237e-08
18	0x32447070	1.1434267e-08
19	0xb21bbfc8	-9.0657934e-09
20	0x302073e4	5.837235e-10
21	0x326e3211	1.3864807e-08
22	0x322b2079	9.960893e-09
23	0xb298f739	-1.7807553e-08
24	0xb2ac7ba7	-2.0079666e-08
25	0x32bb0bd2	2.177504e-08
26	0xb28f7aef	-1.6703295e-08
27	0x31c73b52	5.798406e-09
28	0xb20329c7	-7.634703e-09
29	0xb31dc892	-3.673683e-08
30	0xb244a6c2	-1.1446618e-08
31	0x32bf7136	2.2286809e-08

fc.weight f4 [15, 8192]
0	0x3bffefb3	0.007810557
1	0x3b2a72ba	0.0026008324
2	0x3ae65729	0.0017573583
3	0x3bcedb20	0.006312743
4	0xbbca63c2	-0.006176443
5	0xbb1ef541	-0.002425507
6	0xbbf999b2	-0.007617199
7	0x3a446092	0.0007491197
8	0x3be52ef9	0.006994125
9	0xbc4d3380	-0.012524486
10	0xbb6bcda7	-0.0035980733
11	0xbc067326	-0.008206164
12	0xbc992ea1	-0.018698992
13	0xbbc37ba1	-0.0059656654
14	0x3a63820b	0.00086787407
15	0x3b504774	0.003178087
16	0x3c65ec5d	0.014033404
17	0x3bdc6491	0.0067258556
18	0xbc198fa9	-0.00937263
19	0xbb7dc390	-0.00387213
20	0xbb833a92	-0.004004785
21	0xbac38ed4	-0.0014919885
22	0xbb3c70c2	-0.0028753732
23	0x3c515d3f	0.012778579
24	0x3c1b126f	0.009464844
25	0xba41c117	-0.00073911384
26	0x3c4a1285	0.012333517
27	0xbaff420e	-0.0019474642
28	0xbc8b721a	-0.017022181
29	0x3c2a29be	0.010385929
30	0xbc7513a2	-0.014958294
31	0x3b8faee6	0.004384863
32	0x3c28f736	0.010312846
33	0x3ba01eba	0.0048864754
34	0xbb2b91c2	-0.0026179408
35	0x3b8df60a	0.0043323087
36	0xbc0d7b01	-0.008635283
37	0x3c72f15b	0.014828051
38	0xbc346adc	-0.011011805
39	0x3a11504d	0.0005543277
40	0x3b3fff46	0.0029296442
41	0xba939a80	-0.0011261255
42	0x3b53e1a8	0.0032330547
43	0xbc5193ca	-0.012791583
44	0x3b8c60f9	0.004284021
45	0x3a19af53	0.0005862612
46	0xbad26390	-0.00160514
47	0x3cabbdf1	0.020964595
48	0xbc2fc64a	-0.010728428
49	0x3c08db95	0.008353134
50	0xbc965a69	-0.018353658
51	0x3bc75afd	0.0060838447
52	0x3b1c9653	0.002389331
53	0xbb9d9363	-0.0048088296
54	0xb8d2f6bb	-0.000100595375
55	0xbc0fb72f	-0.008771702
56	0xbb3bacaa	-0.0028636851
57	0xbacb46ea	-0.0015508805
58	0x3c2ab82e	0.010419888
59	0x3c8bd3ca	0.017068762
60	0xbc8865a0	-0.016650021
61	0xbc6f129d	-0.01459184
62	0xbbc82089	-0.006107394
63	0x3c03a1ed	0.008034212
64	0x3c73a3ff	0.014870643
65	0x3b2de905	0.0026536596
66	0x3bc0b939	0.0058814553
67	0x3ab4ea1f	0.0013802684
68	0x3a8f1ab7	0.0010917996
69	0xbc2bdd0f	-0.010489716
70	0xba003a86	-0.0004891533
71	0x3c1b226e	0.009468658
72	0xbb8c7c30	-0.0042872652
73	0xb90adadc	-0.00013242237
74	0x3c8a6f7f	0.016898869
75	0x3b45bf19	0.0030173718
76	0xbc44659e	-0.011987118
77	0x3c3dc878	0.01158344
78	0xbb86c80e	-0.004113204
79	0xbbbeb455	-0.005819837
80	0x3bedf6d1	0.007262089
81	0x3ca60399	0.020265387
82	0x3c7419f9	0.0148987705
83	0xbbf03bec	-0.007331362
84	0xba7427d8	-0.00093137985
85	0x3b2c3354	0.002627571
86	0x3c07db7e	0.008292077
87	0x3ce9b66b	0.028529366
88	0xbccf9bf3	-0.025342917
89	0xbc08f28f	-0.008358612
90	0xba7da419	-0.00096756365
91	0x3ba98a52	0.00517396
92	0x3b653b47	0.003497796
93	0x3b188c8d	0.0023277134
94	0x3b9262fd	0.0044673667
95	0xbb9ddb3a	-0.0048173936
96	0x3c80f8e5	0.015743682
97	0x3c50b479	0.0127383405
98	0x3c923672	0.017848227
99	0xbb45151b	-0.0030072394
100	0x3c799c55	0.015235026
101	0x3b8ee533	0.004360819
102	0x3afb77d5	0.0019185493
103	0xbbee2151	-0.007267155
104	0xbca5ed5e	-0.020254787
105	0xbc33f076	-0.010982623
106	0xbb8fca65	-0.004388141
107	0x3c4549da	0.012041533
108	0x3c9af4ec	0.018915616
109	0x3cdc62f2	0.02690265
110	0x3a923823	0.0011155646
111	0x3b8a5ad8	0.004222255
112	0x3c32ce29	0.01091341
113	0x3b9ee2de	0.004848822
114	0x3c223c7d	0.009902117
115	0xbc072a9b	-0.008249904
116	0x3b14e167	0.0022717358
117	0x3b7d2974	0.0038629444
118	0xbb354b5a	-0.0027663321
119	0x3b281519	0.002564734
120	0x3bc912c7	0.0061362716
121	0xbc494712	-0.012285011
122	0x3cac6a49	0.021046774
123	0xbc98ca3b	-0.018651119
124	0x3c8c6830	0.017139524
125	0x3c8edef5	0.017440299
126	0xba9fec24	-0.0012201113
127	0xbc09a827	-0.008401907
128	0xbc415fc3	-0.0118026165
129	0x3bf08c0f	0.007340915
130	0xbc82b752	-0.015956555
131	0x3c0e709b	0.008693839
132	0x3ca4fbd0	0.020139605
133	0x3bf8a597	0.007588099
134	0xbc043f5b	-0.008071746
135	0xbc83ba41	-0.016080024
136	0xbbea96f8	-0.00715911
137	0xba137b8f	-0.00056260166
138	0x3bfc4a6b	0.007699301
139	0x3cee046b	0.029054841
140	0xbad83400	-0.0016494989
141	0xbb459282	-0.003014714
142	0x3aecebab	0.0018075606
143	0xbc5f716e	-0.013637884
144	0x3ac17e06	0.0014762289
145	0xbc1b4424	-0.009476695
146	0xbc213b43	-0.009840789
147	0xba11a6f3	-0.00055561884
148	0xb7a6d503	-1.9887933e-05
149	0xbbeb90c3	-0.007188888
150	0x3c8a0ec9	0.016852753
151	0x3c969e54	0.018386044
152	0x3b783c22	0.0037877639
153	0x3acb56c6	0.0015513531
154	0xbc1f8c23	-0.009738001
155	0xbb3c616f	-0.0028744598
156	0xbc76c82a	-0.015062371
157	0xbc7009b5	-0.014650752
158	0xbca30ce4	-0.019903608
159	0x3b717af9	0.003684698
160	0xbc48e95d	-0.012262669
161	0xbc49533c	-0.012287911
162	0xbc248d6e	-0.010043485
163	0xbcb29ec0	-0.021804214
164	0xbbf4deed	-0.007472864
165	0x3bff194e	0.007784999
166	0x3bde432b	0.0067829094
167	0x3ca30544	0.019899972
168	0xbac18aae	-0.0014766061
169	0x3ad54f85	0.0016274309
170	0x3afef54c	0.0019451766
171	0xbc676f2c	-0.0141256265
172	0x3b9e062f	0.0048225145
173	0xbcd235ef	-0.025660483
174	0xbc6bbdbf	-0.014388501
175	0x3c80c3d0	0.01571837
176	0x3c77cae5	0.015124057
177	0xbc5f795e	-0.013639776
178	0x3bc6ff0f	0.006072886
179	0xbbec61c7	-0.0072138044
180	0xbc183295	-0.009289403
181	0x3bbedba8	0.005824525
182	0x3ca4993f	0.020092605
183	0x3c1908a3	0.009340438
184	0x3aefbd94	0.0018290752
185	0x3b8a8a22	0.0042278925
186	0x3a5a4c92	0.000832745
187	0xbba7c916	-0.005120407
188	0xbcd57ac5	-0.026059518
189	0xb928b98c	-0.0001609085
190	0x3c051049	0.008121558
191	0xbc2b9dd1	-0.010474638
192	0xbacf1193	-0.0015798084
193	0xbb83ce29	-0.004022379
194	0x3bb7a6fe	0.005604624
195	0xbbcf9e47	-0.006336007
196	0xbc11b71b	-0.008893753
197	0xbccadf03	-0.024764543
198	0xbc5a053c	-0.013306912
199	0xbc206c59	-0.009791457
200	0x3c89cc34	0.016821004
201	0x3c2e2de9	0.010631063
202	0xbccf8052	-0.025329743
203	0xb97a0576	-0.00023843892
204	0x3b963b8d	0.0045847357
205	0x3bb2b4b8	0.0054536723
206	0xbbb504b6	-0.005524243
207	0xbb73615f	-0.0037136895
208	0x3a827f4c	0.000995615
209	0x3c64f82c	0.013975184
210	0xba32f37c	-0.0006826443
211	0xbc5f751c	-0.013638761
212	0xbca043aa	-0.019563515
213	0xbb949648	-0.0045345165
214	0xbbe43d5d	-0.006965323
215	0xbb3269f2	-0.0027223793
216	0xbb9621a2	-0.004581646
217	0x3c4f6e0c	0.012660515
218	0xbc109bc3	-0.008826199
219	0xbc0af2b2	-0.008480715
220	0x3c0abeef	0.008468374
221	0x3cafff0e	0.021483924
222	0xbc6e64fd	-0.014550445
223	0xbb4e5780	-0.003148526
224	0xbc37f99f	-0.011228948
225	0xbc15406a	-0.009109596
226	0x3cbd55d3	0.023112213
227	0xb9fb095e	-0.0004788143
228	0xbcb54f3a	-0.022132505
229	0xbcc09ce0	-0.023512304
230	0xba9d4cb1	-0.0012001005
231	0xbbc123b5	-0.005894149
232	0xbc210423	-0.009827646
233	0x3b817053	0.0039501577
234	0xbc89f194	-0.016838826
235	0x3bb2983e	0.0054502776
236	0xbbfb6868	-0.0076723583
237	0x3c299e40	0.010352671
238	0xbb8ef952	-0.0043632174
239	0x3bcf8f15	0.0063341954
240	0xbb0922e9	-0.002092535
241	0x3b81d4c0	0.0039621294
242	0x3bdf6ccd	0.00681839
243	0x3c35f25c	0.011105146
244	0xbc3967e6	-0.011316275
245	0x3af948c5	0.0019018879
246	0xbbd54c26	-0.0065093217
247	0xbb12fffa	-0.0022430406
248	0x3b29f489	0.0025933108
249	0xbce43ea4	-0.0278619
250	0xbc8d61b4	-0.017258503
251	0x3bfffde4	0.0078122485
252	0x3c71fab2	0.014769243
253	0x3aeb5d81	0.0017956943
254	0xbc1a753e	-0.009427367
255	0x3b387c28	0.0028150175

fc.bias f4 [15]
0	0x3a5aebcc	0.00083511765
1	0xbb25bb95	-0.002528881
2	0x3b6fd73b	0.0036596793
3	0xbb29ca15	-0.0025907804
4	0xbb467c49	-0.0030286482
5	0x3a4d4f18	0.0007831915
6	0x3b3d633a	0.0028898255
7	0x3a52796d	0.0008028958
8	0x3b4ffef8	0.0031737667
9	0x3a435bda	0.00074523466
10	0x3984709d	0.00025260905
11	0xba7fa0d3	-0.00097514427
12	0xbab9a2cc	-0.0014162897
13	0xba748110	-0.0009327093
14	0xbadadf5b	-0.0016698645

batchnorm1.weight f4 [8]
0	0x3f7e3b21	0.99308974
1	0x3f807d0b	1.003816
2	0x3f7d0186	0.9883045
3	0x3f7eef2b	0.9958369
4	0x3f82eb5b	1.0228075
5	0x3f7f06af	0.99619573
6	0x3f7e29bb	0.99282426
7	0x3f80ce92	1.006304

batchnorm1.bias f4 [8]
0	0xbb84dd91	-0.004054733
1	0xbb8ae53f	-0.004238754
2	0xbb9b3cf2	-0.00473749
3	0x3b0bd64f	0.0021337455
4	0xbce1ebbf	-0.027578233
5	0x39ac9994	0.0003292082
6	0xbc2bd7d6	-0.010488471
7	0x3c8d7cbc	0.017271392

batchnorm1.running_mean f4 [8]
0	0x4194f545	18.61976
1	0xbc0b62d8	-0.008507453
2	0x41add400	21.728516
3	0x3f8f77c4	1.1208425
4	0xbfa0dbc6	-1.256707
5	0xc07915f1	-3.8919642
6	0xc217c217	-37.93954
7	0x401f3a50	2.487934

batchnorm1.running_var f4 [8]
0	0x42eaa88d	117.3292
1	0x43498061	201.50148
2	0x4302e8df	130.90965
3	0x4319ad9c	153.67816
4	0x439ac673	309.55038
5	0x42efd1c2	119.90968
6	0x43bb6520	374.79004
7	0x4355dcb0	213.86206

batchnorm2.weight f4 [16]
0	0x3f7ef285	0.99588805
1	0x3f80762e	1.0036066
2	0x3f80b4a0	1.0055122
3	0x3f7dea37	0.9918551
4	0x3f804c09	1.0023204
5	0x3f7f2871	0.99671084
6	0x3f811da1	1.0087167
7	0x3f7f4f5a	0.99730456
8	0x3f8060a2	1.002949
9	0x3f80ed6b	1.0072454
10	0x3f7f9722	0.99839985
11	0x3f800bc2	1.0003588
12	0x3f7f02c2	0.99613583
13	0x3f7ffe24	0.9999716
14	0x3f7eba95	0.9950345
15	0x3f7f9327	0.9983391

batchnorm2.bias f4 [16]
0	0xbbd92831	-0.0066271056
1	0xbaf5c5b5	-0.0018750938
2	0xbc4a26fd	-0.012338397
3	0xbc16f0d5	-0.009212692
4	0x3b2f40fe	0.002674162
5	0xbb03f3db	-0.0020134363
6	0xbc30fcea	-0.010802487
7	0xbbbac82e	-0.005700133
8	0xbbd49856	-0.0064878864
9	0xbb37769f	-0.0027994288
10	0xbc547633	-0.012967634
11	0xbbeb96ec	-0.007189622
12	0xbbffc11d	-0.0078050033
13	0xbbdc037b	-0.006714282
14	0xbbca6e18	-0.006177675
15	0xbbb02bae	-0.005376301

batchnorm2.running_mean f4 [16]
0	0xbdb7b97d	-0.08970926
1	0xbeb329c4	-0.34992802
2	0xbeb79f9e	-0.35863966
3	0x3e6f29c5	0.23355778
4	0xbdb2d4a7	-0.087319665
5	0xbdac9cf5	-0.08428375
6	0xbdf97bfd	-0.12181852
7	0x3dd3147c	0.103066415
8	0xbd1871fd	-0.037218083
9	0xbe421e86	-0.18956956
10	0xbd338c98	-0.043835253
11	0xbe9a6d54	-0.30161536
12	0x3e1dc6bc	0.15407842
13	0xbd836221	-0.06415201
14	0x3d11f4ef	0.035633978
15	0xbdf89583	-0.12137892

batchnorm2.running_var f4 [16]
0	0x3cc3ad26	0.023886275
1	0x3d23f0f6	0.04002472
2	0x3d803ff7	0.062622
3	0x3d02a824	0.031898633
4	0x3cde8aba	0.02716576
5	0x3cdec2fd	0.027192587
6	0x3d22bae8	0.03972903
7	0x3d03ab3c	0.032145724
8	0x3d0819aa	0.0332276
9	0x3d1f7a22	0.038934834
10	0x3cddc67a	0.02707218
11	0x3d774a61	0.060373668
12	0x3cab0ce9	0.02088018
13	0x3cdebb8b	0.027189037
14	0x3d045d2d	0.03231542
15	0x3cc24e59	0.023719

batchnorm3.weight f4 [32]
0	0x3f8446b9	1.0334083
1	0x3f845804	1.033936
2	0x3f834c60	1.0257683
3	0x3f8bd9e8	1.0925875
4	0x3f837b1d	1.0271946
5	0x3f840ac9	1.0315791
6	0x3f83f9eb	1.0310644
7	0x3f84aea9	1.0365802
8	0x3f83a66a	1.028516
9	0x3f88304a	1.0639737
10	0x3f884b8c	1.0648055
11	0x3f864e68	1.0492678
12	0x3f86cee4	1.0531888
13	0x3f870373	1.0547928
14	0x3f851de8	1.0399752
15	0x3f850df8	1.0394888
16	0x3f83bafe	1.029144
17	0x3f8534a4	1.040669
18	0x3f86b37f	1.0523528
19	0x3f886755	1.0656534
20	0x3f874650	1.0568333
21	0x3f834583	1.0255588
22	0x3f843a27	1.0330247
23	0x3f86bf11	1.0527059
24	0x3f87a599	1.0597411
25	0x3f83c254	1.0293679
26	0x3f86994b	1.0515531
27	0x3f85a87c	1.0442042
28	0x3f837dfe	1.0272825
29	0x3f84e89e	1.0383489
30	0x3f85d3cc	1.045526
31	0x3f8849de	1.0647542

batchnorm3.bias f4 [32]
0	0x3c1cc83e	0.009569226
1	0x3c0f5f07	0.008750684
2	0x3c5d5e45	0.013511245
3	0x3d1d1954	0.038354233
4	0x3c54c13d	0.012985525
5	0x3c7fddc2	0.015616836
6	0x3c7d0cfd	0.015444991
7	0x3ca09a4f	0.01960483
8	0x3c82273d	0.01588785
9	0x3d1a7276	0.037706815
10	0x3cb9c3ab	0.02267631
11	0x3cce3e3d	0.025176162
12	0x3cd1089b	0.025516799
13	0x3ca4b830	0.020107359
14	0x3cbc8f46	0.023017537
15	0x3c9b03a7	0.01892264
16	0x3c7b2714	0.015329141
17	0x3c91329b	0.017724326
18	0x3cba4046	0.022735726
19	0x3d01a52b	0.031651657
20	0x3cf360c6	0.029709231
21	0x3c2dd4ed	0.0106098475
22	0x3c3b500b	0.011432658
23	0x3cc5a029	0.024124222
24	0x3d0a5eb8	0.033781737
25	0x3c14dcd9	0.009085857
26	0x3c846221	0.016160073
27	0x3c8e6c70	0.017385691
28	0x3c3e348f	0.011609211
29	0x3ca5acf6	0.020224076
30	0x3c8d9cd7	0.017286701
31	0x3d0f2bf1	0.034954015

batchnorm3.running_mean f4 [32]
0	0x3da43c30	0.08019292
1	0x3d9e5a4f	0.07732069
2	0xbb467c94	-0.0030286657
3	0x3e66f8b3	0.22555809
4	0xbe19d123	-0.15021186
5	0xbd021d26	-0.03176608
6	0x3bbe5291	0.0058081825
7	0x3d13b891	0.036064688
8	0xbdb0eca4	-0.086388856
9	0xbe827e25	-0.25486866
10	0x3dcddce0	0.10051894
11	0x3d676afe	0.05649852
12	0x3d25991a	0.040429212
13	0x3de59ca4	0.112115175
14	0xbe7f1b55	-0.2491277
15	0xbe23e6ca	-0.16006008
16	0xbe5994bd	-0.21248145
17	0xbdea900a	-0.114532545
18	0x3dd47d67	0.10375481
19	0x3e4b0c90	0.19829011
20	0xbd89fb42	-0.06737377
21	0x3c7d0a23	0.015444311
22	0xbd2a8449	-0.041630063
23	0x3ca2080b	0.019779226
24	0xbd9c92ab	-0.07645162
25	0x3e36c516	0.1784862
26	0x3df4d814	0.11955276
27	0x3e04cedf	0.1296954
28	0x3c9161aa	0.017746765
29	0xbcb33b2b	-0.0218788
30	0x3ddfdd8c	0.109309286
31	0xbecbea26	-0.3982708

batchnorm3.running_var f4 [32]
0	0x3c8c3e56	0.017119568
1	0x3c8aeb33	0.016957855
2	0x3c971474	0.01844237
3	0x3ccae890	0.024769098
4	0x3cc2184b	0.023693224
5	0x3c80ab4e	0.015706684
6	0x3c6a1865	0.014288043
7	0x3c72a107	0.0148089
8	0x3ce7b01d	0.02828222
9	0x3cdcdd7b	0.026961079
10	0x3cacc5d6	0.02109043
11	0x3caca3ca	0.021074194
12	0x3c79c55b	0.015244807
13	0x3c439690	0.011937752
14	0x3c8d8d07	0.017279161
15	0x3c7fceb5	0.015613248
16	0x3caab8ec	0.02084013
17	0x3ca76016	0.02043156
18	0x3caac2b0	0.020844787
19	0x3c92c159	0.017914461
20	0x3c74fb45	0.014952485
21	0x3c658bd1	0.014010386
22	0x3c6c90bd	0.014438805
23	0x3c7fdd59	0.015616738
24	0x3c87ce23	0.016577786
25	0x3c7c9c89	0.01541818
26	0x3c9dff56	0.019286793
27	0x3c6ad020	0.014331847
28	0x3cf8dd59	0.030378984
29	0x3cb1c607	0.021700872
30	0x3cac747b	0.021051636
31	0x3cb6ac22	0.022298876
