models/augmentedAdam.pth (torch, 518984 bytes, 8 tensors)

conv1.weight f4 [8, 3, 3, 3]
00000000: 5ba8 023c 9697 0dbc a610 873c a0df c6ba
00000010: 8999 6fbc adb9 aabc a43e 4fbc 950c a9bc
00000020: 425c 94bc 8340 033b 973f 10bc d232 f1bb
00000030: bf00 faba 3648 42bc 7435 98bb 1e5c 67bc
00000040: 0b37 11bc b31a 84bc 230c a0bc 5d6e 80bb
00000050: 61e5 d9ba 8520 27bb ab9a 25bc dc79 bdbc
00000060: e010 46bc 53ea 923c 4a94 c83c 5e35 43bc
00000070: 6cfa a7bc 30f0 e53b 20c4 14bb 72d8 9fbb
00000080: 2faf 6f3b dc20 18bc be85 3cbc af63 cabb
00000090: 2ee1 eebb 217e 1dbc ef2e 0ebc 0dec bbbb
000000a0: 8e6b 6f3a 7be1 81bc d244 4ebb 4efb 5abc
000000b0: 17ac 0fbc e613 3bbc 87e7 45ba 86ba 6ebc
000000c0: cba8 56b9 a2ea 51bc 72ef d53b e938 3bbc
000000d0: b726 a43b 4fdd 2e3c 583e b8bb c35e 2b3b
000000e0: cb48 8d3c 140a 89bc ec63 01bc 81db 82bc
000000f0: 4710 69bc b8c9 4dbb e539 f7bb 01cc 88bc
00000100: 1a6b 0ebc d988 41bb fcdc a5bc 89b6 06bd
00000110: 67c8 03bc 43dc f0bc c754 34bc dcfa 71bb
00000120: bca2 ebbb be1a 94bb 6bdd c03c 4d1e 8bbc
00000130: 19a0 adbc a0a0 12bd 5a00 f43b 087f 88bc
00000140: 43dd a33b 88db 003b 219f c2bc fc93 b73b
00000150: a880 d6bb 3000 23bc 2f4a a33a 75a7 c73b
00000160: 4f1a 3fbc 8b53 91bc e11b 133b e17d d6b9
00000170: a26a b9bc 4e5d 1c3b 8188 dcbc dc77 c6bc
00000180: 557c cebc 2235 88bc 4415 9c3b da94 133c
00000190: a93c 8bbc 0b8a 86bc 1b05 c5bc 1d25 e4bc
000001a0: b860 06bb d1ec f1bb 7bf0 e3bc f4a4 b9bb
000001b0: 532d 26bd 9d2e f3bb 2dfd 0d3d 0185 34bd
000001c0: b1e0 15bd 82aa 1a3d 5104 96bc 3d0d 973c
000001d0: 90e1 e33c cf04 fbbc e4f2 98bc d0e8 053d
000001e0: f53d 77bd 9447 26bc fb1a 773c 59e4 6ebb
000001f0: 245b 2e3c 035d 6c3d 4db5 f3bb bfda 1fbc
00000200: b9b0 253d 7b08 36bd 7bc8 aebb 5829 2d3d
00000210: 8d92 b1bc 585d 5a3c 2433 fb3c e57b 7abc
00000220: c0cb 0b3c 1386 01bc a3df 2bbb 18e8 e6bb
00000230: f7af 243b e2f4 98bc b5bc 2ebc d93a 09bc
00000240: cbe1 40bc f339 9abb 1173 02bc 1b0b 403c
00000250: 91ce 5cbc f9e3 94bb 9d21 8e3b 0983 debb
00000260: 6b1c 1c3b f1c6 82bc b965 77bc d057 603b
00000270: 09cf 833b 54cc b1bc 37c8 6bbc 04b4 68bc
00000280: f79f 8abb 419a 1fbc 6298 c6ba ea15 333b
00000290: c670 053c 3e26 96bc 8090 313b 256e 6fbb
000002a0: 965a ad3a 3f1d c33b 0e00 be3b f632 b1bc
000002b0: 6a44 09bb 237b f0bb df65 04bc 6c4a 81bc
000002c0: daba d0ba 0afd b33c d80e c4bc e73f 9bbc
000002d0: cf09 b4bb 084b 7cbc fd91 ab39 08c2 9ebc
000002e0: fbce 83bc 247a 4439 1103 d6bb 2d7e 40bb
000002f0: 3507 c1bb bc28 c3bb f23f 4c3c e3c8 40bc
00000300: 7d7c 80bb 3f5c 92bb caf5 42bc 13b1 95bc
00000310: 80d8 303c 69b7 5dbc 604d 1e39 3522 2bbb
00000320: 2b69 7abb 5bbb bdbb 3f3b 98bc 5d37 1ebc
00000330: b7ef 6d3c 63e0 87bc 950d 9d3b c62e 48bc
00000340: b4b4 5bbc 1074 ec3b 778a 61bc b31e 0abc
00000350: b9b8 8fbb e837 25bc c422 ecbb 4581 d73b
0.007974709 -0.008642098 0.01648743 -0.0015172847 -0.014624008 -0.02084049 -0.012649212 -0.020635882
-0.018110398 0.0020027466 -0.0088042235 -0.0073607946 -0.0019073709 -0.011858037 -0.004645044 -0.014121084
-0.008863221 -0.016126012 -0.019537037 -0.0039194063 -0.0016624146 -0.002550156 -0.0101076765 -0.023129396
-0.012088984 0.017934 0.024484772 -0.011914579 -0.020505153 0.007017158 -0.0022699907 -0.004878097
0.0036572923 -0.009285178 -0.011506496 -0.006176434 -0.007290027 -0.009612591 -0.008678182 -0.0057349266
0.00091331534 -0.015854588 -0.0031474126 -0.01336558 -0.008769057 -0.011418318 -0.0007549454 -0.014570838
-0.0002047151 -0.0128122885 0.0065287882 -0.011427143 0.005009498 0.010672881 -0.0056226663 0.0026149012
0.017246624 -0.016728438 -0.007897358 -0.015973808 -0.014225072 -0.0031400751 -0.0075447434 -0.01669884
-0.008692527 -0.002953103 -0.020246975 -0.032888923 -0.008043385 -0.029401904 -0.011006541 -0.0036923205
-0.0071910303 -0.0045197895 0.02354308 -0.016982222 -0.021194505 -0.035797715 0.007446331 -0.016662136
0.0050007417 0.00196621 -0.02375752 0.005602358 -0.0065460987 -0.009948775 0.0012458022 0.0060929605
-0.011663987 -0.017740032 0.0022447037 -0.00040911048 -0.022633854 0.0023859325 -0.026920559 -0.024227075
-0.02520577 -0.016626898 0.0047632772 0.009007657 -0.016996698 -0.016423246 -0.024050286 -0.027849728
-0.0020504426 -0.007382967 -0.027824631 -0.005665416 -0.04057057 -0.007421328 0.034665275 -0.044072155
-0.036591236 0.037760265 -0.018312605 0.01843893 0.027817518 -0.030641941 -0.018670507 0.03269273
-0.06036182 -0.0101489015 0.015082116 -0.0036452024 0.010641847 0.05770589 -0.007437384 -0.009756743
0.04045174 -0.04444168 -0.0053339577 0.042275757 -0.021676326 0.013327919 0.030664034 -0.015288328
0.0085324645 -0.007905501 -0.0026225827 -0.0070467107 0.0025129297 -0.018671457 -0.010665108 -0.008375847
-0.011772583 -0.004706615 -0.007962004 0.011721398 -0.013476984 -0.004543778 0.004337503 -0.006790523
0.002382065 -0.015964003 -0.015099936 0.0034232028 0.0040224832 -0.021703877 -0.014390997 -0.014203075
-0.004230495 -0.009741367 -0.0015151615 0.0027326294 0.008144563 -0.018328782 0.0027094185 -0.0036534157
0.0013225849 0.005954414 0.0057983464 -0.021630745 -0.002094532 -0.007338898 -0.008080929 -0.015782557
-0.0015924827 0.021971244 -0.02393286 -0.01895137 -0.0054943333 -0.015398748 0.0003272443 -0.01937963
-0.016089907 0.00018737518 -0.0065311273 -0.0029372082 -0.0058907517 -0.0059557837 0.012466418 -0.011766645
-0.00392109 -0.004466563 -0.011899421 -0.018272912 0.010793805 -0.013532498 0.00015096879 -0.0026112918
-0.0038209658 -0.005790157 -0.018582938 -0.009656754 0.0145224845 -0.016586488 0.004792879 -0.012218183
-0.013409782 0.007215984 -0.013765923 -0.008430171 -0.0043860343 -0.01008413 -0.007206293 0.0065766894

conv1.bias f4 [8]
00000000: 1e8e 54bc 68fe 07bc 037c 7e3d 2349 f2bb
00000010: 28b4 283d 0b10 febb f9cb 84bc 1f24 c0bb
-0.0129733365 -0.008300401 0.062129986 -0.0073939725 0.041187435 -0.0077533773 -0.016210543 -0.005863681

conv2.weight f4 [16, 8, 3, 3]
00000000: 0621 18bb ab62 033b f854 0abc 3cc2 0b3b
00000010: d04a 83bb bdac d7bb 7901 9fbc ad11 86bc
00000020: 3b51 cbbc 14d8 65ba 994c 993b 84d7 a2bc
00000030: 2e3e 393b ed09 c9bb c6a9 09bc cd61 123b
00000040: 85bc 31bc 5dbc e0b8 bd6e 4c3c 3ac0 9d3c
00000050: 4016 3c3c a0b6 0dbb 7ef4 053b 85a0 85bb
00000060: c028 a83b 3ce9 913b 47d7 0fbd 7c55 363c
00000070: 7a80 7abc d866 f8bc f3a0 acbb f6db a6bc
00000080: 925a 63bc 07aa 1cbc 88fd 1bbc de17 a5bc
00000090: 8603 043d 27a9 ae3c 4c31 10bc e1eb cb3d
000000a0: 7414 86bc bebb 82bc 189c f5bd 0c1c e83b
000000b0: b4b9 783a 6295 853b 9cd7 5dbc e548 ddbb
000000c0: b89c 11bc 0b20 b2bb d4e6 1dbc 9d23 c1bc
000000d0: c87e 58bc 1453 8dbc afa9 513c 37a7 1dbc
000000e0: fe65 aabc a54e deba c5e3 6939 0daa 36bc
000000f0: 5af0 64bb 77e0 65bc 522b 21bc dec4 c8bc
00000100: b1f5 fe3b affe 4fbc f746 643b b338 bc3b
00000110: e097 603b 7fd4 86bb 21e9 04bb 475c 3c3b
00000120: 18e1 57bc 46f0 2bbc db76 d9bb 62ad 1cbc
00000130: 5b10 063c 927c 1ebc 5bfc 833a 1c7b 89ba
00000140: e86b 2bbc 7ae7 063b a365 a6bb d1bf 013b
00000150: cc2b 61b9 06b1 213c 690f 2c3b 0842 813a
00000160: ddae 8a3a 13c9 263b bf3b 99bb 8f13 04bc
00000170: c9eb b5ba c01a 22bb 8807 32bc df6e f2bb
00000180: bfea d2bb 2c3f 843c 6b3a 5cbc 7114 b3bb
00000190: ed73 9cbc 256e e538 b81e cbbc 7d9b 85bb
000001a0: 13ba 393c 539e c0bc 0b49 183c ba1f 87bb
000001b0: a0bd 683d b1f9 733d 3630 a3bd 4b2e 9a3d
000001c0: 7afc 533d 8b1e 90bd 3e1e 353c c7ff 293d
000001d0: 118c 91bd ee5b 6dbb d383 2e3b 97f7 2dbc
000001e0: 0faa 88bb d711 123a 39ff 00bb 5ae7 c4bb
000001f0: 7226 83bc d907 173c d007 643c bf35 16bc
00000200: 1ba3 a5bb e15a e0bb d4eb 8bba efd4 b5ba
00000210: 0186 79bc cd72 563b d607 b7bc 1891 093c
00000220: 387f 94bb 0ebf 0abc 7ac2 423c 1b4d ff3b
00000230: 8ea2 763b 456e 653c d52a 333c 8f6e cabc
00000240: f346 473c 7be8 d4bb 657b 863c 4316 0b3b
00000250: 107b 093a 30a1 34bc e8c0 28bb d467 7c3c
00000260: 555b 2cb8 cfb5 e939 9bbb 79bc f66a 483c
00000270: d4fa 193c 58a7 c13b 0cd9 da3a 267a f2bc
00000280: ae0f 92bb bce4 c1bc e628 153b 1e12 1f3c
00000290: 6bdd 263d 86f7 e7bb 405b 3eba 8966 603c
000002a0: f489 8bbb 41d3 ad3a e9a5 22bb f78b 27bc
000002b0: eeaa c4bc 0762 32bc dcd2 d0ba ddf1 8cbc
000002c0: 52af b43b 8d7a 58bb 19b7 24bc bee6 963c
000002d0: 4e4b 093c 764b a5bd 656e 923d d73b 7b3a
000002e0: b600 8ebd f629 6d3d a76d 3abc 4a3c 4fbd
000002f0: 3b10 983d eb28 aabb 030c b4bc 786c fb3a
00000300: 2597 37bc db62 24bc fca2 4ebb 9ac3 13bc
00000310: ceda 803b 74e0 d0bb 3eae f03a 0f26 41bb
00000320: 0694 96bc 0b93 ee3b e2d3 04bb f00f 0c3b
00000330: c6c8 083c c30d b1bb 52d9 26bc f841 583c
00000340: 2b67 9ebc 2aa0 dc3b 9e2e 4a3c 0e5f 01bb
00000350: fa82 863b 5913 9c3c ab7d c03b 2d44 f3bb
00000360: fcda ccbb cef7 08bb 719b 13bb aecb 33bc
00000370: 6659 d1bb f996 9bbc 294a ad3b cee3 6bbc
00000380: e3cb 5ebc b966 52bb e3dc 073c 78f6 c9bb
00000390: 6dac 71bc 4a3b 6bbc 34f7 25bc ae38 f6ba
000003a0: a3c7 e6bc 591d 38bc 9ace 003d 61bc e23c
000003b0: 166a 273d fc7e b3bc aa0b b4bb 26b0 d43c
000003c0: 20c9 183b 5b04 ef3b 4602 8f3c a072 f73b
000003d0: c2f2 28bc ff97 0dbc 827f 603c ba4a 08bc
000003e0: 00e4 803c 38fd 3fbb a9a2 a43b aa85 8c3a
000003f0: cf26 1d3d be52 e73c 8079 a63d 29a8 503c
-0.0023213043 0.0020047824 -0.00844311 0.002132549 -0.004006721 -0.0065818713 -0.019409882 -0.01636585
-0.024819007 -0.0008767855 0.0046783206 -0.019878156 0.0028265822 -0.0061352164 -0.008402294 0.0022336126
-0.010848169 -0.00010716238 0.012477574 0.0192567 0.011479914 -0.0021623746 0.0020439918 -0.0040779733
0.005131811 0.0044528525 -0.035117414 0.0111287795 -0.01528942 -0.030322477 -0.00526821 -0.020368557
-0.013876574 -0.009562022 -0.009520896 -0.020152982 0.032229923 0.021320892 -0.008800816 0.099571
-0.016367175 -0.015958663 -0.11992663 0.0070834216 0.0009488121 0.0040766457 -0.013540175 -0.0067530745
-0.008887462 -0.0054359487 -0.009637553 -0.023576552 -0.013213821 -0.017251529 0.012796803 -0.009622387
-0.020800587 -0.0016960694 0.00022305462 -0.011148942 -0.00349333 -0.014030567 -0.0098369885 -0.024507936
0.0077807535 -0.012694999 0.0034832337 0.0057440638 0.0034270212 -0.004114687 -0.0020280557 0.0028741525
-0.013176225 -0.010494297 -0.006636483 -0.009562822 0.00818261 -0.009673255 0.0010069715 -0.001048896
-0.010462739 0.0020584748 -0.005078034 0.001979817 -0.00021473988 0.009868866 0.0026254302 0.0009861598
0.0010580678 0.002544944 -0.0046763117 -0.008061304 -0.0013879474 -0.0024735183 -0.010866053 -0.007398471
-0.0064366753 0.016143404 -0.013441662 -0.0054650833 -0.019098246 0.00010940087 -0.024794921 -0.0040773735
0.011335867 -0.023512995 0.009294759 -0.004123655 0.056821465 0.059564296 -0.0796818 0.07528361
0.051754452 -0.070370756 0.011054574 0.041503694 -0.07106794 -0.0036218124 0.0026628866 -0.010618112
-0.004170663 0.00055721164 -0.0019683375 -0.0060090246 -0.016009543 0.00921818 0.013917878 -0.0091680875
-0.005054844 -0.006846771 -0.0010675141 -0.0013872663 -0.015229703 0.0032722235 -0.022342604 0.008396409
-0.004531767 -0.008468403 0.011887187 0.007791174 0.0037633511 0.014003341 0.010935505 -0.024710922
0.012162912 -0.0064974404 0.016416261 0.0021222986 0.0005244473 -0.011024758 -0.0025749747 0.015405614
-4.1093055e-05 0.0004457668 -0.015242483 0.012232533 0.009398181 0.0059098415 0.0016696765 -0.02959926
-0.0044574356 -0.02366864 0.0022759973 0.009708909 0.040738504 -0.0070790676 -0.0007261522 0.013696321
-0.0042583887 0.0013261811 -0.0024818128 -0.010226241 -0.024007287 -0.010887629 -0.0015931982 -0.017205173
0.005514064 -0.003303203 -0.0100534195 0.018420573 0.00837977 -0.08071034 0.07149962 0.0009583807
-0.06933729 0.057901345 -0.011378682 -0.050594606 0.07424971 -0.005192866 -0.021978384 0.0019182106
-0.011205469 -0.010033335 -0.0031530252 -0.009018803 0.0039323336 -0.006374413 0.0018362475 -0.0029472148
-0.01838113 0.0072807125 -0.0020267894 0.0021371804 0.008348649 -0.005403252 -0.010183649 0.013199322
-0.019336304 0.00673296 0.012340216 -0.0019740495 0.004104969 0.019052194 0.005874356 -0.0074238987
-0.006251691 -0.0020899656 -0.002252307 -0.010973854 -0.006388831 -0.018992888 0.0052883816 -0.014397575
-0.013598415 -0.0032104685 0.00829241 -0.0061634146 -0.014750582 -0.014357397 -0.010129739 -0.0018785202
-0.028171366 -0.011237466 0.03144703 0.027677717 0.040872656 -0.021911137 -0.0054945545 0.0259629
0.002331324 0.0072942204 0.017457139 0.007551506 -0.010311784 -0.008642196 0.013702275 -0.008318597
0.015733719 -0.0029295217 0.0050242734 0.0010720987 0.03836709 0.028237697 0.08128643 0.012735405

conv2.bias f4 [16]
00000000: d2f4 29bd 58f0 c9bd 224b 12bd 400b e0bb
00000010: 24c4 863d 4157 8bbb 9708 03bc 78b6 37bd
00000020: 2856 abbc 22c4 ebbc 065f 9abc 08d8 0bbc
00000030: f98f 42bc 446f 9fbc 727e c6bc 88f6 28bd
-0.041493244 -0.09860295 -0.035716183 -0.0068372786 0.065803796 -0.004252345 -0.007997653 -0.04485175
-0.020915106 -0.028780047 -0.018844139 -0.008535393 -0.011875146 -0.019462235 -0.024230216 -0.041250736

conv3.weight f4 [32, 16, 3, 3]
00000000: 1fb4 04bd b843 81bd 2d57 96bd 45ec d8bc
00000010: 5bc0 eb3d 69f2 afbd 3e02 aa3b 74c3 fe3d
00000020: 6a6f c0bd 8cde b3bd 3664 de3c 1cff 98bc
00000030: fe89 68bd 4a74 473d 5c61 14bd ee7e 8ebc
00000040: b0ab ba3b 9065 27bd 8568 933d c0d7 dbbb
00000050: 5b4c 10bd 44e4 803d c1db 273c a520 81bd
00000060: e750 013d 8ff9 30ba d208 93bd 8465 b63c
00000070: 3851 2e3c bd5c a1bc 9ede 033d 9286 fe3c
00000080: ade7 6cbd ef1e 423d 54ac 4aba b530 02bd
00000090: 6b7b 23bc 571c 7fbc 44a9 a23c ac32 413d
000000a0: 4852 c139 912b 6c3c 0e56 0c3d ecb6 9ebc
000000b0: 7efc c73b 92e4 9ebd 0edf c6bc 0a4f e9bd
000000c0: 46b8 113c 3727 34bd 8434 0abe ef2f f6bc
000000d0: 9ef4 81bd 224a 0cbe 865c bb3c 29f1 c23c
000000e0: 5700 d0bc 7e96 2c3d 7155 c03c 9d09 1cbd
000000f0: 1ddd 5ebc 3b71 7bbd c7f3 87bd dec7 b7bd
00000100: b285 233d d29c 4cbd 5c44 d3bd 3b32 bb3d
00000110: a2e3 9bbd 6fd6 a93b b5fb c73c ab06 b6bd
00000120: 1c19 5fbc 5e10 5f3c 81bd b3bc f3ea 92bc
00000130: 6ffb 29bb 9450 543b cf03 62bc de94 1b3b
00000140: 24db 183c 8491 2f3c 2c90 1d3d 62c0 1dbd
00000150: c668 79bc 64a2 973d f5a4 48bd 7cd2 b33c
00000160: b29d bb3c dd1e 72bd 17ad 5dbc 6398 743c
00000170: 9497 10bc 95a1 84bc 83a5 9c3b 423f e53a
00000180: dec1 6b3b 95bf bfbc 3489 a23c be51 adbc
00000190: 3956 6a3c 2feb 6539 e574 f5ba 5e43 45ba
000001a0: 565a ecbb 4370 3c3b 727a 64bb 695b 5cbc
000001b0: 1ea2 f9bc b108 0a3d a1af 923d 4fe3 61bd
000001c0: 6c84 3cbc 3be0 d83c 8ffa 0d3d 864a 313d
000001d0: 5e19 523b 0849 86bd ec46 3fbd d489 7dbc
000001e0: bcd5 e9bd 539f bf3c 91ba 88bd fcde c3bd
000001f0: 2de8 433d 2fb2 e1bd be7a 4b3d ff7e 1e3d
00000200: 201c 9abd 45ac 8a3d 18eb 893d 5a8a 7cbd
00000210: 75b0 d43c 446b 833c a942 76bd 875d 36bd
00000220: 5f4b 443d 4748 d8bc e82e 0bbd da70 5e3d
00000230: 5774 9abc 1636 c43c dda9 ef3c 89a7 e8bc
00000240: 22b0 9d3d 1db1 a9bd cb21 85bd af0f 1b3e
00000250: d69d 1fbe 564a 1cbe cf52 4a3e 0a28 dabc
00000260: 3bec e1bd b8d4 7e3d 6cec c9bd ba38 9ebd
00000270: 6bcf a93d 4a1c 7dbd f1ad ccbd 92da 5b3d
00000280: a1b8 8b3d 5e0a 1fbd 0236 49bd f475 d3bd
00000290: c7fc d0bd 1204 24bd a679 e7bd 5c13 cebd
000002a0: d16d d53d 6bb0 8cbd 4a8d 70bd e816 673d
000002b0: 8250 1cbd 1cd6 08bd da61 763d 22fd c9bd
000002c0: 00c7 a6bd a88c b23d 500c 17bd 7166 81bd
000002d0: c419 30bd 42f3 88bd 40be e7bc f194 0abd
000002e0: daf8 8dbd a08c ddbd 30f2 7a3d 59ce ba3b
000002f0: 0466 1fbc ab68 8f3d d5c5 42be ee03 24be
00000300: f495 9e3d 39b1 f5bd 8fa5 34be ca9c 683d
00000310: 38c6 b1bb 3c7e adbd 0d6b 973c 56b7 0cbe
00000320: c423 b1bd 6c58 f13c ea8a 86bd b970 c5bd
00000330: 0474 b53c 9406 8a3d d853 843c a862 8e3d
00000340: 7350 96bd 1a7b 7fbd b745 f33d 0e07 3dbd
00000350: 4da0 9fbd 7577 0e3d d462 613d 687b 0e3c
00000360: 67c2 cf3b 9442 e33c 80db b93b 25cf 0c3b
00000370: e91e 233c 2ef6 b738 9e87 c7ba c1d4 4739
00000380: 194c d9bb e84e 763d c6ad fcbd e15a 5fbd
00000390: 323e 8d3d 797e d1bd aaa8 a3bd 3eb4 903d
000003a0: c03a 2abc e84c a5bc 4fdf 20bb bff9 993c
000003b0: eacd d33c 4334 313c 7c12 dbbb 4336 99bc
000003c0: 5036 b43c 366c 9b3c 3ea4 9cbb e6b2 c4ba
000003d0: 32c6 8e3c 7afd df3c 349c 0b3c 9b4f 013b
000003e0: 93e3 783c 7e63 bbbb a4d1 94ba b55b e33c
000003f0: 006c b63d af95 663d f463 bf3c a185 883d
-0.03239834 -0.063117445 -0.07340846 -0.02647985 0.11511298 -0.08591158 0.0051882556 0.124396235
-0.093962505 -0.08782682 0.027147394 -0.018676333 -0.056772225 0.048694886 -0.03622566 -0.01739451
0.0056967363 -0.040868342 0.0719767 -0.006709069 -0.03522907 0.06293538 0.0102452645 -0.063050546
0.031571295 -0.00067510543 -0.07179417 0.022265203 0.010639481 -0.019697541 0.032194726 0.031070028
-0.05783813 0.04739278 -0.00077313674 -0.031784732 -0.009978156 -0.015570722 0.019856103 0.047167465
0.00036873133 0.014414684 0.034261756 -0.019374333 0.0061030975 -0.0775844 -0.024276283 -0.11392029
0.008894032 -0.04398271 -0.13496596 -0.030052153 -0.06345485 -0.13700154 0.022871267 0.023796635
-0.025390787 0.042135708 0.023478242 -0.038095105 -0.013602522 -0.061387282 -0.06638294 -0.089736685
0.039922424 -0.049954243 -0.10315773 0.0914044 -0.07611777 0.005183033 0.024412015 -0.088879906
-0.013616826 0.013614742 -0.021940948 -0.017934298 -0.002593722 0.003239666 -0.013794853 0.0023739855
0.009329591 0.010715846 0.03846757 -0.03851355 -0.015222734 0.074040204 -0.04898544 0.021950953
0.022902343 -0.059111465 -0.013530037 0.01492891 -0.008825202 -0.01619033 0.0047804727 0.0017490166
0.0035973708 -0.023406783 0.019840814 -0.021157142 0.014302784 0.00021926755 -0.0018726854 -0.0007524992
-0.0072129173 0.0028753437 -0.0034863022 -0.013449528 -0.030472811 0.033699695 0.07162405 -0.05514842
-0.011506181 0.026474109 0.03466278 0.04328396 0.0032058577 -0.06556898 -0.046698496 -0.015474755
-0.1141772 0.023391401 -0.0667621 -0.09564015 0.047828842 -0.11020314 0.049677603 0.03869533
-0.07524896 0.06771139 0.06734294 -0.06165538 0.025963048 0.01604236 -0.060122166 -0.04452279
0.047923442 -0.026401652 -0.03398028 0.054306842 -0.018854303 0.023951571 0.029255802 -0.0284002
0.0769961 -0.08285735 -0.06500586 0.15142702 -0.15587553 -0.15262732 0.19758151 -0.02663042
-0.110313855 0.062214583 -0.09859547 -0.077256635 0.08291515 -0.061794557 -0.09994114 0.05367524
0.068223245 -0.038828246 -0.04912377 -0.10325232 -0.102044635 -0.040042944 -0.113024995 -0.10062286
0.104213364 -0.068695866 -0.058728494 0.05641833 -0.038162716 -0.033407316 0.060151912 -0.098627344
-0.08143425 0.08718234 -0.036876976 -0.06318367 -0.042993322 -0.06687023 -0.02828896 -0.033833448
-0.0693223 -0.10817838 0.061266124 0.005700868 -0.009728912 0.07002386 -0.1902078 -0.16017124
0.07743445 -0.11996693 -0.1764128 0.05679015 -0.005425241 -0.08471343 0.018483663 -0.13741812
-0.086494 0.029461108 -0.065694645 -0.09640641 0.022150047 0.06739536 0.016153261 0.06952411
-0.07339563 -0.06237326 0.118785314 -0.046149306 -0.07794247 0.03478189 0.05502589 0.0086964145
0.0063403132 0.027741708 0.0056719184 0.0021485772 0.0099561 8.7719745e-05 -0.0015222912 0.00019057376
-0.006631386 0.060133845 -0.12337832 -0.05453003 0.068966284 -0.10229201 -0.079911545 0.070656285
-0.010389984 -0.020178273 -0.0024547165 0.018795846 0.025855023 0.010815683 -0.006685553 -0.018702632
0.021998554 0.018972497 -0.0047803214 -0.0015006929 0.017428491 0.027342547 0.008521128 0.0019731286
0.015190977 -0.0057186475 -0.0011353982 0.02775369 0.08907318 0.056295093 0.023363091 0.06666113

conv3.bias f4 [32]
00000000: e5a0 3ebc 8569 993c 808c fbbc efbb 8d3c
00000010: a97d 4abc 11cc 60bd 95f0 18bc 2bab c4ba
00000020: c949 513e dabc 34bc 2623 67bc 6bd0 d93c
00000030: ab3a 4abc feb6 d03c 982c 4fbc 878f 2fb9
00000040: d0bb dabb 4875 1b3c a60d 5ebc ec48 093c
00000050: 3a37 69bc 7be2 a93c 536d a0bc b20e 0b3c
00000060: c525 06bc cb1e cebc 2dcf a7bc 5239 9a3c
00000070: b89a 13bd 0092 77bc da8b d4bb 5662 413e
-0.01163504 0.018727073 -0.030706644 0.017301528 -0.012359061 -0.054882113 -0.009334703 -0.0015004625
0.20438303 -0.011031354 -0.014107501 0.02658864 -0.012343089 0.025477882 -0.012644909 -0.00016742769
-0.006675221 0.009488411 -0.013553059 0.008379202 -0.014234358 0.020737877 -0.01958338 0.00848739
-0.008187716 -0.025161168 -0.020484531 0.01882616 -0.036036223 -0.015110493 -0.006486398 0.18885168

fc.weight f4 [15, 8192]
00000000: 79d9 51bd ae79 883c bae6 dc3a c7ca 61bd
00000010: 990e 68bc 79f6 213c ae20 22bd f4b5 99bd
00000020: 6de5 28bc fc94 51bd 25c4 36be b550 80bc
00000030: dc2b 96bd d54d 543c 45cd a3bd 9dd6 6cbd
00000040: 732b 58bd a56e 72ba 7bcc 3e3c 7653 1cbd
00000050: 54a2 9e3c 2c36 4abd 6131 2fbd a22f bcbc
00000060: 1e0f fd3c 0465 44bd 7267 c4bd b5b4 893d
00000070: ed67 1bbd 684e 123d 0424 34bd 1a12 35bc
00000080: f5bb 17bd 8479 17bd 3341 a13c 8f4a 153d
00000090: eb50 143a 87c3 53bd 42f8 9bbc 7615 2fbd
000000a0: a9b7 ec3c 7981 223c 053f 5dbd 8d44 9b3d
000000b0: 2ab7 fa39 4a0e d0bb 72ef 4bbc 6814 2b3d
000000c0: 038e a3bb 58cf 67bd 4270 803c eff9 b33c
000000d0: 03c2 9abc 083d 973c 5ba3 febb f90e f8bc
000000e0: 2447 913c 4cb6 933c c7e4 09bc 39e9 213c
000000f0: 872e 3f3c 99f9 6dbc f004 9e3c f07d 483d
00000100: a23e fe3a 983a 65bc e573 f03b ba70 5bbb
00000110: 3506 eb3c f545 583d 64d2 55bd 9f4c 06bd
00000120: 3002 673d c1a5 e93c 3120 8e3d 4f4f e33b
00000130: 2cb7 d0ba eb79 ecbc 93a2 1ebc 4b97 033d
00000140: 38a8 353c 145e 1a3d 5aec 66bc c205 ecbc
00000150: fc66 4c3d 6b63 7b3c f268 d63a c411 f6bc
00000160: 662b 8c3d 0d5a 983c 8c9d 3a3d cb86 e9bc
00000170: ee29 4bbc fdd9 c0b9 ad82 76bc f833 0cba
00000180: dee5 8b3c 4575 f73c 0422 c6ba 943c 303d
00000190: 4550 193d 4ed8 4cbc 146c d43a a688 15bc
000001a0: 1018 83bc 730f dc3b a059 65bc 687f 51bd
000001b0: b962 c7bc b518 823d 6aec 5f3c 0a5e 75bc
000001c0: 24cd 083c b179 923c 7ef9 22bd 1d06 843d
000001d0: 15e3 ee3c 5c17 873b 4336 15bc 34c5 003d
000001e0: c0e0 12bd 2699 413c fd6d 193d f17a 17bd
000001f0: a150 083d fe71 e23b b980 053d 7448 b23b
00000200: 2600 d83c ab0e 243d 1f39 75bd 55c3 05bd
00000210: 22a4 e23c a85e b5bc 8a33 02bd 2f0e 32bd
00000220: f5fb 88bd 1ee2 e73c d3f9 573d 9dbf 24bc
00000230: 5ee3 5e3c a838 3e3c e046 b03c 67bc 37bc
00000240: 80ba fa3c b46b 35bc 2e8a f43c df09 32bd
00000250: bd70 ba3b b68a 7dbc 5fc7 58bd d496 62bd
00000260: 4d38 93bc 6717 2c3d 8db4 a4bd 723c 89bd
00000270: d5e7 4fbc a8f0 583d 53bd 62bc 15de 97bc
00000280: c2f9 d23c 05bd 2dbd 9aea 3f3d d1a5 8ebd
00000290: d044 54bc 5186 273d 38d2 113c 005d 59bd
000002a0: 9531 cb3c eae7 b2b9 8e65 9dbd 0e8e a7bd
000002b0: ef9e 0e3c 5705 2f3d f9ce 86bd b455 453c
000002c0: fe4b cc3c 3daa 8a3b bff5 f43c cb9b 0cbe
000002d0: b66f 26bc cd0f 8d3c 8740 203c f53e a6bd
000002e0: a899 fb3b ee24 bbbb d6b8 9abd a3e1 82bd
000002f0: e5a7 c53b 7dcb dd3c a056 6ebd aee9 b43c
00000300: 9cef 563c 8f81 db3c 2a16 11bc 148d fabc
00000310: e55c 003d 0076 f6bc d543 76bc bad8 96bb
00000320: ecb8 403c c659 38bd aa68 4fbd abb0 45bd
00000330: cda4 42bc e2e8 08bc 9b70 45bd 557b 68bb
00000340: 8cfd 68bc 34e3 6a3c c188 eebd d0d7 3ebd
00000350: 7ee7 783d a110 6fbd 71fe 0bbd 1c3c d6bc
00000360: 4eef 3d3d 5ee6 f3bc fa2e 043d 8331 df3c
00000370: 5309 ab3c 7f5c 4ebc 933e 91bd 97b3 3fbc
00000380: af91 c9bb 09ee 5cbc 3ac0 9fbd e2b7 ccbc
00000390: 0e2e 563d d77d 3cbc ffea 8dbc 3447 863c
000003a0: afa9 e93c 3d78 03bd 1821 ba3c be67 41bc
000003b0: 0fa4 993c 437d b73c ce73 afbd 0c38 6cbc
000003c0: e6fe 16bc 203c 2bbd 5137 c9bd a682 21bb
000003d0: faaa 09bd d02c eebb 4136 59bc b62c 843c
000003e0: 7a8f c43c 8094 2ebd 3cbe c03d 1b55 3cbd
000003f0: 7940 2f3d 9dfc 843d f042 883c 9d2b 1f3b
-0.05123279 0.016659584 0.001685343 -0.055125024 -0.014163637 0.009885424 -0.039581947 -0.07505408
-0.010308606 -0.051167473 -0.1784826 -0.015663484 -0.07332584 0.01295801 -0.079981364 -0.05782186
-0.05277581 -0.00092480547 0.011645432 -0.038165532 0.019364513 -0.04936807 -0.0427717 -0.022971932
0.030890997 -0.0479479 -0.09590043 0.0672392 -0.03794091 0.035719305 -0.04397966 -0.011051679
-0.037044484 -0.03698112 0.01968441 0.036448058 0.00056578097 -0.05170014 -0.019039277 -0.042745076
0.02889617 0.009918564 -0.05401518 0.075814344 0.00047820184 -0.0063493596 -0.012447225 0.041767508
-0.0049912944 -0.056594223 0.015678529 0.021969764 -0.01889134 0.01846172 -0.0077709383 -0.030280577
0.017734118 0.018031262 -0.008416361 0.009882265 0.011668808 -0.014524841 0.019289464 0.04894823
0.0019397328 -0.013991021 0.0073380345 -0.0033483938 0.028689483 0.05280109 -0.052202597 -0.032787915
0.05639857 0.02852142 0.06939734 0.0069369446 -0.001592373 -0.028866729 -0.009682315 0.032126706
0.01108747 0.037687376 -0.014094437 -0.02881134 0.0499029 0.015343527 0.001635818 -0.030037768
0.06844215 0.018597627 0.045560405 -0.028506657 -0.012400134 -0.00036783508 -0.015045804 -0.000534832
0.017077383 0.030207286 -0.0015116339 0.04302652 0.037430067 -0.012502743 0.0016206526 -0.009126818
-0.016002685 0.006715709 -0.013998419 -0.051146895 -0.024339067 0.06352369 0.013667205 -0.014976034
0.008349691 0.017880293 -0.039788716 0.064464785 0.029161016 0.0041226577 -0.009107175 0.031438068
-0.03585887 0.011816299 0.03745841 -0.03698248 0.03328002 0.0069105616 0.032593463 0.005440766
0.026367258 0.04005305 -0.059868928 -0.032656986 0.027666155 -0.022139862 -0.031787433 -0.043470558
-0.06688682 0.028306063 0.052728485 -0.01005545 0.013604013 0.011610188 0.02151817 -0.011214352
0.030606508 -0.011073042 0.029851045 -0.043466445 0.005689709 -0.015474966 -0.05292451 -0.055319622
-0.017971182 0.042014506 -0.0804225 -0.06700982 -0.01268955 0.052963883 -0.013839084 -0.018538514
0.02575386 -0.04241659 0.046854593 -0.06965221 -0.012955859 0.04089958 0.008900218 -0.053067207
0.024803916 -0.00034123595 -0.07685386 -0.08181392 0.008704885 0.0427297 -0.06582446 0.012044359
0.02493858 0.0042317198 0.029902337 -0.13731305 -0.01015847 0.017219448 0.0097810095 -0.08117477
0.0076782294 -0.0057111895 -0.07554786 -0.06390693 0.0060319775 0.02707457 -0.05818808 0.022084083
0.013118651 0.026795177 -0.008855382 -0.03058485 0.03133859 -0.030085564 -0.015030821 -0.0046034725
0.011762839 -0.04500749 -0.050636925 -0.048264187 -0.011880112 -0.008356305 -0.048203092 -0.0035473902
-0.014220607 0.014336396 -0.116471775 -0.046592534 0.060767643 -0.058365468 -0.0341782 -0.02615171
0.046370797 -0.029772934 0.032271363 0.027245289 0.02087847 -0.012595295 -0.07092013 -0.011700532
-0.0061514 -0.013484486 -0.07800336 -0.024990026 0.052290015 -0.011504612 -0.017323969 0.016391374
0.028523294 -0.03209709 0.022720858 -0.011804519 0.018754987 0.022398597 -0.0856701 -0.0144176595
-0.009216046 -0.041805387 -0.09825004 -0.0024644523 -0.03361032 -0.0072685257 -0.013257564 0.016134601
0.023994196 -0.04262209 0.09411284 -0.0459796 0.042786095 0.06493495 0.01663348 0.002428747

fc.bias f4 [15]
00000000: 7192 c3bc 8e07 583d 697b 973d 9167 f03c
00000010: 595e 7bbd d324 adbc 9ea8 b5bc f4c6 fcbc
00000020: fc39 2a3d b25c 743c 3df2 243d c882 7dbd
00000030: 1e7e 8c3c ced1 78bd 8681 2f3c
-0.02387354 0.05274158 0.073965855 0.02934626 -0.061369274 -0.021135723 -0.02217513 -0.030856587
0.041559204 0.014914678 0.04027008 -0.0618923 0.017149981 -0.06074696 0.010712033
