models/augmentedBaseline.pth (torch, 519032 bytes, 8 tensors)

conv1.weight f4 [8, 3, 3, 3]
000000 ea ca 0c 3d ba 8a 2a bc 64 aa be bd b5 d8 af 3d
       0.0343732 -0.010409052 -0.09309843 0.085862555
000010 a6 60 e8 3c c0 e9 22 bd b7 2a db 3d 5e 0a 63 3d
       0.028366398 -0.039773703 0.107015066 0.05542981
000020 c3 bb 17 bd 3e c2 3f 3d c2 4a 89 bb 7d b6 df bd
       -0.037044298 0.046816103 -0.00418982 -0.10923479
000030 5b a2 ab 3d 95 45 22 3d db 02 17 bd cb 98 d0 3d
       0.08380576 0.03961714 -0.036867958 0.10185393
000040 9e f1 84 3d f9 88 36 bd 94 15 38 3d e8 25 95 3c
       0.06491397 -0.04456422 0.044942454 0.018206552
000050 69 b7 f0 bd 47 88 a4 3d 7b ca 6f 3d 70 1c 54 bd
       -0.11753733 0.08033805 0.05854271 -0.051784933
000060 e6 00 f2 3d a3 71 88 3d 08 a6 33 bd 47 ef ce bb
       0.118165776 0.066622995 -0.04385951 -0.006315145
000070 ce 01 4e 3c 1b 55 34 3c fd ea e1 bb 78 cc b4 3a
       0.012573672 0.011006619 -0.006894468 0.0013793847
000080 ae 3c cb 3c 72 74 61 3c d8 48 1f 3d 34 9c d3 3c
       0.024809208 0.013760673 0.03888783 0.02583132
000090 03 5c 83 bc a6 fa 37 3c fd 39 8c bc 31 90 7a 3c
       -0.016035086 0.011229193 -0.017117495 0.015293167
0000a0 27 84 05 3d 75 12 db 3c ea a2 62 3c 3e aa fc 3c
       0.032596733 0.0267422 0.013832787 0.030842897
0000b0 6b 83 18 3d 22 50 03 bc 14 0d d5 ba 52 75 03 3c
       0.037234705 -0.008014711 -0.0016254508 0.008023577
0000c0 f3 07 62 b9 f9 3a 38 3d 80 08 9e 3c 7e a9 1b 3c
       -0.00021556001 0.044978116 0.019291162 0.009500859
0000d0 82 f3 cc 3c a6 11 f3 3c 9d e5 5f 3c 5f 66 44 3c
       0.025018457 0.029671501 0.013665584 0.011987298
0000e0 a3 74 d4 bc 17 31 14 3d b6 b3 23 3d a2 fb f8 bb
       -0.025934523 0.03617963 0.039966308 -0.0075983563
0000f0 5a 7e 3d 3d 57 f0 23 3d 65 e1 bc bb ce eb b9 bb
       0.046263076 0.040024128 -0.005764174 -0.005673862
000100 f9 76 94 bb 40 e2 58 bd 16 07 32 3d 9f c5 fe 3c
       -0.004530784 -0.052950144 0.04346379 0.031100092
000110 20 68 72 3c a9 22 5c 3d 0d 7c 48 3d fc 5c 29 ba
       0.014795333 0.053743992 0.04894643 -0.0006460694
000120 f2 b6 35 3c 68 8b f7 3a c1 13 ff bc 9c dd 2c 3d
       0.011090981 0.0018886151 -0.03113735 0.04220353
000130 85 82 d3 3c f4 1e ad bc 4a 0f 43 3d a0 da 00 3d
       0.025819072 -0.021132924 0.047622003 0.031458497
000140 23 a8 24 3c 7b 23 df 3c b2 c5 de bc a7 7d 06 bd
       0.010049853 0.027238598 -0.027193878 -0.032834675
000150 c1 ea 24 3d 35 92 b0 bb 58 86 b0 b9 58 49 39 3d
       0.04026294 -0.005388523 -0.0003366943 0.04523596
000160 be 93 3d bc 96 7e be bc 18 36 40 3b 2b 26 29 bd
       -0.011570869 -0.02325372 0.0029329117 -0.041296165
000170 8b 60 d1 bc 22 5d fb 3c 81 95 b4 3b b6 48 4a bb
       -0.02555873 0.030684058 0.0055109863 -0.0030866093
000180 d7 4b 16 3d c3 5c 78 bb 14 9d de bc 1f 9d ad 3c
       0.03669342 -0.0037897087 -0.02717451 0.021193085
000190 43 72 f3 bc 37 e1 1b bd 70 a3 7f 3d fa 0f 40 3b
       -0.02971757 -0.03805658 0.062411726 0.0029306398
0001a0 5c 76 4d bc d5 ba a5 3c be 95 20 3b ed 8b ab bc
       -0.012540426 0.02023069 0.0024503316 -0.020940745
0001b0 6a 01 24 bc 63 67 c7 3b 51 20 cb bc 75 f0 52 bc
       -0.010010103 0.0060853227 -0.024795683 -0.012874712
0001c0 79 a7 43 3c c8 28 57 ba 0f ca 2a 3b cb bc 82 bb
       0.011941784 -0.0008207676 0.0026060378 -0.003989791
0001d0 f3 7c 9e 3c 2d 68 c1 bb 60 7f 2e bb 7c b2 3e bb
       0.01934669 -0.0059023113 -0.0026626214 -0.0029098084
0001e0 a2 8d ee 3a f8 fb 1d 3c a5 8c 76 bc 3f bd b3 3a
       0.0018200169 0.009642594 -0.015048181 0.0013713016
0001f0 88 68 7f bc 2d 5e 2f bc a7 6e 49 bc ba 39 7a bc
       -0.015588887 -0.010703606 -0.012294448 -0.015272552
000200 b0 16 f9 3b ef d1 a4 b8 cc 9a 0e bc 84 21 13 3c
       0.0076015815 -7.8592326e-05 -0.008703899 0.008980159
000210 29 7c 60 bc 97 bc 60 bb 11 67 bf 3c b1 2c ec bd
       -0.013701477 -0.0034292096 0.023364576 -0.11531962
000220 8d cc 03 bd ce 23 c1 bc 4a ec e5 bd 1c 1d 42 3c
       -0.032177497 -0.023576643 -0.11226709 0.0118477605
000230 33 36 ee 3c 42 c2 a7 3c 77 5e e3 3d 70 58 0d 3e
       0.029078579 0.020478372 0.11102002 0.13803267
000240 d0 cc ef bd 45 37 51 bd cd f8 d8 bc a7 60 b5 bd
       -0.11708987 -0.0510781 -0.026485825 -0.088563256
000250 ad 4a 12 bc bd f3 79 3c e4 1e 8f 3b 47 18 e3 3d
       -0.008928937 0.015255866 0.004367696 0.11088615
000260 14 41 fc 3d fb 23 08 be 37 06 19 bd 2b f1 82 bc
       0.123171 -0.13294975 -0.037359443 -0.015984138
000270 3c 48 be bd 1b 3b 94 bb 81 d2 20 3d a9 91 48 bb
       -0.09291121 -0.0045236475 0.039263252 -0.0030604398
000280 ce 33 ea 3d a2 80 f2 3d c9 8d 73 bc a0 dc c1 3b
       0.11435662 0.11840941 -0.014865347 0.005916193
000290 95 65 e0 ba 1a 4f ea 3c 9d d7 2d 3d 9f ac fe 3c
       -0.0017120118 0.028602172 0.042441953 0.031088172
0002a0 15 af 79 bc 23 2b ad 3c 0e 8b 80 3c a1 c3 98 bc
       -0.015239497 0.021138733 0.015691306 -0.01864797
0002b0 13 9e 18 3b ab 3b f0 3b 4a 22 b2 3c 3b a5 45 3d
       0.002328758 0.0073313317 0.021744866 0.04825328
0002c0 75 36 1c 3d 05 d8 e7 bb 42 de 8f ba d7 3f 09 3c
       0.03813787 -0.007075312 -0.0010976272 0.008377037
0002d0 27 cb 64 bc 2e f0 88 3b 0d 9f 1f 3c 19 f9 9e 3c
       -0.013964451 0.0041790223 0.0097425105 0.019405888
0002e0 58 29 60 3d 3f aa 7b 3d 09 fd 68 bc f0 f6 bf 3c
       0.05472693 0.061441656 -0.0142204845 0.023433179
0002f0 77 f6 6c 3c 21 ec 37 3d 9d 0e bf bc f0 29 cb bc
       0.014463059 0.044902924 -0.023322398 -0.02480027
000300 57 3e 36 3c d2 dc 69 bc 85 c1 9d bc 80 16 85 3b
       0.011123261 -0.014273839 -0.019257316 0.00406152
000310 16 89 0b bd f5 93 b3 bc 05 22 5c 3d 48 e6 40 bc
       -0.034066282 -0.021921137 0.05374338 -0.011773653
000320 56 87 82 bc 00 f6 bd 3c 70 f8 4c bc 82 45 0f bd
       -0.015933674 0.023188591 -0.012510404 -0.034978397
000330 32 7e 7f ba 75 71 fd bc 0f 87 a9 bc fa 8b eb 3c
       -0.00097462826 -0.03093789 -0.020694284 0.02875327
000340 43 b5 02 bb 6a fc 35 bd 1a eb 3e 3c 77 be a6 bc
       -0.0019944466 -0.044430174 0.011652732 -0.020354493
000350 b4 9e 0c bd 7f 6a b9 3c 43 e0 ce bc 2e fd 03 bd
       -0.03433104 0.02263379 -0.02525342 -0.032223873

conv1.bias f4 [8]
000000 07 80 8d bb 15 21 83 bb 1d 10 1f bb a4 8f 04 3a
       -0.0043182406 -0.0040017464 -0.002427108 0.00050568045
000010 d0 14 93 b6 10 e1 a1 3a 09 a6 3e bb a5 93 17 3a
       -4.3833643e-06 0.0012350399 -0.0029090664 0.00057821936

conv2.weight f4 [16, 8, 3, 3]
000000 73 4b 7a bd c8 ca 6c bb ee 88 28 3d dc e8 89 bd
       -0.06110711 -0.003613161 0.04114621 -0.067338675
000010 a6 76 cd 3c 4f 82 38 3d af 4c 9a bd 27 a1 be 3b
       0.02508099 0.045046147 -0.075341575 0.0058175507
000020 b0 cc 72 3d d5 16 b5 bc c5 d5 ba 3b 49 64 96 ba
       0.059277236 -0.022105614 0.005701753 -0.0011473979
000030 a9 c3 ae 3c 9f 90 a0 3c 4e 3b a7 3c 02 2c be 3b
       0.021333532 0.01960021 0.02041402 0.005803586
000040 66 86 2f 3d 95 93 0d 3c 10 74 f4 bc ac 25 d3 ba
       0.04285278 0.008641143 -0.0298405 -0.001610925
000050 0a b9 11 3c bc 45 ee bc 12 f9 02 3c 57 73 4f 3d
       0.008894214 -0.029085986 0.007993953 0.050647106
000060 8f 29 66 bc cf 5a c0 3c c6 b7 c5 3c b2 68 73 bc
       -0.014047994 0.0234808 0.024135482 -0.014856504
000070 8a 65 b1 b9 d5 0c 3e bc ac 1c 0c bc 15 c8 1f bc
       -0.00033835723 -0.011599739 -0.008551758 -0.009752293
000080 bb 42 8b b9 93 1b 8f 3b b6 2f e1 bc ba 4d 39 bc
       -0.00026561864 0.004367301 -0.02748857 -0.011310035
000090 ee bb 1c bb 55 26 18 bb 8f 4a 87 bb 9c 78 91 3c
       -0.0023915726 -0.0023216207 -0.004128761 0.017757706
0000a0 00 91 82 bb dd 09 a2 3b a5 ec 40 3c a4 ca 99 bc
       -0.0039845705 0.0049450235 0.01177517 -0.018773384
0000b0 e2 a4 aa 3a 76 65 82 3c 02 12 14 bc e5 bc aa bc
       0.001301911 0.015917521 -0.0090374965 -0.020842025
0000c0 61 c0 aa 3b ab f3 53 bb 3d 91 4a bd d4 60 91 3b
       0.0052109216 -0.0032341282 -0.049454916 0.0044365916
0000d0 40 b4 84 bc b6 d9 3e bd 69 75 98 bc a1 44 13 3c
       -0.016199231 -0.046594344 -0.018610673 0.00898853
0000e0 6f 67 9a bc ff 8c eb 3b 3f 46 b7 3c 78 c9 95 3c
       -0.01884815 0.007188439 0.022372363 0.018284544
0000f0 71 f9 a3 39 a8 c2 f4 3c 1e 90 0f 3c 7c ea 14 bc
       0.0003127563 0.029877976 0.008762388 -0.009089109
000100 5a e5 48 bc c1 a2 b0 bc 7c 87 1b bc 7f 54 ab 3b
       -0.012261713 -0.021561982 -0.009492751 0.0052285786
000110 b0 d9 cb ba 41 13 87 bb 78 32 d8 bb 48 d5 26 bc
       -0.0015552547 -0.0041221683 -0.006597813 -0.010182686
000120 cc 07 11 bd fc 23 d7 3c e9 b5 53 3d 28 6b 79 bd
       -0.035407826 0.026262276 0.051687155 -0.060893208
000130 26 6e 9d 3c ad aa 48 3d 6f 2b 92 bd 99 40 89 bc
       0.019217562 0.048990894 -0.071371906 -0.016754435
000140 b1 81 d9 39 b7 d3 15 ba d5 dd f9 3c b6 07 ce 3c
       0.00041486093 -0.0005715447 0.030501286 0.025150161
000150 a1 f7 80 ba 56 21 85 3c 83 6e 90 3c 90 05 3d bc
       -0.0009839424 0.016251247 0.017630821 -0.011536971
000160 39 bb 33 ba 78 df 14 bd 03 b6 18 bd 01 ce c2 3c
       -0.00068562065 -0.03634593 -0.037282955 0.023779871
000170 dc ed 03 3d 9c 42 11 bd 32 8b 36 3d dd 2b 04 3d
       0.032209262 -0.035463914 0.04456634 0.032268394
000180 dc 31 3c bd a3 c8 c3 bc 55 49 5f bc bf a5 01 bc
       -0.045945987 -0.023899382 -0.013628324 -0.007913052
000190 7e c0 55 bc 0f 58 01 3c ab 65 b0 ba d3 0a 64 3c
       -0.013046382 0.00789453 -0.0013458034 0.013918596
0001a0 ed 40 75 3b 21 3c 32 bc 02 78 c8 bb 58 2c 2f 3b
       0.0037422732 -0.010878594 -0.0061178217 0.0026729312
0001b0 2d a7 44 bb 22 18 78 bc ca dc 41 3c ed 22 23 ba
       -0.003000687 -0.015142472 0.011832425 -0.0006223161
0001c0 e8 26 37 3c f8 84 0f ba 4e 03 97 bc df b5 94 3b
       0.01117871 -0.0005474831 -0.018434193 0.0045382823
0001d0 b3 e3 26 bc 95 65 d7 3c 89 25 d3 3c 39 04 13 bd
       -0.010186124 0.026293555 0.025774734 -0.0358927
0001e0 3a c6 8d ba b3 e1 9d bc 95 3f 28 bd 44 18 31 bc
       -0.0010816522 -0.01927266 -0.04107626 -0.010809008
0001f0 ba 4b d8 bb 77 c9 07 bd 43 d8 91 3c ce 5e be 3c
       -0.006600824 -0.033151116 0.017803317 0.023238566
000200 0a 88 14 3c 28 ca 9a 3c 33 86 37 3d 35 58 a9 bb
       0.009065637 0.018895224 0.044805717 -0.005167986
000210 75 95 aa bc b3 4e e3 bb d4 f2 ab bc e7 84 63 bc
       -0.02082322 -0.006936872 -0.020989813 -0.013886667
000220 26 ac 34 3c 3e d0 5a bc 6b 0d 10 bb 67 2f a8 bb
       0.0110273715 -0.013355313 -0.0021980654 -0.005132604
000230 d2 29 12 bb c2 00 70 3b 74 a5 30 3c ff 82 12 bc
       -0.002230276 0.0036621545 0.010781635 -0.008942365
000240 70 be 01 bd 1f 84 50 bc 77 7f 54 3c 81 84 84 bc
       -0.031675756 -0.012726813 0.012969843 -0.016176464
000250 f0 f5 49 3a aa 98 25 3d a7 b4 3b 3a 5c d4 3f 3c
       0.0007704189 0.040428795 0.0007160403 0.011708345
000260 bb d5 0d 3d ba 01 67 bc 60 38 a9 bc 2b 22 df bc
       0.034627657 -0.014099533 -0.020656765 -0.027237972
000270 19 9e e6 ba 71 a4 21 3d 7b 2a f2 3b e5 17 a9 3c
       -0.0017594724 0.039463464 0.007390318 0.020641277
000280 74 12 ce 3c d9 38 d1 3c 14 5a 5f bc 23 c9 e3 3b
       0.025155284 0.025539802 -0.013632316 0.0069514676
000290 18 12 3c 3b da 7e d6 3b 31 e0 ad 38 7d 94 39 3b
       0.0028697308 0.0065458836 8.291042e-05 0.0028317266
0002a0 4e 16 ba 3b c9 d6 12 3d be b5 02 3d 99 3b 9f 3b
       0.0056789285 0.035849366 0.031911604 0.0048593995
0002b0 3c b8 a8 ba 29 1b 7a 3c 54 a1 74 bc e4 76 b3 bc
       -0.0012872289 0.015265265 -0.014931042 -0.021907277
0002c0 2d 8b 6d bb 0b 2b 60 bc ba c2 18 bc f0 8d 05 bc
       -0.0036246285 -0.013682137 -0.00932377 -0.008151516
0002d0 f2 ba ec 3b 6a f5 e0 3a c8 b2 bd 3c 59 39 c4 3b
       0.007224434 0.0017162983 0.023156539 0.0059882817
0002e0 9b 59 38 bb 57 37 10 bc 0b 7d 9c bb 3d d9 3b bb
       -0.002812958 -0.008802257 -0.0047756485 -0.002866342
0002f0 59 ae 93 bb c2 cb 0c bc 6d 7b f3 3a 6e 72 12 bc
       -0.004506868 -0.0085935015 0.0018576212 -0.008938415
000300 7e 9d b5 bc 95 56 8e bc 42 ed f5 bc 11 0e 33 3c
       -0.022169825 -0.01737527 -0.03002036 0.010928647
000310 25 01 f2 bc 47 35 f1 bc 23 de 0a bc 94 b1 f1 3a
       -0.029541561 -0.02944435 -0.008475813 0.0018439763
000320 5e 7c 9f bc 65 dc e3 3b f5 d7 6a 3c a0 a7 dd bb
       -0.019468483 0.0069537633 0.014333715 -0.006764367
000330 2a 49 3b 3c cc e9 e3 3c cc 5a 97 3c 67 cd 9f bb
       0.011431018 0.027821444 0.018475913 -0.004876781
000340 15 a2 af b8 73 e0 0a bc f9 c8 91 bc ab 5d 66 3c
       -8.3748404e-05 -0.008476364 -0.017796027 0.014060418
000350 f5 fd d4 bb 47 e3 05 3b 60 9d 36 3c 60 2c 6c bc
       -0.0065000006 0.0020429657 0.01114592 -0.014414877
000360 0e d0 4f 3d 85 1a dd bd 19 6f e3 bd e2 8f 42 3d
       0.050735526 -0.10796074 -0.111051746 0.0475005
000370 5a 37 70 bd b0 ac ab bd a7 c1 29 3e c1 66 ea 3d
       -0.058646537 -0.08382547 0.16577779 0.1144538
000380 f6 35 88 3d e4 6d 0b bd 4e 03 bb bd 0e 6c 34 bd
       0.06650917 -0.034040347 -0.0913149 -0.04404836
000390 07 70 03 bb cc cb ac bd 61 65 26 bd be 7e 0f 3e
       -0.0020055787 -0.08437309 -0.040624026 0.14013192
0003a0 0f d1 24 3d 01 89 2b 3d 66 0a 16 bc a0 e1 92 bd
       0.040238436 0.041878704 -0.009157753 -0.07171941
0003b0 a9 ae 8f bd 92 15 b1 3c 87 7d 94 bd 1d c8 72 bd
       -0.07015736 0.02161673 -0.07250505 -0.059272874
0003c0 68 54 02 3e 32 bb 6e 3d ec f4 4a 3d c1 3f d9 3c
       0.12727511 0.058283992 0.049549982 0.026519658
0003d0 32 b9 59 3c e7 33 6f 3c 9d 9e 7f bb e2 ee f4 3a
       0.013288783 0.014599777 -0.0039004453 0.0018686915
0003e0 e5 a5 b1 bc 77 21 b2 3c 3a 5a 00 3d 41 d1 96 3c
       -0.02168555 0.021744473 0.031336047 0.018410327
0003f0 21 9b 5a bb de 7b f8 bb b5 bd 5b bb 12 bf 0c bc
       -0.0033356624 -0.0075831255 -0.0033529822 -0.008590477

conv2.bias f4 [16]
000000 cb 87 09 bc f8 21 eb bb e0 0b d4 bb 49 ad 1c 3a
       -0.008394192 -0.0071756802 -0.006471142 0.0005976749
000010 5f cb 11 bc 8c 9b 7d bb f8 50 1c bb 66 52 0e 3a
       -0.008898585 -0.003869745 -0.0023851972 0.00054291484
000020 4d f6 b8 3a 25 fc 88 ba ed b5 1f ba 1d 25 9f bb
       0.0014111489 -0.0010451121 -0.00060924777 -0.004856719
000030 99 1f 8b b9 a6 a6 81 bb b9 93 d0 3a 32 89 06 b7
       -0.00026535688 -0.0039566336 0.0015913165 -8.018966e-06

conv3.weight f4 [32, 16, 3, 3]
000000 39 7d 09 bd 7a 08 7b bc b5 b3 84 3c 70 44 7a bc
       -0.033566687 -0.015321845 0.016198972 -0.015275106
000010 0b 69 77 3c c6 9e 00 3d b6 03 ca bb ed 72 ad 3c
       0.015100728 0.03140142 -0.006164993 0.021172965
000020 ab 41 24 3d d5 17 1b bc 9f b4 9a bc a2 2e b0 3c
       0.04010169 -0.009466131 -0.018884955 0.021506611
000030 63 bc 82 bc 87 4c ca bc 68 01 fa 3b df eb 84 bc
       -0.01595897 -0.024694694 0.007629562 -0.016225753
000040 1e f3 38 3c 60 43 26 3d 58 71 de bc 53 2d 21 3c
       0.011288432 0.040591598 -0.027153656 0.009837466
000050 0e c6 76 3c 95 37 6d 3b 7e 3b de 3b a6 d4 1f 3c
       0.015061868 0.003619646 0.0067819944 0.009755289
000060 50 67 c1 3b a8 a1 d6 3c 93 62 09 3d c9 ea 1a bd
       0.0059022084 0.02620013 0.033541273 -0.037821565
000070 ea e2 96 bd 8b b6 5d bc 30 e6 e4 bc b0 d1 e7 bb
       -0.07367499 -0.013532291 -0.027941793 -0.0070745572
000080 c3 77 03 bd 7a 26 22 3c 6a 2e 0b bc 8f ea f6 bb
       -0.032096636 0.009896869 -0.008494953 -0.007535286
000090 40 7b 53 bc 4d 60 e6 bb 0f 86 ab 3c 44 b3 95 bc
       -0.012907803 -0.007030523 0.020937948 -0.018273957
0000a0 9a 31 4f 3c 1b 6f 06 3d 1f ba 00 39 09 22 ff 3c
       0.012646103 0.032820802 0.00012276367 0.031144159
0000b0 b0 0c 38 3d bc f0 d5 bc 15 d6 d0 bb 44 09 48 3c
       0.044933975 -0.026115768 -0.006373177 0.01220924
0000c0 09 08 84 3c ee 4a 17 3b bc aa cd 3c 8b 00 0e 3c
       0.016117113 0.0023085433 0.025105827 0.008667122
0000d0 e0 6d 7d 3c 3f dc e4 3b fd 9b e2 bc 28 3f c2 bc
       0.015468091 0.006984263 -0.027662272 -0.023711756
0000e0 02 88 9e bc b0 cf 1d bd 0f d9 fa bc 5d 00 82 bc
       -0.019351963 -0.038528144 -0.03062108 -0.015869314
0000f0 ea de 29 bd ac d9 3c bd 6f fb 0d ba 1d 7a 80 bc
       -0.041472353 -0.046106026 -0.00054161897 -0.015683228
000100 57 26 27 bc 2a 1b 86 bc f2 d1 89 bc 74 5e ac bb
       -0.010202012 -0.016370375 -0.016823743 -0.005260283
000110 34 24 a8 bc c0 22 72 bb 31 fb 86 bc 4b e7 14 bb
       -0.020525075 -0.0036946982 -0.0164772 -0.002272087
000120 94 f6 8d 3c 5d 9c 64 3c bb eb 15 bc 1d af bc 3c
       0.017329492 0.013953296 -0.009150441 0.02303272
000130 bd d2 05 bc 8e 51 20 3c 9b 4b 61 bc 9a 4f 07 3b
       -0.00816792 0.009785069 -0.013750936 0.0020646811
000140 e5 15 51 3b af 61 08 bd 3f 52 21 bd e3 bd 4e bc
       0.003190392 -0.033296283 -0.039385077 -0.012618515
000150 ec 75 37 bd b2 f7 f0 bc 91 65 b8 bc f1 a4 63 bb
       -0.044790193 -0.029414985 -0.022509368 -0.0034735764
000160 90 8b d3 bb fb a5 14 3c cf c6 0c bc 50 c9 61 3c
       -0.006455846 0.009072776 -0.008592322 0.013780907
000170 47 c7 4e 3c a2 b1 12 bc e8 6a b3 3b 53 ca 46 3b
       0.012620754 -0.008953484 0.0054753907 0.0030332997
000180 7e 2c 12 bc 99 81 36 3c a8 cd 81 bc eb c5 86 ba
       -0.008921741 0.011139297 -0.015845135 -0.0010282373
000190 c3 6f 1b 3b ca 5d 96 3b bb 82 08 bc af 48 7b 3c
       0.0023717738 0.0045888172 -0.00833195 0.015337153
0001a0 89 6f be 3c 21 93 9f bb 99 39 d2 3c f3 fd e3 3c
       0.023246543 -0.004869834 0.02566223 0.027831053
0001b0 1d 7e 47 bc f9 2e 5a bc ea 85 cf 3b 41 6e d4 bb
       -0.012176064 -0.013316863 0.0063331025 -0.00648287
0001c0 60 44 7f bb fb 77 9e bc 3b e5 be bc d7 b4 1a bc
       -0.0038950667 -0.01934432 -0.023302665 -0.00944253
0001d0 33 5a ed 3c 0c 9f 27 bb 32 3a e7 bc d3 a3 3d 3b
       0.028973674 -0.0025576977 -0.028225992 0.0028936758
0001e0 6f 1c ec bc 2b 9e 9c bc af 24 a5 3b 99 8f 12 bc
       -0.028822152 -0.01911839 0.0050397734 -0.008945369
0001f0 30 45 85 bb 4c 3f 43 3c 1b 8c f8 bb de f7 9c bb
       -0.0040670857 0.011916947 -0.0075850612 -0.0047902903
000200 51 bd 1b bc 5a da 8d bc 67 4c 7d bc 98 26 24 bc
       -0.009505586 -0.017316032 -0.01546011 -0.010018967
000210 6f b8 37 bc 4e 5b 95 3a 52 fa 39 3b aa d0 01 ba
       -0.011213406 0.0011395009 0.0028377962 -0.0004952053
000220 12 64 44 bb 2e ef e2 bb ff 89 da bb 66 51 dd bb
       -0.0029966873 -0.006925485 -0.0066692824 -0.006754088
000230 53 ec 08 3c 4f 88 e0 bb c7 72 11 3c 10 59 90 3b
       0.008357125 -0.0068521868 0.008877463 0.0044051483
000240 57 a7 b5 bc fa bf 82 bb 87 f7 7a bc 79 a4 94 bc
       -0.02217452 -0.0039901705 -0.015317804 -0.018144833
000250 cd a4 5b 3d 11 64 98 bc cc a4 e9 3b ff ce c1 3d
       0.053623963 -0.018602403 0.007130241 0.094633095
000260 58 10 bf bb 14 17 9d bc cf 1b 80 39 be b1 d1 bc
       -0.0058308057 -0.019176044 0.00024434782 -0.02559745
000270 85 93 b5 bc 3b a1 d7 3c 8a 8d 82 bc ee 73 ab bc
       -0.02216507 0.026321998 -0.015936632 -0.020929303
000280 7c f9 6a 3d 16 99 d1 3b 99 05 bd bb 4d ca 94 bc
       0.057366833 0.006396423 -0.0057684896 -0.01816287
000290 51 65 d8 ba 49 6a ed bb d3 2e 8b 3c 29 3f 38 3c
       -0.0016509687 -0.007245336 0.016990101 0.011245527
0002a0 24 db 80 3c 33 dd 3f 3d 68 58 c3 3c 5b b5 41 bd
       0.015729494 0.04684181 0.023845866 -0.047292095
0002b0 9f c5 4a bd 80 a1 91 bd 84 96 1c bc e9 ec 1f bd
       -0.049504872 -0.07110882 -0.00955737 -0.039044295
0002c0 b6 1b 8a bd 04 2d 18 3d 94 53 e0 3c 5d 8a 73 bc
       -0.06743567 0.037152305 0.027383603 -0.014864531
0002d0 8f d4 23 bc a7 5e 97 3b 18 57 96 bc 05 ee 30 bc
       -0.009999408 0.0046194377 -0.018352076 -0.010798936
0002e0 fc e9 81 3c c5 4a 03 3c 01 71 5e 3c 60 be 65 3d
       0.015858643 0.008013432 0.013576747 0.05608976
0002f0 44 9b c5 3c 63 5d 2f bd 39 24 d8 bb bb 37 cc bc
       0.024121888 -0.04281367 -0.006596115 -0.024928918
000300 aa 4a 01 bd 11 41 3c 3c 26 7b 5b bc a4 f6 22 3d
       -0.031565346 0.011490122 -0.01339606 0.039785996
000310 a2 cd 2b 3d 49 0a a0 3c 24 98 f1 bc 95 96 20 bd
       0.041944154 0.019536154 -0.029491492 -0.039206106
000320 8f 8c d8 bb 2b 3c 40 bc d0 f5 56 bc 78 cb 8d 3c
       -0.0066085528 -0.011733095 -0.01312013 0.017308936
000330 a1 ea 12 bd 85 e0 a4 3c 5a 8d fa 3c 70 93 81 bc
       -0.03586829 0.02012659 0.03058498 -0.015817374
000340 a2 24 01 bd 52 7a f8 bc c2 04 23 bb a3 2a 6e bc
       -0.031529076 -0.030331764 -0.0024874662 -0.014536533
000350 f1 f5 6c bc 7b 4a f9 3a b4 94 a8 bb 3e 5e a6 bc
       -0.014462934 0.0019019389 -0.00514468 -0.02030861
000360 14 7b 44 bc a5 f8 57 bc 13 41 60 3b 4f 3e 52 39
       -0.011992235 -0.01318184 0.0034218475 0.00020050372
000370 12 2a 00 bc f7 0d a1 3a da c0 f7 ba b8 e5 3f bc
       -0.00782253 0.0012287487 -0.0018902079 -0.011712484
000380 ec bb 8c bc ee 5b 01 bd d3 eb 71 bd 20 30 48 bd
       -0.017179452 -0.03158181 -0.05906279 -0.04887402
000390 4a b8 39 bc 34 d9 10 bd e8 80 6f bd f4 83 0e 3c
       -0.011335442 -0.03536339 -0.058472544 0.008698452
0003a0 e8 c0 08 3d bd 06 f6 39 b6 98 53 3c 6a e6 2c bc
       0.033387095 0.00046925797 0.012914827 -0.010552982
0003b0 ea 9f 35 3c 2f 5a 6f bc 6e 01 b4 3c 46 3a a8 bb
       0.01108549 -0.014608904 0.021973338 -0.0051339
0003c0 2a d8 b4 bc 98 0d 88 bc 2e 71 3f 3c 86 a9 d9 bc
       -0.022075731 -0.016608045 0.011684699 -0.026570093
0003d0 27 18 d8 bb 00 f0 a3 bb 2a 3f 5b bc 71 10 0d 3d
       -0.006594676 -0.0050029755 -0.013381759 0.034439508
0003e0 42 24 da 3b 65 94 fc 3b 29 ea 44 3d 66 21 01 3d
       0.0066571543 0.0077081197 0.048074875 0.03152599
0003f0 85 f4 bf 3a 83 55 ff bc ef 21 04 bd ce eb 7b bb
       0.0014645016 -0.031168705 -0.032258924 -0.003844011

conv3.bias f4 [32]
000000 3b b3 1a 3c 4d 66 4d ba 3d 02 8f ba 7a 20 2c 39
       0.009442146 -0.00078353734 -0.0010910701 0.00016415297
000010 04 61 bf ba 13 10 04 bb b0 43 2f bc c6 01 4b ba
       -0.0014601056 -0.0020151183 -0.01069729 -0.00077441
000020 6b 30 27 3b 4d a1 e5 b9 71 7e 61 bb 0d 25 90 36
       0.0025511037 -0.00043798462 -0.003440764 4.2958477e-06
000030 17 68 77 bc c8 e4 f8 39 5b f4 97 ba d0 f0 bf bc
       -0.015100501 0.000474727 -0.0011593209 -0.023430258
000040 06 c2 c2 bb 4e 81 9a b9 d8 52 a5 38 0d ee c2 bb
       -0.0059435396 -0.00029469508 7.883244e-05 -0.005948788
000050 e8 19 09 bc 42 b5 85 bb 23 66 81 39 1e d1 4f 38
       -0.008367993 -0.0040804455 0.00024680895 4.95474e-05
000060 b8 0b 4e b9 ea 7f 15 bc fb 7d 1b 39 8e 22 a4 ba
       -0.00019650056 -0.009124735 0.00014828883 -0.0012522505
000070 0f 53 d6 ba 79 98 80 b9 16 c7 de b8 09 d5 9f b9
       -0.0016351658 -0.00024527663 -0.000106228676 -0.00030485567

fc.weight f4 [15, 8192]
000000 13 e1 91 bc 99 49 b5 3b 62 d2 7f bc e4 a5 35 3b
       -0.017807519 0.005532455 -0.015614124 0.0027717287
000010 d4 62 35 ba 0f 8a 40 ba d3 b3 09 bb 25 2f 89 3a
       -0.00069193286 -0.0007344791 -0.0021011725 0.0010466321
000020 c8 6c d8 3b be e4 1c 3c 84 ee 0a bc 2f fe 12 3b
       0.0066047646 0.009576021 -0.008479718 0.0022429337
000030 cd 85 aa bc a4 ff 23 bc 7f 6d a2 ba ad 00 b4 ba
       -0.020815754 -0.01000968 -0.0012392252 -0.0013733112
000040 ab 06 3b bc 2a 45 32 3c 62 2f 3d 3c 6b 12 52 3c
       -0.011415164 0.010880748 0.0115469415 0.012821774
000050 e4 39 e5 3b d3 d3 be bc 19 60 48 3b 0d 88 84 3c
       0.0069954265 -0.023294365 0.0030574857 0.016178155
000060 f3 04 8f 3c b9 2f e9 3a eb 62 e2 3c fd ec 1d bc
       0.017458415 0.0017790712 0.027635058 -0.009639022
000070 12 c8 e7 3a 70 76 f3 37 c7 66 4a bc 08 34 5e 3a
       0.0017683527 2.902301e-05 -0.012353606 0.0008476381
000080 48 e8 73 bb 61 cd 87 3a 69 08 84 3b 2c 15 00 3c
       -0.0037217308 0.001036089 0.004029323 0.007817548
000090 01 a4 9e bb 86 fb 5c 3b 6f bb eb bb 91 b3 40 bc
       -0.004841328 0.0033719256 -0.0071939747 -0.011761562
0000a0 23 32 ad 3c cc e5 19 bc f6 ef bb bb bd 45 da 39
       0.021142071 -0.009393167 -0.0057353927 0.0004163216
0000b0 50 c4 96 bb 66 3d 1f 3b 24 a4 93 bb 3d 3c 91 3c
       -0.004601039 0.002429807 -0.004505651 0.01772892
0000c0 a1 74 72 3a 29 dd 5b 3c 13 0a e3 ba 43 41 8a 3b
       0.00092489464 0.013419428 -0.0017321728 0.0042192056
0000d0 2d 9c 0c 3c 00 2d cf bb 80 30 69 bb db c6 3c bb
       0.008582157 -0.006322503 -0.0035581887 -0.002880505
0000e0 e5 fe 36 bb aa b0 e9 bc 64 7c 5e 3c f0 bf dd b9
       -0.0027922925 -0.028526623 0.013579462 -0.0004229541
0000f0 ab 7d d9 3c 9c aa 5b 3b 08 94 2a bc 58 10 8a bc
       0.026549181 0.003351844 -0.01041127 -0.016853496
000100 4a 67 5b 3c 28 a7 03 3c ad 0e ce 3b 01 2d 81 3b
       0.013391325 0.008035459 0.0062883706 0.0039421325
000110 18 0a 1d 3c b9 a4 01 3b 21 54 de bb b0 1d 14 bb
       0.009584926 0.001978202 -0.0067849313 -0.0022600703
000120 8b ea 63 bc e4 a3 03 bc 3c 90 73 3c 62 38 2a 39
       -0.0139109 -0.00803468 0.014865931 0.00016233468
000130 e1 64 59 3b 7d db 6c 3c 69 56 0a 3c e0 6b 97 ba
       0.00331717 0.014456627 0.008443453 -0.0011552535
000140 44 b5 4d 3c 5b b0 9d 3c 42 fd 8e 3c 5c 07 90 3c
       0.012555424 0.019249132 0.017454747 0.017581634
000150 76 b3 bd 3c 11 b6 4f 3c 9f b6 11 bb 7e 38 31 3c
       0.023156863 0.012677685 -0.0022234095 0.010816691
000160 06 22 8f 3c fd 61 ed ba 87 92 cf 3c b9 28 96 3c
       0.017472278 -0.0018110868 0.025338424 0.018329965
000170 bf c7 ae 3c 53 33 1b 3d a2 1d c7 3a 38 d3 d0 ba
       0.02133548 0.037890743 0.0015191326 -0.0015932089
000180 68 04 a5 3c c2 34 ca ba b0 60 23 3c ec d2 d3 3c
       0.020143703 -0.00154271 0.009971783 0.025857411
000190 15 9d 4d 3c 77 72 8c bb 80 6a 81 3b 00 aa 46 bb
       0.012549658 -0.004286106 0.0039494634 -0.003031373
0001a0 ed 39 80 3c 59 32 9d 3b a6 19 78 3b a8 f3 7b bc
       0.015652621 0.0047972617 0.0037857085 -0.015377916
0001b0 8a 3c f3 3b c4 91 95 3b be de 02 b8 8b 9d 2a 3c
       0.0074229883 0.0045644958 -3.120186e-05 0.010413538
0001c0 2c 06 c9 3c f2 24 09 bc 00 e0 b5 3b b0 83 62 bc
       0.024539076 -0.008370625 0.0055503845 -0.013825342
0001d0 d9 dc d2 3a 13 62 8a 3c 04 d9 81 3c 06 1c 9e 3b
       0.0016087546 0.016892469 0.015850551 0.004825118
0001e0 9b e5 b0 bc cc dd 9d 3b 3e e0 bd 3a f8 b0 13 bc
       -0.02159386 0.0048177 0.0014486385 -0.009014361
0001f0 93 1c b6 3a 3b 1e 15 bc 73 70 73 3b 99 05 90 3b
       0.0013894014 -0.009101446 0.0037145882 0.0043951985
000200 ac f5 c9 bc 86 52 49 3c af 1a 53 bc ad f3 27 bc
       -0.024653278 0.0122877415 -0.01288478 -0.010250968
000210 46 47 35 3b 19 72 fb 3b 6f 81 9a 3c b3 ff f7 bb
       0.002766089 0.0076735136 0.018860547 -0.0075683235
000220 ec 69 49 3b fa c6 f5 bb 20 24 0a 3c 68 19 c9 3b
       0.00307333 -0.0075005265 0.008431464 0.006137062
000230 92 8e f8 b9 33 28 6e 3b fe eb 61 3c 10 e9 19 bc
       -0.0004740847 0.0036339879 0.013789175 -0.009393945
000240 8f f5 88 3b 2f 72 81 bb dd 78 0b bc 7c 79 96 bc
       0.0041796635 -0.0039503793 -0.008512703 -0.018368475
000250 2a be 5f bc 23 6c dc 3c dc 3b ba 3c a3 13 b6 ba
       -0.0136561785 0.026907032 0.022733621 -0.001389135
000260 db f8 c7 bb a7 72 0a 3c 0c 6e 54 3c a6 8e c7 bb
       -0.006102664 0.008450187 0.01296569 -0.006090003
000270 35 b2 05 3b d5 14 09 3c 1e c2 32 3b 70 51 19 bc
       0.002040041 0.008366783 0.0027276347 -0.009357795
000280 70 4d ad 3b 4d 6f 62 bc 8e 50 4a 3c e8 b8 f1 3c
       0.0052887723 -0.0138204815 0.012348307 0.029507115
000290 84 92 46 bc 6d de 06 bc 12 96 ab 3b 19 17 b8 3a
       -0.012119893 -0.008231741 0.0052363956 0.001404497
0002a0 26 cf af bb c9 31 c5 bb bb 24 cf 3c 8c 3b 2a 3c
       -0.00536527 -0.0060178977 0.02528607 0.010390174
0002b0 5c 17 c7 b9 1f d0 53 bb d3 0c a1 bb 5b 1e ea 3b
       -0.00037973642 -0.0032320095 -0.004914859 0.007144732
0002c0 11 15 62 3c 9b 4e 9b 3b b4 0a 69 bc 9e 9b 68 bb
       0.013798968 0.004739595 -0.014223743 -0.0035493146
0002d0 2b c1 6d bc ae cb d1 3a fb 67 45 b8 1d b6 51 3c
       -0.014511387 0.0016006136 -4.70653e-05 0.012799767
0002e0 61 e5 cb bb 74 b1 15 bc 8a 10 8b 3c c7 38 0d 3c
       -0.0062224125 -0.009136546 0.01697566 0.008619494
0002f0 53 05 44 3c 5a 18 0d bd 7d 1a 10 3b e7 05 06 3b
       0.01196416 -0.03444705 0.0021988444 0.0020450295
000300 42 ca 7c bc f4 aa b9 bb 77 06 21 3c 64 47 a3 bc
       -0.015429081 -0.005666131 0.0098282015 -0.019931503
000310 32 36 07 3d 1a 60 05 3b ad d4 ce 3c 5a 98 21 3c
       0.03301067 0.002035147 0.025247896 0.009862984
000320 64 91 2a ba fd 0c ab 3a a5 4e 1b bb 3c ce 5f 3b
       -0.000650665 0.0013050135 -0.0023698 0.0034150025
000330 a2 a8 4a bc 0b 5f b0 bb 9b 59 69 38 b2 c6 0c 3c
       -0.012369307 -0.0053824238 5.563498e-05 0.0085922945
000340 d5 7f 9b bc f9 2f 97 3c 65 1b ab bb 3e b5 2a 3c
       -0.018981854 0.018455492 -0.0052217715 0.010419188
000350 24 3b 3d 3c 28 ab 8e 3b 3d 0c 3a bb 9d 80 20 3c
       0.011549745 0.0043538995 -0.0028388642 0.009796289
000360 8f 8c 65 3c d8 0b 13 3b 49 cd 90 3b b0 63 90 3b
       0.014010563 0.002243748 0.004419003 0.004406415
000370 6c e9 77 bb 4d 9f 4e 38 02 64 22 bc 48 7b 09 bb
       -0.003782834 4.9262588e-05 -0.009911539 -0.0020978022
000380 3f 10 f0 bb 81 0c 3a bc 59 88 c6 ba aa 05 4b 3c
       -0.0073261554 -0.01135552 -0.0015146836 0.012391487
000390 e0 66 9f bb d8 8d 7a bc ce b3 15 3c 40 65 48 bc
       -0.0048645586 -0.015292607 0.009137107 -0.012231171
0003a0 24 ea ad ba 64 50 48 bb e2 ae 75 3b fc 88 91 3c
       -0.0013268632 -0.0030565495 0.0037488271 0.017765515
0003b0 17 95 4e bc 43 c7 17 bc 34 65 2b bb 11 32 a4 bc
       -0.012608788 -0.009263816 -0.002615285 -0.020043405
0003c0 47 b9 66 3b a4 6e c3 bc 36 8e b2 bb 9d bb fc b9
       0.0035205649 -0.023856468 -0.005449082 -0.00048204968
0003d0 32 98 bd bb 3b ea fc bc 34 b9 8c 3c fc 3b 10 bc
       -0.0057859654 -0.030873409 0.017178155 -0.008803364
0003e0 e3 28 e8 bb 1d 75 85 bc 38 3c 00 3c 0d a1 5c bb
       -0.007084952 -0.016291196 0.007826857 -0.003366533
0003f0 95 16 22 bb 5b d0 dc ba a0 8b 06 bc d6 b1 35 3b
       -0.0024732698 -0.0016846763 -0.008212 0.0027724407

fc.bias f4 [15]
000000 24 06 b6 bc 8f 76 2c 3c 8d b0 0f 3d de 07 44 bb
       -0.022219725 0.010526313 0.03508048 -0.0029911916
000010 81 b2 89 bc f4 01 b5 3b 59 49 66 bc 7c 31 43 bc
       -0.01680875 0.0055239145 -0.014055573 -0.011913653
000020 7b 51 14 3c 48 89 c6 3c 33 80 55 3c 55 6d 61 bc
       0.00905263 0.024235383 0.013031053 -0.013758977
000030 38 74 72 bb cf 13 ec bc 26 c1 89 3c
       -0.0036995541 -0.02881804 0.016815733
