models/augmentedDropout.pth (torch, 519020 bytes, 8 tensors)

conv1.weight f4 [8, 3, 3, 3]
0	0xbcaf6079	-0.021408306
1	0xbd01f0b6	-0.0317237
2	0x3d08844e	0.0333293
3	0xbcc7a187	-0.024369014
4	0xbd043d6d	-0.032285143
5	0x3cf4091f	0.029789506
6	0xbcaf4ce1	-0.021398963
7	0xbc31f7c0	-0.010862291
8	0x3d8354ca	0.064126566
9	0xbca11b44	-0.019666322
10	0xbcdab5e8	-0.026698068
11	0x3ccaad90	0.024740964
12	0xbbc5cb17	-0.006036173
13	0xbd2cc757	-0.042182293
14	0x3c847f17	0.016173882
15	0x3baa1f04	0.0051916856
16	0xbcb5297d	-0.02211451
17	0x3d45761e	0.04820835
18	0xbc0adbc9	-0.008475252
19	0xbcf87a89	-0.030331867
20	0x3ccb9ff3	0.024856543
21	0xbc4e095e	-0.0125754755
22	0xbccabee4	-0.024749227
23	0x3cf95b1b	0.03043895
24	0xbb243841	-0.0025057944
25	0x3ad7c310	0.0016461331
26	0x3d208986	0.039193653
27	0xbbe8ff62	-0.007110522
28	0x3b1ca64a	0.0023902827
29	0x3c0ba4ca	0.0085231755
30	0xbc451729	-0.012029448
31	0x3c4903d7	0.012268982
32	0x3bd552b6	0.006510104
33	0x3bf20f4c	0.0073870774
34	0xbc0f6a37	-0.008753351
35	0xb9a2e637	-0.0003107057
36	0xbbedfaee	-0.007262579
37	0xbb06f7f9	-0.002059458
38	0xbc221b09	-0.009894141
39	0x3b058f6c	0.0020379676
40	0x3ba876a0	0.0051410943
41	0x3c62e9c1	0.013849677
42	0xbbd92aa4	-0.0066273976
43	0x3b69dfa3	0.0035686276
44	0xbcb1b0d0	-0.021690756
45	0xbbee9d60	-0.007281944
46	0x3b7be7c3	0.0038437701
47	0xbbfd628b	-0.0077326945
48	0xbb10ad41	-0.0022075924
49	0xbc5fa542	-0.01365024
50	0xbc639aa0	-0.013891846
51	0x3c51dc4e	0.012808872
52	0xbbcea90d	-0.0063067735
53	0x3c0eb0fb	0.008709188
54	0xbbf6b6bc	-0.007529108
55	0xbc36cf61	-0.011157841
56	0x3c30497a	0.010759706
57	0x3ba989d5	0.0051739016
58	0xbc59b179	-0.013286942
59	0xbb0d6b77	-0.0021578947
60	0x3ba4a58e	0.0050246185
61	0xbc0aad66	-0.008464193
62	0x3cd3ab46	0.025838505
63	0xbbe989c3	-0.007127018
64	0x3c706329	0.014672079
65	0xbc618a8f	-0.013765945
66	0x3c1a98f1	0.009435878
67	0x3a50317b	0.00079419435
68	0xbb954cbe	-0.0045562675
69	0xbc9031dd	-0.017601902
70	0x3b5ac64b	0.0033382352
71	0xbbc7f2d3	-0.006101945
72	0x3bf9f0b3	0.0076275705
73	0x3b809ae4	0.0039247144
74	0xbc52197d	-0.01282346
75	0xbb359068	-0.002770448
76	0xbb54ce90	-0.0032471754
77	0xbc1c3ffc	-0.009536739
78	0x3a9dc7bc	0.0012037675
79	0xbb291d0d	-0.002580467
80	0xbb67d7dc	-0.0035376465
81	0xba49fb66	-0.0007705003
82	0xbc1c784b	-0.009550164
83	0xbcfd7cad	-0.03094324
84	0x3cdc268a	0.026873846
85	0x38fe0262	0.00012112108
86	0x3c10960b	0.0088248355
87	0x3cad296c	0.021137916
88	0x3ce4cefd	0.027930731
89	0x3c5890ca	0.013218114
90	0xbc831577	-0.016001446
91	0x3ae0419f	0.00171094
92	0xbc9b8e89	-0.018988864
93	0x3c4f21f3	0.0126423715
94	0x3c3c242d	0.011483234
95	0x3c8f4216	0.017487567
96	0x3cc9ba27	0.024624897
97	0x3ccd5beb	0.025068244
98	0x3c491232	0.0122724045
99	0x3b320138	0.002716137
100	0xbb9a1da8	-0.0047032423
101	0x392cffd3	0.000164985
102	0x3c377a76	0.011198631
103	0x3c8db545	0.01729835
104	0xbca35590	-0.01993826
105	0x3cc7ecaf	0.024404852
106	0x3bfa8f91	0.007646509
107	0xbb33d2eb	-0.002743895
108	0x3bd1bf5d	0.006400986
109	0xbc870291	-0.016480716
110	0xbd1eaafc	-0.038737282
111	0x3d0c9837	0.03432485
112	0x3cd37e91	0.025817188
113	0xbbbdf343	-0.0057968213
114	0x3d900c23	0.07033565
115	0x3ce3441b	0.027742436
116	0x3b93ff1e	0.0045164963
117	0x3a9aaab8	0.0011800146
118	0xbcaca231	-0.021073433
119	0xbcb08b8a	-0.021550912
120	0x3d10c54b	0.035344403
121	0x3be80c57	0.007081549
122	0x3be6eff2	0.0070476467
123	0x3d548792	0.051887102
124	0x3d2f29b6	0.042764388
125	0x3d1747c7	0.036933687
126	0x3a966eb4	0.0011477084
127	0xbca43c49	-0.020048277
128	0xbd367c5f	-0.044552203
129	0x3cc91a84	0.024548776
130	0x3c1de218	0.0096364245
131	0xbc51163f	-0.012761652
132	0x3d387533	0.045033645
133	0x3d1f2786	0.03885605
134	0x3c417663	0.011808011
135	0x3af3a7d1	0.0018589442
136	0xbb86f75e	-0.004118844
137	0xbd0f97b3	-0.03505678
138	0x3cc5353e	0.02407324
139	0x3c43360a	0.011914739
140	0x3c0df94a	0.008665392
141	0x3d3f29d9	0.04667077
142	0x3cf596ad	0.029979074
143	0x3c592f93	0.0132559715
144	0xbc68da2b	-0.014212172
145	0xbc126dbe	-0.008937297
146	0xbcd68da4	-0.026190586
147	0x3c854d59	0.016272234
148	0x3caefdba	0.02136122
149	0x3aba8c20	0.0014232434
150	0x3d37d092	0.044876643
151	0x3d219859	0.03945193
152	0x3c09f614	0.008420486
153	0xbc3a056d	-0.011353833
154	0xbbf8619c	-0.0075799953
155	0xbcbb6526	-0.02287538
156	0x3c8438f5	0.01614044
157	0x3bfaf69c	0.0076587927
158	0x3c1e4b5b	0.009661521
159	0x3d09ba83	0.033625137
160	0x3cdea169	0.027176576
161	0x3d01eb72	0.03171868
162	0x3b940e37	0.004518296
163	0x3c5227b6	0.012826851
164	0x3cb66d37	0.022268875
165	0xbc16961f	-0.009191065
166	0xbb87c017	-0.004142772
167	0xbc121fa8	-0.00891868
168	0xbc892c7b	-0.016744843
169	0xbbe2c9c0	-0.006921023
170	0xb9da346f	-0.00041619266
171	0xbc065735	-0.008199503
172	0xbb92828d	-0.0044711293
173	0xbc60458e	-0.013688458
174	0xba0b7a74	-0.0005320676
175	0xba78ef5e	-0.0009496118
176	0xbb2f5425	-0.0026753035
177	0x3bc58a72	0.006028467
178	0xba8686e5	-0.001026359
179	0x3bdc92c5	0.0067313635
180	0xbbe024cd	-0.0068403245
181	0x3c50cf5e	0.012744753
182	0x3c167477	0.009183041
183	0xbb319eb3	-0.0027102649
184	0x3b22dc06	0.0024850382
185	0xbc441bf9	-0.01196956
186	0xbb1b0427	-0.0023653598
187	0x3b90d753	0.0044202
188	0x3a8571c5	0.0010181001
189	0xbd0489a2	-0.03235782
190	0xbbad9d7b	-0.005298314
191	0x3df82f59	0.12118406
192	0xbd969329	-0.07352287
193	0xbd183d98	-0.037168115
194	0x3da007cc	0.07813987
195	0xbda08ae2	-0.0783899
196	0xbd8d456a	-0.06898005
197	0x3d5f2bf6	0.054485284
198	0xbce2a9d6	-0.027668875
199	0x3b35fdf3	0.0027769774
200	0x3e09013f	0.13379382
201	0xbd9cbc0e	-0.07653056
202	0xbcd78116	-0.02630667
203	0x3d88921e	0.06668495
204	0xbd937969	-0.072008915
205	0xbd87dfc3	-0.06634476
206	0x3d95edcb	0.07320746
207	0xbcad3087	-0.021141304
208	0xbcb321aa	-0.021866638
209	0x3dd99a0e	0.10625087
210	0xbdae7fdd	-0.08520482
211	0xbcba8262	-0.02276725
212	0x3daead09	0.085290976
213	0xbdcc5954	-0.099779755
214	0xbd55932e	-0.052142315
215	0x3d9699ae	0.07353531

conv1.bias f4 [8]
0	0x3920152c	0.00015266676
1	0xb5e64e4f	-1.7159126e-06
2	0xb8069d3f	-3.2094536e-05
3	0xbb659a50	-0.0035034604
4	0xbb9dfa6f	-0.004821114
5	0xbba25cf3	-0.004954928
6	0x375e6076	1.325469e-05
7	0x3a4ede02	0.0007891358

conv2.weight f4 [16, 8, 3, 3]
0	0x3b423610	0.0029634275
1	0xba1d24d9	-0.00059945654
2	0x3bc0b5d2	0.0058810497
3	0xbca027ea	-0.019550283
4	0xbbba401b	-0.0056839115
5	0xb8a5f46e	-7.913342e-05
6	0xbce57508	-0.028009906
7	0x3ca02114	0.019547023
8	0x3c594155	0.013260205
9	0xbb673001	-0.0035276415
10	0xbc0cedac	-0.008601587
11	0x3a6606b3	0.0008774802
12	0x3b8d35a9	0.0043093753
13	0x3b87362d	0.0041263313
14	0xbc4cd6b1	-0.012502358
15	0x3c0891f6	0.008335581
16	0xbbc1d520	-0.005915299
17	0xbb8e23e8	-0.0043377765
18	0xb993f841	-0.00028222988
19	0xbca86fe9	-0.020561175
20	0x3bab82b9	0.005234089
21	0x3b15bd06	0.0022848262
22	0xbbda26a8	-0.00665744
23	0xbbc84061	-0.00611119
24	0x3b9867ac	0.0046510305
25	0xbcb25033	-0.021766758
26	0x3c4eddbd	0.012626109
27	0x3d284e86	0.04109051
28	0x3d2e78e0	0.042595744
29	0x3ca0a478	0.019609675
30	0xbb34baf7	-0.002757726
31	0x3a593a67	0.00082865957
32	0xbbfd79c7	-0.0077354643
33	0xbd43fccd	-0.04784851
34	0xbd09645c	-0.033542976
35	0xbd08a804	-0.033363357
36	0x3d86ac0a	0.065757826
37	0x3d8c6626	0.06855421
38	0x3d651c55	0.055935223
39	0xbccf38c2	-0.025295619
40	0xbd3796d2	-0.044821568
41	0xbc210bcd	-0.009829474
42	0xbd578fe4	-0.05262746
43	0xbd5604bb	-0.052250605
44	0xbd10a52b	-0.035313766
45	0x3d38d94f	0.045129117
46	0x3d64ffc7	0.05590799
47	0x3d3fa10b	0.046784442
48	0xbbfae294	-0.0076564047
49	0xbcbedb71	-0.023297997
50	0xbae5de2b	-0.0017537525
51	0xbd40cffa	-0.047073342
52	0xbd5ddd18	-0.05416593
53	0xbd5fa870	-0.054603994
54	0xbc003d64	-0.007827137
55	0xbbe62824	-0.007023828
56	0xbbd13248	-0.006384168
57	0x3a6fcb78	0.00091474457
58	0x3ad88ff1	0.001652239
59	0x3c6675db	0.014066185
60	0x3be9ee1d	0.007138981
61	0xbbf2aa85	-0.0074055814
62	0xbbc5d880	-0.0060377717
63	0x3d0a1937	0.033715453
64	0x3c1578e8	0.009123065
65	0x3b037daf	0.0020063927
66	0x3c19a864	0.009378526
67	0x3bde0d01	0.0067764525
68	0xbc305670	-0.010762796
69	0x3c3bdfa2	0.011466892
70	0x3c556eb6	0.013026884
71	0x3cef4bab	0.029210886
72	0x3be1bbfb	0.006888864
73	0x3be0063e	0.0068366816
74	0xbb69d265	-0.0035678383
75	0xbcca9a7f	-0.024731873
76	0xbc89d3e6	-0.016824674
77	0x3c11a00b	0.008888255
78	0xbc91537f	-0.01774001
79	0xbb76c0de	-0.003765158
80	0xbbd10e61	-0.006379888
81	0xbbd4cfc2	-0.006494493
82	0xbc7cd954	-0.015432674
83	0x3c138c7d	0.009005663
84	0xbbb7e180	-0.0056115985
85	0xbc428281	-0.011871935
86	0x3bb35d1e	0.005473747
87	0x3c347f8a	0.011016736
88	0x3a4926ff	0.00076733524
89	0x3bf51240	0.007478982
90	0x3cda4fe7	0.026649429
91	0xbb6d64ae	-0.003622334
92	0xbb21b92b	-0.002467702
93	0xbcab0584	-0.020876653
94	0x3ab37745	0.0013692161
95	0xbbd7a539	-0.0065809754
96	0x3c4303f2	0.011902796
97	0x3c1b1651	0.00946577
98	0xbb3f6ef3	-0.0029210418
99	0x3c6f5751	0.01460822
100	0xbb94f2ad	-0.004545531
101	0xbc533ba9	-0.012892642
102	0xbb953f84	-0.004554691
103	0x3a919ecb	0.0011109946
104	0xbc446c10	-0.011988655
105	0x3cb55c61	0.022138776
106	0xbcd1d11c	-0.025612406
107	0xbc44290b	-0.011972676
108	0x3cad6674	0.021167018
109	0xbc09baed	-0.008406383
110	0xbc0212b0	-0.007939026
111	0x3b90b459	0.0044160304
112	0xbc41c723	-0.011827263
113	0xbb310502	-0.0027011042
114	0x3c49d418	0.0123186335
115	0xbb8fc43b	-0.004387406
116	0xb6e1a27e	-6.724439e-06
117	0x3ca929e4	0.020649858
118	0xbb9031a7	-0.0044004503
119	0xbb8818ac	-0.0041533317
120	0x3c6420bb	0.013923819
121	0xbc704b52	-0.014666395
122	0xbb74ac83	-0.003733427
123	0xbbe0a855	-0.0068560042
124	0xbc61fd15	-0.01379325
125	0x3c30e809	0.010797509
126	0xbc25f285	-0.010128622
127	0xbb643534	-0.003482175
128	0xbbfbd33a	-0.0076850923
129	0xb98524d3	-0.00025395173
130	0x3c56cf0b	0.013110886
131	0xbc2ef971	-0.010679589
132	0x3cb7b1ba	0.022423614
133	0xbc1ffd18	-0.009764932
134	0x3bb6572b	0.0055645905
135	0x3abb1630	0.001427358
136	0x3c3e2d4c	0.011607479
137	0x3bfa25bc	0.007633893
138	0xba35a9b8	-0.0006929892
139	0xbc413838	-0.011793189
140	0xbc2dbadc	-0.010603633
141	0x3a29d62c	0.00064787525
142	0xbb3661fe	-0.0027829404
143	0xbcb4487d	-0.022007221
144	0xbc011973	-0.007879603
145	0xbc0035f9	-0.007825368
146	0xbc510afc	-0.012758967
147	0x3c62461e	0.013810663
148	0xb9920af1	-0.00027855442
149	0x3ad20621	0.0016023555
150	0x3c06f144	0.008236233
151	0x3c78d4fd	0.015187499
152	0x3c9141db	0.017731598
153	0x3a1a59d2	0.0005888018
154	0xbc2bdc54	-0.010489542
155	0x3c759bdb	0.014990772
156	0x3c8a8e2d	0.016913498
157	0xbbfb30ca	-0.007665728
158	0x3cb90109	0.022583501
159	0xbba05b53	-0.004893699
160	0x3c6106d5	0.013734539
161	0xba792d5e	-0.00095053564
162	0xbc2d5671	-0.010579691
163	0x3b677ada	0.0035321028
164	0x3c025fed	0.007957441
165	0xbc0a7297	-0.008450172
166	0xbcb7d926	-0.022442412
167	0x398eecce	0.00027260784
168	0xbb79fd39	-0.0038145317
169	0xbc5ba751	-0.013406591
170	0xbc48d094	-0.01225676
171	0xbcf7ac2f	-0.03023347
172	0xbd746ed7	-0.059676018
173	0xbd67df1f	-0.05660927
174	0xbd037e9a	-0.03210316
175	0xbc9ea3ae	-0.019365158
176	0xbd13f4a8	-0.036121994
177	0x3d9f91e2	0.07791497
178	0x3d6c79a3	0.05773319
179	0x3d9e639c	0.07733843
180	0xbd733577	-0.05937716
181	0xbdba0bf5	-0.09084312
182	0xbd82b757	-0.063826256
183	0xbd8b50c4	-0.06802514
184	0xbd201104	-0.039078727
185	0xbd3b3319	-0.045703027
186	0x3db37dc4	0.08764222
187	0x3e037288	0.12836659
188	0x3e0aae78	0.13543117
189	0xbd901d71	-0.070368655
190	0xbda44b11	-0.0802213
191	0xbd7ff5dd	-0.062490333
192	0xbd466362	-0.048434623
193	0xbd2ab392	-0.041675158
194	0xbcc7f0d5	-0.02440683
195	0x3dcc61f0	0.099796176
196	0x3dbffa07	0.09373861
197	0x3dfb9b73	0.12285509
198	0x3bba0c4b	0.005677735
199	0xbc94201f	-0.018081723
200	0xbb098a25	-0.0020986882
201	0xba949a36	-0.0011337462
202	0x3c7389d7	0.014864407
203	0xbc617142	-0.013759913
204	0x3b359f44	0.0027713338
205	0x3ac9969a	0.0015379966
206	0x3c23c0ef	0.009994729
207	0x3bc0fa2d	0.0058891983
208	0x3bad58fa	0.005290148
209	0x3cb1205d	0.021621877
210	0x3b763f50	0.0037574358
211	0xbc47d7d3	-0.012197453
212	0xbbcdf184	-0.0062848944
213	0xbbc551b6	-0.0060217036
214	0xbc090b52	-0.008364515
215	0xbbcbc15f	-0.00621812
216	0x3c24e342	0.010063948
217	0x3c3f449f	0.011674075
218	0xbbb769c8	-0.005597327
219	0xbb9db9d2	-0.0048134113
220	0x3be954f3	0.0071207224
221	0xbc501664	-0.012700651
222	0x3c868b38	0.016423807
223	0xbbe8dd13	-0.007106432
224	0x3be53df6	0.0069959117
225	0x3c7e442b	0.015519182
226	0xbb9b3122	-0.0047360817
227	0xbb369486	-0.0027859523
228	0x3b0f3554	0.0021851854
229	0x3c3bd95f	0.0114653995
230	0x3b267421	0.0025398808
231	0xbc2e43cd	-0.010636282
232	0x3c0e7209	0.00869418
233	0xbb4d748a	-0.003134998
234	0xbbc65940	-0.00605312
235	0x3a6cd79f	0.00090348156
236	0xbb5b847b	-0.0033495713
237	0xbc0878dd	-0.008329597
238	0x3b5b7873	0.0033488541
239	0x3b64becd	0.0034903765
240	0x39cf0a09	0.00039489593
241	0xb9044014	-0.00012612372
242	0xbc66e279	-0.014092081
243	0xbc746d84	-0.014918689
244	0xbc677fba	-0.0141295735
245	0xbb3f5da8	-0.002920011
246	0xbbf5927a	-0.007494268
247	0x3c024b9f	0.0079526
248	0x3c480912	0.012209194
249	0x3bb037f6	0.005377765
250	0xbc0d2814	-0.008615512
251	0x3c6efaed	0.014586193
252	0x3b98961b	0.004656566
253	0xbc016cc1	-0.007899464
254	0x3bfdc84a	0.0077448236
255	0x3a58def7	0.00082729704

conv2.bias f4 [16]
0	0x3a4b6d6d	0.0007760141
1	0xb9d10a89	-0.00039871436
2	0xb98b1572	-0.00026528124
3	0xb8976cfe	-7.2205425e-05
4	0xb9352324	-0.00017274596
5	0xba8373cb	-0.0010029016
6	0xbb9fb190	-0.004873462
7	0xb80e78c9	-3.3967928e-05
8	0xb9cd9a21	-0.00039215482
9	0xbb9c2f44	-0.0047663767
10	0xbc0c0a90	-0.00854744
11	0xba85e4a5	-0.0010215236
12	0xb5b0b7de	-1.3166534e-06
13	0xbc469339	-0.012120062
14	0xbb95f177	-0.004575904
15	0xb7bf89c2	-2.2833123e-05

conv3.weight f4 [32, 16, 3, 3]
0	0xbb8ef128	-0.004362244
1	0xbc2f6324	-0.010704789
2	0xbc5b0f73	-0.013370383
3	0xbaab2066	-0.001305592
4	0xbb84962a	-0.0040462213
5	0xbc98f37f	-0.018670795
6	0xbc3d733f	-0.011563121
7	0xbcaf796c	-0.021420203
8	0xbacfae5d	-0.0015844811
9	0x3c56af5e	0.013103334
10	0xbc6ecb6d	-0.014574868
11	0x3ac1f5e3	0.0014798011
12	0xbc9cf9b9	-0.019162046
13	0x3c68b6f5	0.014203777
14	0x3bb6a912	0.005574354
15	0xbc253cca	-0.010085294
16	0xbc7d1bb3	-0.015448499
17	0x3bb32e62	0.0054681757
18	0x3a96731b	0.0011478396
19	0xbc677bac	-0.014128607
20	0xbc20df42	-0.009818854
21	0xbc460911	-0.012087123
22	0xbb41792c	-0.0029521687
23	0xbc95a2ab	-0.018266043
24	0x3cac18c8	0.02100791
25	0x3ce1bfe1	0.027557315
26	0x3bd8b039	0.0066128043
27	0x3a5cd8e9	0.0008424656
28	0x3bec0c2d	0.0072036
29	0xbadffd05	-0.0017088956
30	0x3c404aa9	0.01173655
31	0xbc0c2b93	-0.008555311
32	0xbc5d92af	-0.013523742
33	0xbad48d86	-0.0016216494
34	0xbbdb8661	-0.006699369
35	0x3bd4a44c	0.0064893123
36	0x3bae38e7	0.005316842
37	0x3c2ef211	0.01067783
38	0x3d0f177f	0.034934517
39	0xbb5ebc03	-0.0033986575
40	0xbba4812c	-0.0050202813
41	0x3b9c983a	0.004778889
42	0xbb9b11e3	-0.004732357
43	0x3c0b2908	0.008493669
44	0xbb143866	-0.0022616624
45	0xbb8a7f67	-0.0042266133
46	0xbce9af2d	-0.028525913
47	0xbad4b9da	-0.0016229704
48	0xbd272900	-0.040810585
49	0xb962fbd3	-0.00021646851
50	0xbca05e3a	-0.01957618
51	0xbc7e9b5b	-0.015539969
52	0xbcf52fd2	-0.029930029
53	0xbc5569bb	-0.013025696
54	0xbc920929	-0.017826634
55	0x3c211143	0.009830776
56	0xbc92d25b	-0.01792257
57	0xbce1c576	-0.027559977
58	0xbc567855	-0.013090213
59	0xbccfd97d	-0.025372261
60	0xbb94f7c1	-0.004546136
61	0xbb936099	-0.0044975993
62	0xbb0795c1	-0.0020688626
63	0x3c1c66b1	0.009545968
64	0x3b1a3f84	0.0023536393
65	0xba6095c7	-0.00085672404
66	0x3c5484a2	0.012971075
67	0xbbfbf16a	-0.007688691
68	0x3bd680e2	0.0065461257
69	0xbbbe9b59	-0.0058168587
70	0x3996ce62	0.00028763997
71	0xbcbdb130	-0.023155779
72	0x3bea597e	0.0071517816
73	0xbc913573	-0.017725682
74	0x3a17a136	0.0005784215
75	0x3c34ab27	0.011027134
76	0xbc846f8b	-0.01616647
77	0x3b9e034c	0.0048221704
78	0xbaebaef9	-0.0017981223
79	0x3bf9add2	0.007619598
80	0xbb1fd6d4	-0.0024389522
81	0xbb570d4b	-0.003281432
82	0xbace17bc	-0.0015723626
83	0xbc8a4c00	-0.016881943
84	0xbc882c9a	-0.01662283
85	0xb93906ff	-0.00017645581
86	0xbc836500	-0.016039371
87	0xbbd9ed75	-0.0066506215
88	0x3ccd57e8	0.025066331
89	0xbcb056b8	-0.021525726
90	0x3957b35a	0.00020570811
91	0xbc17f474	-0.009274591
92	0x3ba31d4f	0.004977859
93	0xbc33ad4f	-0.010966613
94	0x3aecb42c	0.0018059066
95	0xbbd6b62d	-0.0065524788
96	0x3cc78ca8	0.024359062
97	0x3c667adc	0.014067378
98	0x3b3844a2	0.002811708
99	0x3c11096c	0.008852344
100	0x3c07e21e	0.008293657
101	0xbab02356	-0.0013438265
102	0x3a37e13c	0.00070144585
103	0xbc6b393a	-0.014356906
104	0xbc492d7a	-0.012278909
105	0xbc1c4666	-0.009538269
106	0x3c3a4967	0.01137004
107	0x3a657fc0	0.0008754693
108	0xbc8271b7	-0.015923364
109	0xbb0435fa	-0.0020173774
110	0x3a748283	0.0009327309
111	0x3ba40140	0.005005032
112	0x3ae1418f	0.0017185676
113	0xbbec4618	-0.0072105043
114	0x3cb8135c	0.022470169
115	0xbbe68279	-0.0070345965
116	0xbc705d87	-0.014670736
117	0xbc2dcc06	-0.010607725
118	0x3a7e43f1	0.0009699455
119	0xbbe808a5	-0.0070811086
120	0x3a1c8a9f	0.0005971584
121	0x3d078624	0.03308691
122	0xbbfed911	-0.007777341
123	0x3c049e42	0.008094372
124	0x3b6716c4	0.0035261372
125	0xbac33254	-0.0014892318
126	0xbbcf6d8c	-0.0063301977
127	0xb8aa532e	-8.121725e-05
128	0xbc7b4627	-0.01533655
129	0x3a4fb30b	0.0007923103
130	0xbb6f4f57	-0.0036515796
131	0xbc3065f9	-0.0107665
132	0x390753ed	0.00012905868
133	0xba00aaeb	-0.0004908281
134	0xbc26bde2	-0.0101771075
135	0xbc395e82	-0.011314036
136	0xbc499cf3	-0.012305486
137	0xbc6db421	-0.014508278
138	0xbba548d1	-0.005044081
139	0xbaae3fea	-0.0013294194
140	0x3967a10d	0.00022089873
141	0x3c1eb312	0.009686248
142	0xbc761376	-0.015019288
143	0x38e9f85d	0.00011156567
144	0x3bf17568	0.0073687322
145	0xbbb4333d	-0.005499272
146	0xbb817808	-0.0039510764
147	0x3c21ffb4	0.0098876245
148	0x3922af16	0.00015514749
149	0xbc8f7b14	-0.017514743
150	0xbb84ffb9	-0.004058805
151	0x3b67ecf4	0.0035389038
152	0x3b88f467	0.0041795257
153	0xbbc6f9fe	-0.006072282
154	0x3b8b9ea4	0.004260855
155	0x3c2a41dc	0.010391679
156	0xba5d4f96	-0.000844234
157	0xb9719c65	-0.00023041813
158	0xbc2fe8bc	-0.010736641
159	0x3c67e381	0.014153362
160	0x3c6af4e5	0.014340614
161	0x3c15673e	0.009118853
162	0xbcb60140	-0.022217393
163	0xbc8f6694	-0.017504968
164	0xbcb30868	-0.021854594
165	0xbc9eaf11	-0.019370588
166	0xbbe8dd48	-0.007106457
167	0x3b2edfb5	0.0026683633
168	0xbc5cf1f7	-0.013485423
169	0xbcc336e2	-0.023829881
170	0xbcbe66ac	-0.023242317
171	0x3a728192	0.0009250875
172	0x3bf653ac	0.0075172987
173	0x3b8862d7	0.0041621733
174	0xb8a3a4cb	-7.803141e-05
175	0x3c55b731	0.0130441645
176	0x3ba65b95	0.0050768354
177	0x3c7b1097	0.01532378
178	0xbbfb1752	-0.007662692
179	0x3c002340	0.007820904
180	0x3b85981b	0.0040769703
181	0xbc4b051f	-0.012391358
182	0x3ae7eef9	0.0017695121
183	0xbbcca81d	-0.0062456266
184	0xbb89dd71	-0.004207306
185	0xbac56431	-0.0015059767
186	0x3b572640	0.0032829195
187	0xbc348acb	-0.011019419
188	0x3c63706c	0.013881784
189	0x3d0632f3	0.032763433
190	0x3ca3c1d5	0.019989887
191	0xbc8b65c2	-0.017016295
192	0x3d0ef107	0.03489783
193	0x3c9e76e3	0.019343799
194	0xbcb41f32	-0.021987531
195	0x3ce959f5	0.028485278
196	0xbce9015f	-0.028443037
197	0xbcca595e	-0.024700817
198	0xbc8a421b	-0.016877225
199	0xbcbe5c5e	-0.023237403
200	0xbc540643	-0.012940946
201	0xbbf9bf75	-0.0076217004
202	0xbbfd653e	-0.0077330163
203	0xbc807c27	-0.0156842
204	0xbc3b6594	-0.011437792
205	0xbcb1d0e4	-0.021706052
206	0xbcdd605c	-0.027023487
207	0x3b81778b	0.003951018
208	0xbc53ba01	-0.012922765
209	0xbca640ff	-0.020294664
210	0xbbef5723	-0.0073040887
211	0x3c035218	0.008015178
212	0x3bf04002	0.007331849
213	0x3c1ac9ca	0.009447524
214	0xbbe6375e	-0.0070256433
215	0xbbcdd7f5	-0.0062818476
216	0xbc8a9d55	-0.016920725
217	0x3a35acf0	0.0006930372
218	0xbc86a717	-0.016437097
219	0x3b901e5c	0.0043981504
220	0x3bd38fd9	0.006456357
221	0xbb0da498	-0.0021612998
222	0x3c17c5b2	0.009263443
223	0x3ac71dd3	0.0015191383
224	0x3c0f9099	0.008762502
225	0xbc720263	-0.014771077
226	0xbc0587d0	-0.008150056
227	0xbca11e35	-0.019667724
228	0x3be60023	0.0070190593
229	0xbb5b21e5	-0.003343695
230	0xbc31269d	-0.010812429
231	0xbc1c7128	-0.009548463
232	0xbbdfd1b4	-0.0068304185
233	0xbc834a79	-0.016026722
234	0xbb41b634	-0.0029558064
235	0x3c09d16c	0.0084117465
236	0x3b971a66	0.0046113012
237	0x3c0a2d53	0.008433658
238	0x3b757c2a	0.003745804
239	0x3c1c3451	0.009533958
240	0xbcb3d9e4	-0.021954484
241	0xbc6e3c39	-0.014540725
242	0xbb50cba9	-0.0031859672
243	0x3c3238e9	0.010877826
244	0xbc386866	-0.011255359
245	0x3c2460cb	0.010032843
246	0x38e3004c	0.00010824259
247	0xbc100cb9	-0.008792096
248	0x3b6f8e68	0.0036553387
249	0xbbb36eac	-0.0054758396
250	0xbc2829f8	-0.010263912
251	0x3baa6be3	0.0052008494
252	0xbc973301	-0.018456938
253	0xbcaf667a	-0.02141117
254	0x3b1cc99e	0.0023923884
255	0xbbd62eb6	-0.00653633

conv3.bias f4 [32]
0	0x3ba59fb7	0.00505444
1	0xbb0d5762	-0.0021566977
2	0x3a9ab3fb	0.0011802906
3	0xba2da507	-0.0006624017
4	0xbbc11fec	-0.005893698
5	0xbc80d921	-0.015728535
6	0xbcffd722	-0.031230513
7	0xbb8cd418	-0.0042977445
8	0xbaeb03bb	-0.0017930189
9	0x3b9db3a0	0.0048126727
10	0xbbf1f96c	-0.0073844697
11	0x3aa4d733	0.0012576341
12	0x3a03fe29	0.0005035126
13	0xbc1b9e1f	-0.009498148
14	0xbb8df41c	-0.0043320786
15	0x3982509e	0.00024855597
16	0xbc3b863a	-0.011445576
17	0xbc2dcd72	-0.010608064
18	0xbbe186f1	-0.0068825413
19	0x3b0215b6	0.0019849367
20	0xbbd6f27e	-0.006559669
21	0xbce78487	-0.028261436
22	0xba77f0c4	-0.0009458179
23	0xb9ac4d95	-0.000328642
24	0xbcdcf30e	-0.026971366
25	0xbb312e8a	-0.0027035796
26	0xbcf27977	-0.029598935
27	0x3ba85423	0.005136983
28	0x3b1c713a	0.00238712
29	0xbc60f410	-0.013730064
30	0xbb3617b2	-0.002778512
31	0xb9788ac9	-0.00023702825

fc.weight f4 [15, 8192]
0	0x3beb11db	0.0071737594
1	0xbb07e823	-0.002073773
2	0xbc2b0691	-0.010438577
3	0xbade2b03	-0.0016950074
4	0x3be39abd	0.0069459365
5	0xbba22790	-0.004948564
6	0x3b64f0eb	0.0034933637
7	0x3b85f5b2	0.004088127
8	0xba074df7	-0.0005161459
9	0x3bc5647c	0.0060239416
10	0xbb8731e1	-0.004125819
11	0x3be04381	0.0068439846
12	0xbbdc3a9c	-0.006720854
13	0xbbfe027f	-0.0077517624
14	0x3c880891	0.016605647
15	0x3b1d9ddd	0.0024050393
16	0xbc9ae395	-0.018907348
17	0xbacea56f	-0.0015765856
18	0x3c3ed080	0.01164639
19	0x3b4e2cdc	0.0031459844
20	0xbc2b74fc	-0.010464903
21	0xbbd0ff15	-0.0063780644
22	0x3c10c0ac	0.008834999
23	0xbc0df91a	-0.0086653475
24	0xbb790e22	-0.0038002809
25	0x3c3ffe58	0.011718355
26	0x37e2509c	2.6978836e-05
27	0xbbd97d7a	-0.0066372724
28	0x3ac2a349	0.0014849688
29	0x3c12f7dc	0.008970227
30	0x3bb1b2c3	0.0054229214
31	0x3c42467e	0.011857627
32	0x3c37dee5	0.011222576
33	0xbbf358f1	-0.007426374
34	0x3b6e2f9b	0.0036344293
35	0xb8914d1e	-6.928503e-05
36	0xbae2f6f2	-0.0017316027
37	0x3c302dc9	0.0107531035
38	0xbbd6593e	-0.0065414
39	0xbbc38ec4	-0.0059679467
40	0x3c6c8c56	0.014437756
41	0xbc3dd2c6	-0.011585897
42	0x3ccfff8b	0.025390407
43	0xbb9ac4e6	-0.004723179
44	0x38732ca0	5.7977275e-05
45	0x3bb1e636	0.0054290546
46	0xbbf9a3de	-0.0076184114
47	0xbb164b66	-0.0022933125
48	0x3b579940	0.003289774
49	0x3c5d0578	0.013490073
50	0xbb84fd3f	-0.0040585096
51	0xbb46b87b	-0.0030322361
52	0x3c225b80	0.009909511
53	0x3c0d2412	0.008614557
54	0x38247a00	3.921427e-05
55	0x3bcdc31b	0.006279362
56	0xb9f40b4d	-0.00046547726
57	0x3bbc613c	0.005748896
58	0xbc890968	-0.016728118
59	0xbc685219	-0.01417973
60	0xbc3f876c	-0.011690002
61	0x3ac44547	0.001497426
62	0x3c418215	0.011810799
63	0xbc79bca9	-0.015242734
64	0x39fbae4e	0.00048004318
65	0x3b1eeab9	0.0024248792
66	0xbb524fa6	-0.0032090931
67	0x3af8f2e7	0.0018993289
68	0xbbbd8fa3	-0.005784945
69	0xbc33116c	-0.010929447
70	0x3c62b255	0.013836463
71	0x3b5903c9	0.0033113828
72	0x3ba15069	0.0049229157
73	0xbb77a8ab	-0.0037789743
74	0x3c0d3d25	0.008620535
75	0xbaee740c	-0.0018192544
76	0xbcb53047	-0.022117747
77	0xb7d3e0cb	-2.5257837e-05
78	0x3ca7e454	0.020494618
79	0x3cb17a32	0.021664713
80	0x3b93419b	0.0044939048
81	0xbb14a7a4	-0.002268293
82	0x3b8cc5ec	0.004296055
83	0xbb8e5d7e	-0.004344641
84	0x3c4eb541	0.0126164565
85	0xbc839a86	-0.016064893
86	0x3bfe99c7	0.0077697965
87	0xbc308a2a	-0.010775128
88	0x3bb5e1ac	0.005550584
89	0x3bdaf6e4	0.0066822637
90	0x3b3c53d3	0.0028736487
91	0x3ca1b4e1	0.01973957
92	0xbc297aa7	-0.010344184
93	0xbb58cf3f	-0.0033082513
94	0xbca30eac	-0.019904457
95	0xba67cdd2	-0.00088426203
96	0x3b0e46c4	0.002170966
97	0x3acd0ad8	0.001564349
98	0x3c05be12	0.008162992
99	0x3c6cf52e	0.014462752
100	0x3bd43a4b	0.0064766756
101	0xbc098d0b	-0.008395444
102	0x3bd0fa3d	0.006377487
103	0x3c65c029	0.014022865
104	0x34d8aa18	4.0356895e-07
105	0x3c3c5b23	0.011496338
106	0x3bdca95f	0.006734058
107	0xbc3b6ba6	-0.01143924
108	0xbb5b0416	-0.0033419183
109	0x3b867e24	0.0041043926
110	0x3bb659ed	0.005564919
111	0xbc3f76f5	-0.011686076
112	0x3c0ac9ea	0.008470992
113	0x3c2d05c6	0.0105604585
114	0xbbc55487	-0.0060220393
115	0xbc9e4047	-0.01931776
116	0x3c4c35a9	0.012463965
117	0xbb0ffbf2	-0.002197024
118	0x3a1c981d	0.00059735944
119	0xba584609	-0.0008250182
120	0x3ca68073	0.020324921
121	0xbb2b423b	-0.0026132006
122	0x3c6d5836	0.014486363
123	0x3cbb72f4	0.022881962
124	0x3c21410a	0.009842167
125	0x3b2f4651	0.0026744793
126	0xbc4e9b86	-0.012610322
127	0xbcf5bae5	-0.029996345
128	0x3b1ee9d0	0.002424825
129	0x3c91b81f	0.017787991
130	0xbc48938d	-0.01224221
131	0x3c20acc8	0.009806819
132	0x3c05e88f	0.008173122
133	0x3add2647	0.001687237
134	0xba8474b1	-0.0010105578
135	0x3c547903	0.012968305
136	0x3abb96e3	0.0014311936
137	0x3b2a5b97	0.0025994533
138	0x3c610aad	0.013735455
139	0xbc48a96e	-0.012247426
140	0xbc4345ee	-0.011918528
141	0xbb8ba8ef	-0.004262082
142	0x3c8cbd91	0.017180236
143	0xbacb79a0	-0.0015523918
144	0xbc1f3ee3	-0.009719583
145	0xbc3093f2	-0.01077746
146	0xbb5e4594	-0.0033915984
147	0xbc11dc7b	-0.008902664
148	0x3b18a294	0.0023290263
149	0xbc8b848a	-0.017030973
150	0xbc1bf3d8	-0.009518586
151	0x3bd8374c	0.006598389
152	0xbc5131c3	-0.012768212
153	0x3bc6e17a	0.0060693594
154	0x3c188ae5	0.009310459
155	0x39fe944c	0.00048557145
156	0x3c0ea6a9	0.008706727
157	0x3c047cdf	0.008086412
158	0x3b969155	0.0045949616
159	0xbc96e931	-0.018421741
160	0xb8be141b	-9.063651e-05
161	0x3c34d758	0.01103767
162	0x3be70a53	0.0070507913
163	0xbaf96a3b	-0.0019028852
164	0xbb267151	-0.0025397132
165	0x3c0160f7	0.007896653
166	0x3bb7ac93	0.0056052892
167	0xbc598bb3	-0.013277936
168	0xba3252c6	-0.00068024953
169	0x3a082e5c	0.00051948964
170	0xbbf3aa94	-0.007436106
171	0xbbe43e10	-0.0069654062
172	0x3bb10551	0.005402245
173	0x3cbfed0f	0.023428468
174	0xbc14d2b1	-0.009083436
175	0xbc5e2799	-0.0135592455
176	0x3c103ce7	0.008803583
177	0xbbcbbc3f	-0.006217509
178	0xbb844bc1	-0.004037351
179	0xbc3f25df	-0.011666744
180	0x3985082e	0.0002537383
181	0x3c859e86	0.016310941
182	0x3bf11d5f	0.0073582376
183	0xb9c0b554	-0.00036756194
184	0x3c062586	0.008187657
185	0x3b9863d2	0.0046505714
186	0xbc2d0936	-0.010561278
187	0x3bd54236	0.006508137
188	0x3b9e53d6	0.0048317714
189	0xbc3dffd5	-0.01159664
190	0xbc29828d	-0.010346067
191	0x3b8b6345	0.004253777
192	0xbb1f3b49	-0.0024296811
193	0x3be89f50	0.0070990697
194	0x3c00dae0	0.007864684
195	0xbbab90eb	-0.0052357814
196	0x3bc2f1a5	0.0059492164
197	0x3c8bf43b	0.017084232
198	0xbc0ef36c	-0.0087250285
199	0xbc0d1a78	-0.008612268
200	0xbc0d5269	-0.008625605
201	0xbbddf6e4	-0.0067738164
202	0x3a8c751b	0.0010716052
203	0x3a7b8949	0.0009595347
204	0xba2d54dd	-0.0006612072
205	0x3cce6ec5	0.025199303
206	0xbc1364da	-0.008996213
207	0xbb3bda4a	-0.0028664046
208	0xbb75bcc4	-0.0037496546
209	0xbc30f5a9	-0.010800757
210	0x3bf147a3	0.007363276
211	0x3c0182f0	0.007904753
212	0xbb46f37d	-0.0030357533
213	0xbbcf7aef	-0.0063317935
214	0xbba3bbaf	-0.004996739
215	0x3c120899	0.008913183
216	0xbb00731f	-0.0019599868
217	0xbc7807a7	-0.015138543
218	0x3b8741af	0.004127703
219	0x3a4f3a0f	0.0007905075
220	0x3ad5f456	0.0016323428
221	0x37b2d304	2.1317515e-05
222	0xbc175a82	-0.009237887
223	0x3bcc1227	0.00622775
224	0x3cdca30e	0.02693322
225	0xbb877d12	-0.0041347826
226	0xbc0184e2	-0.007905217
227	0xbb56b650	-0.0032762475
228	0x3a0619da	0.00051155465
229	0x3bc5e8b8	0.006039705
230	0xb893e119	-7.051434e-05
231	0x391953b8	0.00014622405
232	0xbb021c46	-0.0019853278
233	0xbc970d37	-0.018438919
234	0xbb8d8cae	-0.004319749
235	0xba60a705	-0.000856981
236	0xbbd62c63	-0.006536053
237	0xbbb6f2b3	-0.005583131
238	0xbb98e257	-0.0046656537
239	0xbb9ec9c5	-0.00484583
240	0x3bee0ac5	0.0072644674
241	0x3ccd2cc9	0.02504577
242	0x3b99e78c	0.004696792
243	0xbb9a3a5c	-0.004706664
244	0xbcc71062	-0.024299804
245	0xb805b480	-3.1877775e-05
246	0xbb5c8e59	-0.0033654182
247	0x3c2cd657	0.0105491495
248	0x3c3b35e2	0.011426421
249	0x3c4cc569	0.012498238
250	0x3c2d041d	0.010560063
251	0xbc8988dc	-0.016788892
252	0xbb821abf	-0.0039704735
253	0x3ba1e677	0.0049408036
254	0x3c000c54	0.007815439
255	0xbc65cabe	-0.014025388

fc.bias f4 [15]
0	0xbcaf1266	-0.021371078
1	0x3c575836	0.01314359
2	0x3d05a3d9	0.03262696
3	0xba88e9f9	-0.0010445706
4	0xbcb11980	-0.021618605
5	0x3bb8ae48	0.0056360103
6	0xbc52f7e1	-0.012876482
7	0xbc402c0e	-0.011729253
8	0x3c280c0d	0.010256779
9	0x3cd62b53	0.026143705
10	0x3bf1878e	0.0073708957
11	0xbc543487	-0.012951977
12	0x39c7bde3	0.00038097714
13	0xbd018c50	-0.031627953
14	0x3c90adb7	0.017660959
