models/augmentedKernel.pth (torch, 349920 bytes, 8 tensors)

conv1.weight f4 [8, 3, 3, 3]
00000000: da0f 79be d9e0 773e 8c12 3fbd 8387 94bd
00000010: 4619 a83e bc0c 17be af83 903c e725 ef3d
00000020: 0ac5 69be 3b13 17be bbb8 9e3e 17b5 f8bd
00000030: 1fd9 3abd b67b 963e dd9f 543d 616a 0ebe
00000040: ccdb 86bd 27d2 533d a789 e6bd 1573 083e
00000050: 50cf cdbd eca4 b33c a0fe a63e f1e2 d2bd
00000060: edd0 263d 458b 523d d853 e1bd f1bc 083d
00000070: cf58 773c 3e89 60be 05bf d5bd 7970 033e
00000080: 1ce1 b53d f699 36be 2c7e 0d3e c160 5cbe
00000090: 76f0 3abe 5be8 1dbe 1d2c ce3d 548d 18be
000000a0: 0fa7 82bc 24c4 5cbd d18a 723d 1e49 8ebc
000000b0: fe5e 883d 8af1 90bd 9826 293e 52bf 9dbd
000000c0: d012 3bbe 4ee9 db3d 2247 773d 0d05 f03d
000000d0: 7c7f 323c f4d8 a4bb 042a a5bd 02fe b8bc
000000e0: 889f 3ebe c688 513d 716e 17bc 40ac 2ebe
000000f0: a823 45bd b14a 8fbd 7071 13bd 0eea a13d
00000100: c946 0dbd 840a 26be b8b6 583c 563a c33d
00000110: babb 13be 7e36 fbbd 16a0 c83c 544c cabd
00000120: aea7 c63b bb78 a7bd 89ac 97bd 0639 d7bc
00000130: 360a 8a3d c5b1 26be 081a 53bd e74c 0a3e
00000140: ccc3 1d3b 0c59 e2bc e8dd 33bd 01b2 23be
00000150: d9c9 9f3d 78e9 133e c9a3 173c d06d 6a3d
00000160: 059f fb3d a74f ee3d 3a83 95bd f037 1cbe
00000170: 9eb1 ff3d 2009 78bd 7bff b2bd 34ba a7bd
00000180: 5ed1 a83a 8567 e2bb 006d 62be 0860 e7bd
00000190: 7e72 18be 3c39 8c3d 43a2 68be f079 1dbe
000001a0: 414b 7f3d d708 fc3b 0afe 3fbe 1ae0 81bd
000001b0: 63c6 97bd 15c6 1c3e 96f5 b8bd dc8c cb3d
000001c0: 52e0 24be eabf 17bd d214 b1bd eba3 dc3c
000001d0: 8db7 47be 632b 133e 6948 2fbe a3e5 e83c
000001e0: 56cd 953c 4218 fc3c 5667 4d3d 994a 123d
000001f0: 927c 933d 70b8 803d fd20 5b3d 8851 22be
00000200: 28e8 10be 97a4 313d 33ef 65bd 66a9 93bc
00000210: 7acb 2e3e af5e ebbd f464 3cbe 3ae2 703d
00000220: 31a9 38bc ad53 dabc 20dc cebd 2eac 963c
00000230: 6eac 59be d0e0 043d 9e7d 263e adca 883c
00000240: 889a e8bd e656 0d3d 86f7 af3d 369a c8ba
00000250: a1e3 e03d f084 3fbe 00e4 963d 895a c73d
00000260: 5f19 703d 202f b7bd 5ba7 113e 264b 57be
00000270: a155 9bbd 6ba1 173e 36cc 21be 142e a03d
00000280: 2039 d7bd 8915 6bbd b9a3 99be 3c34 da3c
00000290: 91a8 88bd 304c e03d 5a3c 3cbe 32df d2bc
000002a0: ddf7 843e 3118 723e a3b8 363e e8e7 88be
000002b0: e1a3 5bbe d405 88bd a736 3fbe e682 05be
000002c0: a013 a03c 5b89 4b3d 14f9 6cbd bce8 b13e
000002d0: 0eee 88be 1260 4cbe 44e4 8d3d c061 423d
000002e0: 484c 1fbd db32 3abc 124d 2f3e 476d 883e
000002f0: 8b02 343e b686 16be 2c4e 2fbe 608c dfbd
00000300: 4e63 f93d b3a9 8f3d 967d 9e3d b5be d23d
00000310: d75c c6bd 4921 3e3e c3f0 2abe 7a4a d0bd
00000320: 5071 24be 4682 353e 1714 acbd 517c 093e
00000330: 978f 033e 04b8 223e a478 303a 996f debd
00000340: 3be7 f9bc 21ef 88bc fd3c ed3d 5bc6 a83c
00000350: c423 a13d 7d71 9dbd 36df b2bd 30ea fbbd
-0.24322453 0.24206866 -0.046648547 -0.07252409 0.32831782 -0.14750952 0.017640917 0.11677151
-0.2282907 -0.1475343 0.31000313 -0.12143915 -0.04561722 0.2939126 0.05191027 -0.13907768
-0.06584892 0.05171409 -0.11256724 0.1332515 -0.10049307 0.021929227 0.32616138 -0.10297192
0.04072659 0.05140235 -0.1100232 0.033383314 0.015096857 -0.21927354 -0.10436825 0.12835874
0.08880827 -0.17832169 0.13817662 -0.21521284 -0.18255791 -0.15420668 0.10067008 -0.14897662
-0.0159488 -0.05389799 0.059214417 -0.01736885 0.06658743 -0.0707732 0.16518629 -0.07702507
-0.18268895 0.10737859 0.060370572 0.11719713 0.010894652 -0.0050307456 -0.080646545 -0.022582058
-0.18615544 0.051155828 -0.00924264 -0.17057896 -0.048129708 -0.06996668 -0.035996854 0.079059705
-0.034491334 -0.16214949 0.013227157 0.09532611 -0.14427081 -0.12266253 0.024490397 -0.0987784
0.0060624694 -0.081773244 -0.07405955 -0.026272308 0.06740229 -0.16278751 -0.051538497 0.13505898
0.0024073003 -0.027630351 -0.0439128 -0.15985872 0.07802171 0.1444453 0.009255358 0.05723363
0.1228619 0.11636286 -0.0730042 -0.15255713 0.1248505 -0.060555577 -0.08740135 -0.08189812
0.0012879779 -0.006909313 -0.22111893 -0.112976134 -0.14887425 0.06846854 -0.22718148 -0.15378547
0.062327627 0.0076914835 -0.18749252 -0.06341572 -0.07410886 0.15309937 -0.09031217 0.09938976
-0.16101196 -0.037048258 -0.08646549 0.02693363 -0.19503613 0.1437202 -0.17117466 0.028429812
0.018286388 0.030773286 0.050147377 0.035715673 0.07201494 0.06285179 0.053498257 -0.15851414
-0.1415106 0.043369856 -0.05613632 -0.018025111 0.17069808 -0.11492669 -0.18397886 0.058809496
-0.011270807 -0.026651228 -0.10100579 0.018392649 -0.21257183 0.03244096 0.16258857 0.016698206
-0.113575995 0.0345067 0.08592133 -0.0015304748 0.10980917 -0.18703055 0.07367706 0.09734065
0.058617946 -0.08944535 0.14223997 -0.2102476 -0.07584692 0.1480767 -0.15800557 0.07821289
-0.105089426 -0.057393584 -0.30007723 0.026636235 -0.066727765 0.109520316 -0.18382397 -0.025741193
0.25970355 0.23642041 0.17843871 -0.2673943 -0.21449234 -0.066417366 -0.18673192 -0.13038215
0.019540608 0.04969154 -0.057854727 0.34747875 -0.2674412 -0.19958523 0.06928304 0.047456503
-0.038891107 -0.011364664 0.17119244 0.26645872 0.17579095 -0.14699826 -0.17119664 -0.10915446
0.12177144 0.070147894 0.07738797 0.10290281 -0.096856765 0.18567385 -0.16693406 -0.10170455
-0.1605885 0.17725477 -0.08402269 0.13426329 0.12847744 0.15890509 0.0006731844 -0.10861129
-0.030505767 -0.016715588 0.11583898 0.020602396 0.0786815 -0.07687662 -0.0873398 -0.12300527

conv1.bias f4 [8]
00000000: e56b 2cbe 328d f8bc 06ca f2bd ceaf 1abe
00000010: 0c3e 2d3e 13fd 0a3e e1e5 b8bd 5b83 9d3d
-0.16838033 -0.030340765 -0.11854939 -0.15106127 0.169182 0.13573103 -0.09028221 0.0769107

conv2.weight f4 [16, 8, 5, 5]
00000000: 6094 bc3d 8c46 153d 352f 323d 657c 2e3d
00000010: cba9 a83d 0ad2 763c 163f 843d b541 85bd
00000020: 3153 a2bc 6d7c 7c3d ba57 3ebd f793 58bd
00000030: ffeb 8fbd da11 2c3d b0e7 65bd aee4 8cbd
00000040: d750 b33c 651a 12bd f779 c1bd 6e9b 0cbc
00000050: df51 503c 6d1a 9ebd 9851 91bd b0cc 2f3c
00000060: 509b 703d 304f 80bb 4612 8fbd 3759 c3bc
00000070: 49df 4cbd 69cb 92bb 39c6 863d 0f90 0d3c
00000080: e469 39bd 3f90 5bbc 136c 8bbd 0b73 0b3d
00000090: 59f5 fa3c 9105 1b3d d0f3 9dbc 159e d5bb
000000a0: 15ba 463d 21d4 2cbd 0bf3 043d e988 813d
000000b0: 4b2c 37bd ec70 4b3d 76e7 8ebd 463b 47bd
000000c0: 8469 fe3c 69d5 86bd 9227 873d 533e 3b3d
000000d0: ec22 1f3c 4385 0b3c 6cef 003d d669 333d
000000e0: dcde 4bbd c81d b3bc f57b 1a3d 0fb0 37bc
000000f0: 565b f73c dde5 7dbd cdba 3c3c 06d8 06bc
00000100: c808 663d 4a21 b13c 655d 6839 21e8 d43b
00000110: a5e0 703d f3a8 173d 81f8 22bd bacc 9d3c
00000120: b37f 903d 7ca7 10bd 0173 36bd 3e6a 2a3b
00000130: d88f 9c3c c212 7bbd 6706 473d c8df 8f3c
00000140: 893c 79bd 8a5b 8f3b 7cbb 00bd 91b5 7dbd
00000150: be6c ca3b e62b e4bc ef78 3ebb 3907 d23c
00000160: e87e cbbc 3d1c 0a3d 49a8 85bb 7a5a 71bc
00000170: 7c59 69bd d8f2 7f3d 37b2 023d d898 56bd
00000180: d3ef 633d d9ba 7d3d 3ecb 6139 52f4 5fbc
00000190: c030 4ebb fb4e 26bd d38a 19bc 35d6 283d
000001a0: 9198 97bb 26b0 63bc b6bf 47bd 2f4d b03c
000001b0: 0596 5c3d 51f5 523d f70c 4a3d 9177 74bd
000001c0: 2299 533d e077 343d 77fd 00bb 45c6 35bc
000001d0: 8fae ceba 40c9 56bd a3fa 10bd 6f1b 68bd
000001e0: 691f 903d 3813 663d 7676 f23c b6c6 73bd
000001f0: 19e3 763c a69e 0d3d 77e9 6e3d e542 79bd
00000200: 720b e33b aac6 683d 1a05 83bd 45bf 31bd
00000210: 92a7 36bd 66cc 213d 2ac9 5bbc 3873 37bd
00000220: 94f0 f33c 5ab5 3dbd a6e8 9cbc be2e 7abd
00000230: 2240 44bd d1e2 b23c 93fe d33c 2ce3 443c
00000240: 3523 6e3d 964a 1dbd f810 043c a6fb 573d
00000250: df15 bcbc 89e2 333d 6fe6 013e aab3 cf3d
00000260: f409 493c b374 d2bc 6885 97bc 59a0 acbd
00000270: bbd9 4dbd 8270 5bbd 5472 91bd d787 b1bd
00000280: a93a 87bd 5be5 0abd 3041 3abd e927 97bd
00000290: 248f 94bd 0f56 ec3c 5e7c 89bd 9581 223d
000002a0: 9505 e03c 8ba8 7b3d cdb9 693d 7426 893a
000002b0: 0e09 d2bc b5a3 623d 84ea 17bd 8102 293d
000002c0: 908b c63c 5006 c93b 2f3d 0fbd 820c debc
000002d0: dfb0 d93c ff36 88bd 2e5b b13b 5723 81bd
000002e0: 1576 42bd 95b6 6abd f825 c9bc ccc9 a1bc
000002f0: 6e63 9ebc 29d0 49bd 20b0 453d c3ad 283d
00000300: 4e28 8e3d 27d9 823d e162 9e3c 4b2f 1f3d
00000310: 1baf b43c 5482 5e3b 14c5 f0bc 6767 62bc
00000320: 0100 9dbd eda3 87bc 34ae 85bd d8ea 95bd
00000330: cfcf f53c 8630 393d b942 58bd 4577 343d
00000340: 0814 3b3c 3a97 42bd 8c14 54bd a3f8 053d
00000350: 8d6b 7b3d 4680 a63c aef6 30bd 6d39 30bd
00000360: dd0b 293d 6822 6f3d 4e38 88bd 6a47 9abc
00000370: 33a9 7d3c baac b13d d847 11bd 4acf 5b3d
00000380: 4552 513d c3b1 84bc 592d 4fbd 2900 c0bc
00000390: 4ee2 fd3c 63ac f43c 771f 5dbd da02 a0bc
000003a0: 6e06 f9bc 6f48 883c 02f2 633d 4bf6 553c
000003b0: f29e 2b3b 2061 64bd c44d 89bc 6cad ec3c
000003c0: c4ab ecbb 63f9 b7bc 3656 5c3d 2091 1abd
000003d0: 4732 a1bd d1d8 1c3d a339 9dbd cf73 153d
000003e0: 7ba8 523c 9dcf 29bc f0e7 f6bc 0b82 673d
000003f0: 25a0 3bbc 40d1 06bd 979b 4ebd b53b 50bd
0.09207988 0.036444232 0.04350205 0.0425991 0.082355104 0.015064726 0.06457345 -0.06506673
-0.01981506 0.0616421 -0.04647038 -0.052875485 -0.070274346 0.042009212 -0.056129158 -0.06879555
0.021889133 -0.035669703 -0.09447091 -0.008581979 0.012714832 -0.07719884 -0.07095641 0.010729954
0.058741868 -0.00391569 -0.06985907 -0.023846252 -0.05001763 -0.004479815 0.06580777 0.008640303
-0.045267 -0.01340109 -0.06807723 0.03404526 0.030634569 0.037847105 -0.019281298 -0.006519089
0.048517305 -0.04219449 0.032458346 0.06324942 -0.044719975 0.049668238 -0.069777414 -0.048640512
0.031056173 -0.065836735 0.06599344 0.045713734 0.009712916 0.008515659 0.03147833 0.043802105
-0.049773082 -0.021864787 0.03771587 -0.011211409 0.03019492 -0.061986793 0.011519146 -0.008230215
0.05616072 0.021622319 0.00022160036 0.0064973985 0.058807988 0.037026357 -0.039787773 0.01926266
0.07055607 -0.035315976 -0.04454327 0.0026003267 0.019111559 -0.061297186 0.04859009 0.017562762
-0.060848746 0.004374926 -0.0314288 -0.061940733 0.006177514 -0.027852964 -0.0029063781 0.02563821
-0.024840787 0.033718336 -0.004078899 -0.014731044 -0.056970105 0.062487453 0.03190824 -0.052391857
0.055648636 0.06194577 0.00021533386 -0.01366909 -0.0031462163 -0.040602665 -0.009371477 0.04121991
-0.0046263416 -0.0138969775 -0.048766814 0.021521179 0.053854007 0.051503483 0.04932877 -0.05968434
0.05165971 0.044059634 -0.0019682327 -0.011094634 -0.0015768575 -0.05243802 -0.035395276 -0.056666788
0.07037241 0.056170672 0.029597502 -0.059515677 0.015068793 0.034575127 0.05832812 -0.06085481
0.0069288546 0.056830086 -0.063974574 -0.0433953 -0.0445934 0.03950157 -0.0134146605 -0.044787616
0.029777803 -0.04631553 -0.019153904 -0.061079733 -0.047912724 0.02183667 0.025878226 0.012017053
0.058139045 -0.03840121 0.008060686 0.052730225 -0.022959648 0.043917213 0.1268556 0.1014169
0.012270439 -0.025690412 -0.01849623 -0.084290214 -0.050256472 -0.053574093 -0.071018845 -0.086684875
-0.066029854 -0.033910137 -0.045472324 -0.07380659 -0.072538644 0.02884963 -0.06713174 0.03967436
0.027346412 0.061440032 0.05706196 0.001046373 -0.025639083 0.055331904 -0.037088886 0.041262154
0.02423647 0.0061347857 -0.03497046 -0.027105574 0.026573597 -0.06651115 0.005412481 -0.06305569
-0.047475893 -0.05730303 -0.024554238 -0.019749545 -0.019334521 -0.049270783 0.04826367 0.041181337
0.06941281 0.06389075 0.019334259 0.03886346 0.022056153 0.0033952193 -0.02939085 -0.013818598
-0.07666016 -0.016557658 -0.06527367 -0.073201835 0.030006317 0.04521229 -0.052798007 0.044059057
0.01141835 -0.047507502 -0.051777408 0.03270782 0.061381865 0.020324837 -0.043204002 -0.043023515
0.04127108 0.05838242 -0.06651364 -0.018832881 0.015482235 0.08675523 -0.035468906 0.053664483
0.05110385 -0.016198045 -0.050580356 -0.023437576 0.0309917 0.029867357 -0.053985085 -0.01953261
-0.030398574 0.016636102 0.05565072 0.013059209 0.0026187268 -0.055756688 -0.016760714 0.028891288
-0.0072226245 -0.022457784 0.053793155 -0.03773606 -0.07870918 0.03829271 -0.07677009 0.036487397
0.012857552 -0.01036444 -0.030139893 0.056520503 -0.011451756 -0.0329144 -0.05044135 -0.05083819

conv2.bias f4 [16]
00000000: 2fb0 86bd bc22 d33c 9184 2dbd 693a 94bd
00000010: 917c 4ebc 7ecf 2b3d cafd 683d cd5c 593c
00000020: 0a56 b33a 6163 633c 8cab 723d 1924 2cbd
00000030: a2b7 72bc f236 453c cacf 3ebd fa8b 073b
-0.06576573 0.025773399 -0.042362753 -0.07237703 -0.012602941 0.041945927 0.056882657 0.013266754
0.0013682258 0.013878674 0.05924563 -0.042026613 -0.014814289 0.012037026 -0.04658488 0.0020682798

conv3.weight f4 [32, 16, 7, 7]
00000000: 58fa 69bc 416d 703c 2d82 023d d849 d7bb
00000010: 14b5 b23c 3a2d a8bb 1378 af3c 3277 3e3c
00000020: 47b9 06bb b97c f43b 3553 f33c 8414 b33c
00000030: 94d7 823c f9d6 3f3c 890f 8f3b d2e7 f43c
00000040: 37a3 c53c a143 ee3b 11a8 cf3c 7d73 bfbb
00000050: b311 cabb 31e6 14bc 0a8e a43c 74ca 133c
00000060: e648 16bd 0ffa c83c 2cbd febc c9bf 863b
00000070: 6ce7 2ab9 ab72 16bd d929 133c e12f fd3c
00000080: 03c7 b13c ddf6 11bd 60c4 e1bc 20e6 35bc
00000090: 8277 0a3c 53e9 153b 3db0 883c b634 2f3c
000000a0: c330 af39 1365 e7bc 04d2 0ebc aca3 c43c
000000b0: 4115 91bc 5ba7 47bc e0bf f33b 575b 2a3c
000000c0: 405c ca3c d275 48bc ade4 99bc 10ea cf3c
000000d0: ce1b 813c f4f8 a13c bcad 05bc ca76 e7bb
000000e0: 2103 c5bc 4a79 bf3c 5331 e93c 22db 8e3c
000000f0: 6de3 7abb 5f08 1cbd f8a6 8e3c 7e90 0abd
00000100: 9307 d9bc 610d f1bc df3e 4a3c ed10 ccbc
00000110: 1462 e7bb e0e5 ffbc 3889 20bd f510 41bc
00000120: f208 c23c c1a1 ebbb 041f 813c 4843 a0bc
00000130: 1f0e 7038 6433 af3c 7792 01bb cac4 50bc
00000140: 5114 a03c bb13 6fbc cea7 d6bc bb73 babc
00000150: 1b2f 203c 275f a2ba a7b3 55bc d42f 2bbd
00000160: de30 27bd 8bdc ccbc 2442 1a3b 9a99 e93b
00000170: 557d efbc 049f b43c 65a9 1e3a 4b53 273c
00000180: da96 27bd 520f 533c b15c e2bb 7b19 87bc
00000190: 1003 33bb df65 35bd 0c27 88bc 1db9 babc
000001a0: 8290 13bd 71a3 1fbd 2d84 3dbd a3e8 503c
000001b0: 2d98 8cbb d1e2 abbc 6b0f d3bc d0c5 87bc
000001c0: f923 a5bc 17af 1a3c c819 a23c 8780 3ebc
000001d0: 4c92 c5bc 6b26 23bc acd8 583c 0c4e a83c
000001e0: b78b 07bc 1dab 37bd 9434 d1ba a705 9dbc
000001f0: e41c 15bd 255e 35bd 41fe 8cbc 39c3 11bd
00000200: c60f dbbc 99e3 873b 1dc7 823a 3450 e8ba
00000210: 9d42 b23c 96eb e3bc 4fa2 9bbc cd16 b53b
00000220: fdf9 cfbc dbf2 d5b9 a355 a23c 93b9 503c
00000230: 6552 7fbc 01a7 ef3b 0406 c4bc a161 c4bc
00000240: c2b6 3abd b7ca 793c 274e 9fbc 9d4a e1bb
00000250: 2347 edbc ba5a d3ba b9de 1cbd 23e5 9bbb
00000260: cfb6 763c 2852 69bb 5f4e 02bd 21d6 dfbc
00000270: e638 25bc 6017 00bd 4521 63bb d6f8 14bd
00000280: 42bc 0d3c cfc6 15bd 7451 deb9 baaf 04bd
00000290: 9f83 edbc cda6 0b3c fd07 01bd b477 dabc
000002a0: df94 86bb bcb9 02bd 7387 b93c 76a9 1dbd
000002b0: c7da 9d3c 6237 f13c 8889 bc3c 6366 9a3c
000002c0: e4b2 d73b 2dcf 25bd 01f0 dbbc d788 a13b
000002d0: 90d1 cabc a635 8f3c 17e6 82ba 6965 bc3c
000002e0: 31a2 683b 95c7 c2bc eebb b3bc c5f7 81bc
000002f0: 0bf9 f23b a247 03bd 6e7c abbc c72c c93c
00000300: c1d0 f33c fa3d f6bc 0486 75bc 6933 f03c
00000310: cb26 04bc e7c3 9a3b 887c 203c b70e 7fbc
00000320: 1933 fbbb 6efb 1dbc 055b 0a3d ec71 e9bb
00000330: acf4 8bbc 488a 06bd be7e acbb 4661 8f3c
00000340: 395c a3bc 40fd 76bc ec1c fd3c de2e 25bd
00000350: 9cbc 163c cf00 253c e4fa 7cbc 8bed 9a3c
00000360: 0808 0fbd 97a7 19bc 318d 323b 1108 553c
00000370: 9a93 193c 0670 903b 341e cebc cd32 d2bc
00000380: 8da6 2dbc 7575 a9bb dc1e cebc d3d3 88bc
00000390: 64bd 75bc 81d0 d6bc e52e f23c 34b6 873c
000003a0: bacc acbc d12d 9d3c fc45 88bc 5a43 35bc
000003b0: c28e f5bc 8ca2 d6bc d8a0 11bd b7e9 b1bb
000003c0: 82aa f1bc 1fa0 893c dc1f dc3c 28ad fbbc
000003d0: 8da0 80bc 3631 a03c 933e 9c3c 2e32 4bbc
000003e0: 208a f83c 393e c13c 944f 7cbb 234f 76bc
000003f0: cf14 f73c 7eb4 513c 1d77 713c d500 33bc
-0.014280878 0.014674486 0.031862427 -0.006570082 0.02181486 -0.0051323446 0.02141956 0.011625098
-0.0020557211 0.007461157 0.029702762 0.021860369 0.015971936 0.011708968 0.0043658656 0.029895697
0.024125678 0.0072712456 0.025348695 -0.0058426247 -0.0061666607 -0.009088085 0.02008726 0.009020437
-0.036690615 0.0245333 -0.031096064 0.004112218 -0.00016298675 -0.03673045 0.008982145 0.03090662
0.021701341 -0.035635818 -0.02755946 -0.011102229 0.008451344 0.0022874668 0.0166856 0.01069372
0.0003341493 -0.028246438 -0.008717064 0.024003826 -0.01771033 -0.012185897 0.0074386448 0.010397754
0.024702191 -0.012235122 -0.018785799 0.025380164 0.015760329 0.01977203 -0.008159097 -0.0070637213
-0.024049344 0.023373265 0.028465902 0.017438475 -0.003828253 -0.03809392 0.017413601 -0.033829205
-0.02649287 -0.029425325 0.012344091 -0.024910415 -0.0070612524 -0.031237543 -0.039193362 -0.011783828
0.023685906 -0.0071909134 0.01576186 -0.019563332 5.723361e-05 0.02138681 -0.0019771138 -0.012742231
0.019540938 -0.014592106 -0.026203062 -0.022760263 0.009776856 -0.0012387977 -0.013043321 -0.04179366
-0.040818088 -0.025007507 0.0023537958 0.0071289064 -0.029234568 0.02204848 0.00060524634 0.01021273
-0.040915348 0.012882071 -0.0069080223 -0.016491642 -0.0027315058 -0.044286605 -0.016620182 -0.022793347
-0.036026485 -0.03897423 -0.04626863 0.012750777 -0.0042906017 -0.020982178 -0.025764188 -0.016573817
-0.020158755 0.009441159 0.019787684 -0.011627323 -0.024117611 -0.00995789 0.013235252 0.020545028
-0.008273057 -0.04484092 -0.0015961104 -0.019167734 -0.036404505 -0.044279236 -0.017211081 -0.03558657
-0.02674092 0.004147005 0.0009977553 -0.0017724098 0.02176028 -0.027822297 -0.018998293 0.0055263997
-0.025387758 -0.00040807467 0.019816225 0.012739557 -0.015583609 0.0073136096 -0.02392865 -0.023972334
-0.045584448 0.015246085 -0.019446446 -0.0068753497 -0.028964585 -0.0016125061 -0.038298342 -0.00475754
0.015058233 -0.0035601947 -0.03181302 -0.027323784 -0.010084366 -0.031272292 -0.0034657281 -0.03637012
0.008650841 -0.03656655 -0.00042403827 -0.03239415 -0.028993426 0.008523655 -0.03150176 -0.026668407
-0.0041071023 -0.03191541 0.022647595 -0.03849169 0.01926936 0.029445354 0.023014799 0.01884765
0.0065826047 -0.04048078 -0.026847841 0.0049296427 -0.02475813 0.017481636 -0.0009986785 0.022997575
0.0035497064 -0.023776809 -0.021940198 -0.015865216 0.007414942 -0.032050736 -0.020933356 0.024557484
0.029762628 -0.03005885 -0.014985565 0.02932139 -0.00806589 0.0047230604 0.009795316 -0.015567473
-0.0076660034 -0.009642465 0.03377821 -0.0071241762 -0.017084442 -0.03284672 -0.0052641323 0.017502438
-0.019941436 -0.015075028 0.03089758 -0.0403279 0.009200241 0.010070994 -0.015440676 0.018912097
-0.03491977 -0.009378335 0.0027244801 0.013002411 0.00937357 0.0044078855 -0.025160886 -0.02565899
-0.010598791 -0.0051714727 -0.0251612 -0.016702568 -0.0149987675 -0.02622247 0.029563377 0.016566373
-0.021093715 0.019186886 -0.016634934 -0.011063421 -0.029975299 -0.026200555 -0.035553783 -0.0054294723
-0.02950025 0.016799984 0.02687066 -0.030722216 -0.015701557 0.019554716 0.019072806 -0.0124021005
0.0303393 0.02358924 -0.003849958 -0.015033516 0.03016129 0.01279938 0.0147378715 -0.010925491

conv3.bias f4 [32]
00000000: 7bab b1bb 9971 933a 0e52 a03c 8b4d a0bc
00000010: 4751 89bc f907 743c 2977 193c 70a6 043d
00000020: d18f 05bd 0e34 f23c e30a 19bd d296 fcbb
00000030: aef1 89bc 1904 2a3c 42e2 d3bb 3bd5 833c
00000040: a7f9 08bc efbd b4bc d429 fb3b 6c03 f63b
00000050: 377d 9a3c 02b8 61bb b7c6 7e3c ed99 b1bc
00000060: bbec f73c 9fce 213d e348 a3bb 700f 10bc
00000070: eefb afbc 505f 673b 667d efbc f4f8 4c3c
-0.0054220534 0.0011249065 0.019570377 -0.019568225 -0.016762389 0.014894479 0.009366789 0.03238529
-0.032607857 0.029565837 -0.037363898 -0.007708409 -0.016838875 0.0103769535 -0.006466181 0.016092887
-0.008360303 -0.022063224 0.0076648984 0.007507732 0.018858535 -0.0034441953 0.015550307 -0.021679843
0.03026425 0.03950369 -0.004983054 -0.008792743 -0.021482434 0.0035304613 -0.0292346 0.012510527

fc.weight f4 [15, 3872]
00000000: 56ac 1d3c c5bb 5a3c d408 783c a9af df39
00000010: 0f49 39bc e4f6 1a3c b5ea 813b 7501 2fbc
00000020: 5ce5 dc3b f356 afbb 3838 493a c50c 103c
00000030: f893 abbb d906 6c3c 3d30 85bb 2d3a 02bb
00000040: 3744 66bb b75b e83b 371d 6a3c fdc0 26bc
00000050: b3f9 8e39 030b 613a fcf5 f4bb 07e1 123c
00000060: 7966 0dbc 5249 ee3b eebe 8b3c 4444 ef3b
00000070: 1120 c33b 4c5f 97bb cd10 7f3c 1b5f 57bc
00000080: f4fb 02bc 2038 28bc c180 48bc 4fe6 a0bb
00000090: 689a 1c3c ddbb 64bc 0a59 cfbb a7c9 6ebc
000000a0: 3ff7 1dbb cdb2 31bc 6c26 593b 2e9e 863a
000000b0: f68b d73b 1688 7a3c 2e0a 3a3c df78 903c
000000c0: 2233 1bbc fe59 683c 652f 0a3c 736a c6bb
000000d0: 66d4 153c ddec dabb a37e 623c eec9 a73b
000000e0: 1969 8a3c f8b6 9db7 80aa 57bb bd15 19bc
000000f0: 8a6e f3bb ac1b 203b 6fa6 be3b 08d5 413c
00000100: 34d0 aabb e05c 38bc 5175 c13b 5779 10bc
00000110: 4820 293c f0b9 6fba c4f0 27bc 3f78 8c3b
00000120: 18e1 823b 47ae 2bbc 82d2 633c 11bf cf3b
00000130: 11ed 4f3c c4fd a93b c25b 253c 7551 213b
00000140: a312 00bc 534f 963c e032 50ba f5c4 1a3c
00000150: f8fb e5bb 0ddf c43a 2809 b5ba c4d1 23bc
00000160: 3e36 cf3b 0aaa 29bc 5ccf 243c 96f2 33bc
00000170: e714 4fbc 6527 d83b ee4d 143b 0fe5 24bb
00000180: a4a9 8fba cbf5 863c 47ff c3bb 382a 90bb
00000190: 3c99 333c 3429 6538 b455 02bc dad4 a6bb
000001a0: c034 293c 0137 1fbb b478 403c d27d 39bc
000001b0: eac9 3b3c b16b 18bc 5496 86bb 4c71 4abc
000001c0: 4916 4abc 4c82 3cbb 91c9 19bc c408 1a3c
000001d0: e25a c93b 79c4 903b 0502 f03b 7bbb 40bc
000001e0: 835e 86b8 ca7f 103c 7df5 2f3c 164c 72bc
000001f0: 2355 8ebc 1689 e83b d146 abbb f6f8 85bc
00000200: c4a6 293c a8b1 cfb9 f5ab 93bb f22e 94bc
00000210: 0b9c b7bb 5ae1 3fbc ae21 543a 701e ddba
00000220: 4642 403c 8ab9 ecbb a637 42bb cb2c 103b
00000230: 3068 b13c b131 23bc 49ae 0fbc b42e 833c
00000240: 1179 1dbc d11b 0d3c 0703 25bc 007b 433c
00000250: d99c 0bbc dcc5 45bb 365c 0ebb 192a 003a
00000260: 747f 90bc fc80 c33b 2526 1d3c 9ab1 3cbc
00000270: e151 93bb 3bb5 313b 8ada 5d3c 3675 93bb
00000280: 0de8 87bc 3228 63b9 6f16 843c 3451 babc
00000290: c61a a13c 382b 48bb 3e5a 1c3c 5b77 10bc
000002a0: 6e9e 45ba 4aed acbb 08e2 8b3c 9036 8cbc
000002b0: 2dbe c7bb a86e c93b 06a7 a9bb a6fb 833c
000002c0: b331 6c3c 4475 84bc ac8d 573b eb7d 9dbc
000002d0: 5d4c 78bb fa72 023c 9e22 b1bb 157c 94bb
000002e0: 3fce b4bb 259c cdbc ae7c c93c 8440 35bc
000002f0: 3b16 a0bb 7dfc 5d3c e090 c1ba 3b5e fe3b
00000300: d6e3 70bc 8c85 40bc 0752 bfbc 4edf 12ba
00000310: d558 5dbc 9aa1 8d3c 22c9 353c 36c8 e83a
00000320: a1e5 23bc 64c8 efbb ffd0 543c cb50 663c
00000330: 6984 a9bc db2b 1f3b 3d43 5c3c 42a5 3fbb
00000340: 31cf b9bb 156f 9a3c 11cc 193d bd20 593c
00000350: c870 dc3c 9517 30bc e24c 21bc 1faa a23c
00000360: 05fd ea3c 021c 95bb 68d7 5d3b add2 a13c
00000370: e427 a53c 5aa1 5dbb 2898 a73b 196f 043c
00000380: 8c61 643c d8b7 4bbc dde6 033c 89c7 31bc
00000390: 6a09 383c 954e b73c 886c 063d 625f fa3b
000003a0: 9e2b eb3b bccf acba 1f90 8cbc 1889 3cbc
000003b0: b42f c7bb b1dd 2fbb d2b4 333c e96c c1bc
000003c0: 5018 e53c e8b3 533c 64d9 c03b babd ecbc
000003d0: 6661 52bc 3c14 5bbb 3c9a 8e3c 88b9 3cbb
000003e0: eb71 c7b9 8c33 bebb 1486 76bc 3fb9 373b
000003f0: 6792 1cbb 0378 84bb 6ab7 11ba 2f66 f0bb
0.009623608 0.013350432 0.015138824 0.00042664752 -0.011308922 0.009458277 0.003964747 -0.0106815
0.006741209 -0.0053509413 0.0007675919 0.008792107 -0.005236145 0.0144059295 -0.0040645883 -0.0019871101
-0.0035135874 0.0070910114 0.014289192 -0.010177848 0.0002727039 0.000858471 -0.0074756127 0.0089647835
-0.008630388 0.007271924 0.017058816 0.007301839 0.0059547503 -0.0046195146 0.01556797 -0.0131452335
-0.007994641 -0.0102672875 -0.012237729 -0.0049102674 0.009558298 -0.013960806 -0.006327753 -0.014574445
-0.002410367 -0.010845852 0.0033134473 0.001027053 0.006577964 0.0152912345 0.011354966 0.01763576
-0.00947264 0.014181612 0.008434151 -0.00605517 0.009144878 -0.0066810683 0.013824138 0.0051205074
0.016895818 -1.880106e-05 -0.0032908022 -0.009343562 -0.007428949 0.0024430556 0.0058181803 0.011830576
-0.005212808 -0.011252612 0.005903878 -0.008817992 0.010322638 -0.00091448333 -0.010250274 0.0042867954
0.0039941184 -0.010478563 0.013905169 0.0063399156 0.012690798 0.005187722 0.010092678 0.0024615203
-0.007816943 0.018348372 -0.0007942151 0.009446372 -0.0070185624 0.0015020088 -0.0013811933 -0.0099987425
0.006323605 -0.010355482 0.010059204 -0.01098313 -0.012639261 0.006596493 0.0022629458 -0.0025160944
-0.0010960591 0.016474625 -0.005981359 -0.004399564 0.010961827 5.4636228e-05 -0.0079550035 -0.005091292
0.010327518 -0.002429426 0.011747528 -0.011321502 0.011461714 -0.009303019 -0.004107276 -0.012356114
-0.012334415 -0.0028764186 -0.009386436 0.009401504 0.0061448673 0.0044179526 0.0073244595 -0.011763449
-6.407222e-05 0.00881953 0.010739681 -0.014788648 -0.01737458 0.00709642 -0.005226948 -0.016354065
0.010354701 -0.0003961448 -0.004506583 -0.018088792 -0.0056033186 -0.011711443 0.0008092177 -0.0016870033
0.011734551 -0.0072242664 -0.002963522 0.0021999355 0.021656126 -0.009960578 -0.00876958 0.01601348
-0.009611384 0.008612589 -0.010071523 0.011931181 -0.008521282 -0.0030177748 -0.0021722442 0.00048890855
-0.0176389 0.005966304 0.009591614 -0.011516953 -0.0044958447 0.0027116078 0.013540873 -0.0045000566
-0.016590143 -0.00021663381 0.016123978 -0.022743799 0.019666087 -0.0030543339 0.009543 -0.008817519
-0.00075385615 -0.0052773105 0.017075554 -0.017115861 -0.0060956688 0.0061472245 -0.0051773814 0.016111206
0.014416146 -0.016169198 0.003289084 -0.019225081 -0.0037887313 0.007961983 -0.005405738 -0.0045313933
-0.0055177505 -0.02509887 0.024595585 -0.011062745 -0.0048854626 0.013548967 -0.0014767908 0.007762698
-0.014702758 -0.01175059 -0.023354543 -0.0005602733 -0.013509949 0.017288972 0.011095317 0.0017759863
-0.010003478 -0.0073175896 0.012989282 0.0140573485 -0.02069302 0.0024287615 0.013443765 -0.0029242788
-0.005670451 0.018851796 0.03754813 0.013252434 0.026909247 -0.01074781 -0.00984499 0.01985651
0.028685102 -0.004550458 0.0033850316 0.019753778 0.020160623 -0.0033818097 0.005114574 0.008083128
0.013939273 -0.0124339685 0.008050648 -0.010850796 0.011232713 0.022376338 0.032818347 0.007640765
0.0071768304 -0.0013184468 -0.017158566 -0.011507295 -0.0060786847 -0.002683502 0.010968404 -0.023611503
0.027965695 0.012921311 0.00588529 -0.028899062 -0.012840604 -0.0033428809 0.017407529 -0.0028797109
-0.00038041113 -0.0058044847 -0.015046615 0.0028034 -0.0023890974 -0.004042627 -0.0005558642 -0.0073364

fc.bias f4 [15]
00000000: d346 13bc 5bce 483c 7bf0 673c 4a4b aa3c
00000010: 52a1 5cbc 5ca1 eabb c62d bebc 19d4 683a
00000020: 6244 1e3b 15da 963c a2c7 1f3c bbb9 38bc
00000030: 92da 593c fc12 85bc d033 933c
-0.008989054 0.01225623 0.014156456 0.020787854 -0.013466196 -0.007160349 -0.023215186 0.00088817027
0.0024149646 0.018414536 0.009752186 -0.01127475 0.01329674 -0.016244404 0.017969042
