models/baseline.pth (torch, 518860 bytes, 8 tensors)

conv1.weight f4 [8, 3, 3, 3]
000000 a6 52 6a bb d9 ad 56 3c 09 01 54 bc a5 ff f1 3b
       -0.0035754829 0.013102972 -0.0129397 0.0073852115
000010 da 2c b8 3b 68 3a 7b 3c a9 8d f5 3c ad 16 be 3c
       0.005620581 0.015333749 0.029974775 0.023204172
000020 27 10 97 3c a4 56 05 bc 68 18 8c bc d8 b8 a9 bc
       0.01844032 -0.0081383325 -0.017101482 -0.020718023
000030 51 5a cf 3c 89 0f 19 3c 6d c7 c4 3c 65 c1 ee 3c
       0.02531162 0.009342083 0.024020875 0.029144952
000040 99 ed 0f 3d fb 35 f1 3c 71 2e 88 3b 33 99 65 3b
       0.0351387 0.029444685 0.004155927 0.003503394
000050 f5 8e a9 3b 84 24 a7 3b a4 ae 98 3c ca 2d 7b 3c
       0.0051745125 0.0051007885 0.018637963 0.015330741
000060 64 b3 76 3c 52 2b f6 3b 02 16 56 3c f4 4a 3b 3c
       0.0150574185 0.0075124884 0.0130667705 0.011431444
000070 f5 7b 50 3d 70 50 4e 3d fb 19 52 3d 0e a3 97 3d
       0.050899465 0.05036968 0.05129431 0.07404147
000080 49 b4 a0 3d d7 3c af 3b dc 20 92 3c d8 5d c8 3c
       0.07846887 0.005347829 0.017837934 0.02445881
000090 33 5b 47 3c 93 f0 3c 3d 74 c5 24 3d 47 af 2b 3d
       0.01216774 0.046127867 0.04022737 0.041915204
0000a0 df fe 45 3d b1 1a 81 3d 8a 21 09 3c d1 78 1b 3b
       0.048338767 0.06303919 0.008369813 0.0023723135
0000b0 47 6f 04 3c 97 6f 08 3d 9e 6a 28 3d ae 6c 6f 3d
       0.008083171 0.033309545 0.041117303 0.058453254
0000c0 6f 44 7b 3d 4a dd 91 3d 65 22 8e 3d b3 9a b1 3b
       0.06134456 0.07122286 0.06940154 0.005420053
0000d0 f7 a1 c9 3c 5b a8 cf 3c 7b 38 84 bb 62 c5 e1 3a
       0.024613364 0.025348833 -0.0040350533 0.0017224962
0000e0 53 61 8b bb c3 24 24 bc 10 48 51 bc 8e a6 39 bc
       -0.0042535453 -0.01001853 -0.012773529 -0.011331214
0000f0 d9 13 44 bc 88 f9 93 3b 8f 79 42 3b 9f 94 15 3c
       -0.011967623 0.0045158304 0.0029674505 0.009129672
000100 49 cf 46 bb bf ee 5c bb 9f 3d 37 ba 9a 26 cb 3a
       -0.0030335954 -0.003371164 -0.0006990078 0.0015499175
000110 dd f1 46 bb 04 c5 b6 ba 74 01 69 3c 42 ae e7 39
       -0.0030356564 -0.0013944213 0.014221538 0.00044189586
000120 3d 8b 63 bc 1c 3a 14 3c 60 38 df bb 1b 02 63 bb
       -0.013888177 0.0090470575 -0.0068121403 -0.0034638706
000130 24 78 0b bb 99 c6 e9 bb c6 62 ea 3b 80 20 65 bc
       -0.0021281326 -0.0071342704 0.007152888 -0.013984799
000140 37 e2 05 bc 78 a5 b6 bc c4 6c 26 bc e4 7e ae 3a
       -0.00817161 -0.022295699 -0.010157768 0.0013312963
000150 2c 0d 18 3c f2 88 72 3c 75 08 e1 3b 4e 18 23 3d
       0.009280484 0.014803158 0.0068674632 0.0398181
000160 0d 1e 2e 3d 88 e1 eb 3c 67 f6 23 3b 05 55 22 3c
       0.042509127 0.028794065 0.0025018693 0.009907966
000170 55 0e fb 3a b8 c6 9f 3c 05 08 03 3d 58 65 45 3d
       0.0019154052 0.019503936 0.03199007 0.048192352
000180 70 07 2e 3d 70 bd 23 3d 5a b0 26 3d 55 39 a9 3b
       0.04248756 0.039975584 0.040695526 0.005164305
000190 24 bf 00 bc 11 63 d0 bb 3b 86 95 3c e5 7b 05 3d
       -0.0078580715 -0.006359466 0.018252483 0.03258886
0001a0 8d 19 06 3d 75 2b fa 3c e9 fe f9 3c 0e 65 33 3d
       0.03273921 0.0305383 0.030517058 0.043797545
0001b0 68 d9 69 3c 46 60 86 bc 12 fe 22 3c 3c 8a 1c bb
       0.014273025 -0.016403329 0.00994827 -0.0023886105
0001c0 63 1e 35 bb db 85 dc 3c ba 1b cc bc 1c 6b 68 bc
       -0.002763652 0.026919296 -0.024915565 -0.014185693
0001d0 55 70 83 bb 9f 65 ce 3c 80 7a d0 bb ff e2 c7 3c
       -0.0040111938 0.025194941 -0.0063622594 0.024400232
0001e0 1b 5f 72 bb 80 30 0c 37 2c 7b 2c 3b fd 7b 88 bc
       -0.0036982957 8.355943e-06 0.0026318533 -0.016660685
0001f0 75 e1 4d b9 c8 a6 41 3c d0 9b 8d 3b 25 14 e1 3b
       -0.00019634313 0.011819549 0.004321553 0.0068688565
000200 15 ec fb 3a ac 08 01 bc 4b 9e 6a bc 22 e1 cc 3a
       0.0019220138 -0.007875603 -0.014319967 0.001563106
000210 ca 5b 38 bc 64 4e 8d bc 10 39 81 3c 36 20 71 bb
       -0.011252353 -0.017249294 0.01577428 -0.003679288
000220 38 13 19 bb 71 00 83 bb 63 90 65 3a ab 06 ad 3b
       -0.0023357403 -0.0039978554 0.0008757172 0.005280336
000230 9f 8c 11 bc e3 2a 51 bc 9a 45 a6 3b 7e cc a3 3b
       -0.008883624 -0.012766573 0.005074215 0.0049987426
000240 1f e3 94 bb 8f 94 28 3c 14 41 d9 bb ff dc 97 bb
       -0.0045436765 0.010289325 -0.0066300724 -0.004634499
000250 be f4 ae 3b ee 9d 01 bc 9a e6 19 3a 22 de 1c bb
       0.005339234 -0.0079111885 0.0005870849 -0.0023936112
000260 e4 51 73 3a 25 61 35 ba 6a f6 1c 3b b9 19 13 3c
       0.0009281917 -0.0006919078 0.0023950585 0.008978301
000270 b5 f4 84 3b 8d f5 db bb 68 6d 21 bc bb 38 5d 3c
       0.0040574917 -0.0067126215 -0.009852745 0.013502295
000280 97 51 a3 bb 31 94 2f bb 1b 09 4e bc eb d8 21 ba
       -0.0049840915 -0.002679121 -0.012575413 -0.0006173986
000290 7d 29 7d 3c 93 8b 0b 3c 91 1e 3d 3d 5f 99 d1 3c
       0.015451786 0.008517164 0.04617173 0.025585828
0002a0 12 35 fb 3c 81 f9 ee 3c 6b 1d cb 3c 04 6c f5 3a
       0.030664954 0.029171707 0.024794301 0.0018724208
0002b0 8b a9 cf 3c 31 d0 a1 bb db dd e5 3b d3 f2 d7 b9
       0.0253494 -0.0049381484 0.0070149726 -0.00041188914
0002c0 4b 0e de 3b 60 c6 36 3c 84 71 02 3d c8 af 01 3d
       0.006776606 0.011155695 0.03184654 0.03166178
0002d0 ba 16 44 3c 4d 03 6b 3c c3 36 31 bb dd 55 95 3c
       0.011968309 0.014344049 -0.0027040697 0.01822942
0002e0 43 88 bd 3b 8a f4 a7 3c 47 33 c6 3b 89 83 b2 3c
       0.005784066 0.020502347 0.006048593 0.021791236
0002f0 c4 8c 4f 3c 8f 5b d8 3c ba de 8b bb 15 26 c2 3b
       0.0126678385 0.026410846 -0.0042684944 0.00592495
000300 a2 a5 ad 3b 0f 32 28 3c da 22 b9 bb ac ab 20 bc
       0.005299286 0.010265841 -0.0056499066 -0.009806555
000310 bd fa f6 3b 12 3b f7 bc 50 48 92 3b e7 14 a5 bb
       0.0075372146 -0.030179534 0.0044641867 -0.005037892
000320 37 3a 1c bc 41 63 5c 3b 0e bc 25 3c 93 3e 7e 3c
       -0.009535364 0.0033628496 0.0101156365 0.015517849
000330 42 a8 36 3b 66 8b 3a bc ca dc e8 bb 15 f7 a0 bc
       0.0027871286 -0.011385774 -0.007106398 -0.019649068
000340 33 c6 12 bc 7d 8c 3d bc 77 32 36 bc dc d1 0e bc
       -0.008958387 -0.01156914 -0.01112043 -0.008717027
000350 e4 f5 8f bc 56 af 52 bb d5 97 3e 3a f9 9e e4 bb
       -0.017573304 -0.0032147965 0.00072705495 -0.006976959

conv1.bias f4 [8]
000000 02 0d a5 ba d3 ba 48 bb 3e 5b 07 b5 59 4e 86 ba
       -0.0012592378 -0.0030628934 -5.0424194e-07 -0.0010246738
000010 21 85 3f 39 54 d2 6b 37 b8 e8 cf ba d9 82 b6 b5
       0.00018264774 1.4056062e-05 -0.0015862202 -1.3598138e-06

conv2.weight f4 [16, 8, 3, 3]
000000 7c 75 ef 3b c6 ca b5 3c 0f 8f 05 bb da cc 27 3c
       0.0073077064 0.022191416 -0.002037946 0.0102417115
000010 28 d6 9f bb 60 23 b7 3b 43 a7 15 3c 01 53 1e 39
       -0.0048778243 0.005588934 0.009134117 0.00015098976
000020 8a a1 63 3b cb fa 7d 3b 8d 4e 97 3c 8c 64 d7 bc
       0.0034733736 0.003875422 0.018470073 -0.026293062
000030 db 20 9f 3c a3 26 ae 3c d7 c7 d4 bb 01 2b 50 3c
       0.019424846 0.021258658 -0.0064935493 0.012705565
000040 9c 90 b8 3c 98 2e d6 bc 1d 39 8f 3b 1d df fe ba
       0.022529893 -0.026145265 0.004370822 -0.0019445155
000050 b9 e7 65 3a 5b c2 47 3c 4c 41 ae bb 5f 94 97 bb
       0.0008770186 0.012192334 -0.0053178426 -0.0046258415
000060 7d ea 93 bb c4 d5 39 3c 99 95 93 3b 72 57 41 3c
       -0.004514037 0.01134247 0.0045039174 0.011800634
000070 95 ec 80 3c bc 93 29 3b 08 c9 9a 38 4e 3c 94 3b
       0.015737811 0.002587541 7.380737e-05 0.0045237904
000080 a9 43 5a bb 04 ab a3 bb 96 3b f4 bb 05 18 94 bc
       -0.0033304489 -0.004994752 -0.0074533923 -0.01807786
000090 fb d6 5e 3b 30 74 9a 3a 18 fb 2d bc 47 f0 7c bb
       0.003400265 0.0011783894 -0.010618947 -0.0038595365
0000a0 0a 4f 28 3c f7 5b cc 3b b6 b9 86 bc d1 1c 62 39
       0.010272751 0.006236549 -0.016445976 0.00021563774
0000b0 d5 29 86 bb f5 68 cd 3b 96 fc df 3b 11 a2 aa bb
       -0.0040943422 0.0062686154 0.0068355305 -0.005207308
0000c0 8b ae 16 3c d7 53 fa 3b 1a 74 01 bb 1a 97 8f 3a
       0.009196888 0.007639389 -0.001975304 0.0010955066
0000d0 ee 35 6a 3c c5 7b 8a bb 0f b3 05 3c 41 92 61 3c
       0.014295084 -0.0042261803 0.008160367 0.01376778
0000e0 55 1c 8a bb d3 4d bb 3b 6c a6 8e 3c 54 4c c6 3b
       -0.004214803 0.0057160645 0.01741334 0.0060515795
0000f0 e9 a7 7b 3b c0 05 9d 3b 6a e3 20 3a c0 5c aa bc
       0.0038399643 0.004791945 0.0006137403 -0.02079618
000100 48 72 44 bc 68 1a 65 bb c9 96 7d 3c 77 56 a4 3b
       -0.011990137 -0.0034958366 0.0154778445 0.00501519
000110 33 3c 99 3b a1 b8 9d bc 99 3d e6 b8 dd c2 29 3c
       0.0046763658 -0.019253077 -0.00010978728 0.0103614
000120 07 32 10 3b d4 20 79 bb f7 df 72 bc e8 c5 a2 3b
       0.0022002475 -0.0038013952 -0.014823905 0.00496744
000130 b2 81 fb bc b1 fc 23 bb 7e 55 66 bc 51 06 c6 3c
       -0.030701492 -0.0025022442 -0.014058469 0.024172934
000140 8e 5f c9 bb 4a c4 3e 3d c5 5a 30 bb b5 c7 b6 bb
       -0.006145424 0.046573915 -0.0026909572 -0.005578006
000150 1b 6c b7 bb b0 11 15 bd 5a fb 3a bd 13 ac 35 bc
       -0.005597604 -0.03639382 -0.045649864 -0.011088389
000160 02 6e 39 3c ab b3 15 3d b3 70 91 bc 26 4c 01 bc
       0.011317732 0.036548298 -0.017753934 -0.00789169
000170 b8 d5 94 bb c0 c6 7e 3c 81 bd 39 3b 91 59 08 3c
       -0.004542079 0.015550315 0.0028341713 0.008322136
000180 3c 6b 73 3b 75 5f de 3a b1 8e 05 3b d6 14 11 3d
       0.0037142774 0.0016965704 0.002037924 0.03542026
000190 f7 f5 46 bb 6d 6c f5 bb 21 6d 89 bb 06 4e 8e bc
       -0.0030359009 -0.007489732 -0.0041939174 -0.017371189
0001a0 b5 b0 7b ba 00 0d d8 3c eb f1 24 3c 37 b5 bf 3b
       -0.00096012215 0.026373386 0.010067443 0.00585046
0001b0 d1 fd ae 3b 42 4b 00 3c 77 66 2c 3c 95 42 8a 3c
       0.005340316 0.007830443 0.010522476 0.016877452
0001c0 6f 16 7f 3c 91 dd 07 bb 57 8b 38 bc 18 73 57 3b
       0.015569313 -0.002073143 -0.01126369 0.0032874998
0001d0 cf c2 8c bc 07 35 6f bc 3e 21 8d 3b 68 88 17 3c
       -0.017182736 -0.014600045 0.0043069413 0.00924883
0001e0 7f 12 4b bb 70 3f 05 3c 83 9b 93 bc 15 b2 01 bb
       -0.0030986366 0.0081328 -0.01801849 -0.0019789983
0001f0 8c 61 fe bb 1a c9 30 3c 41 b9 98 3c 4c a5 7f bb
       -0.0077630933 0.010790134 0.018643023 -0.0039008437
000200 ec 8d 09 bc 52 ff 18 3b e1 cb 54 bc 3f 63 1f bc
       -0.008395653 0.0023345542 -0.012988062 -0.009728252
000210 ec 52 fd b9 7b 5c 3f bc 9b 31 72 3b 53 2d 6e 3c
       -0.00048317702 -0.011679764 0.0036955837 0.014537173
000220 ca 82 c3 3b 17 82 83 bc 04 6f 54 bc 57 fa 78 b8
       0.005966519 -0.016053243 -0.012965921 -5.9360955e-05
000230 72 27 77 3b 0d da c3 bb b3 bb 30 bc b4 a9 7d 39
       0.003771272 -0.0059769214 -0.0107869385 0.0002419118
000240 df 93 a2 ba f6 50 5a 3b 0f 95 f2 bb ef c3 c4 bc
       -0.0012403688 0.0033312417 -0.007403023 -0.02401921
000250 df dc 2e 3c 5e 0a 84 bb ac d6 8c 3c 1b 8c 75 3c
       0.010672777 -0.004029556 0.017192207 0.014987017
000260 47 2a 7e bc b0 07 4c bc d3 70 75 bc e9 5f 71 3c
       -0.015513009 -0.012453005 -0.014980513 0.014732339
000270 d6 21 9d bc c3 e1 e0 bc ad f8 dd bc 68 d2 02 3d
       -0.019181173 -0.027451402 -0.027096117 0.03193894
000280 7d 54 9f 3c a9 f6 18 3c 31 f4 f6 bb d4 ff 2a bb
       0.019449467 0.009336152 -0.007536434 -0.0026092427
000290 65 b1 22 bb f8 4d 2e bc 9a 2c c2 3a 0d ca 5d bc
       -0.0024824974 -0.010638706 0.0014814318 -0.013536942
0002a0 ae c6 67 b8 3a 77 9b 3a 40 f2 20 3b 18 3b 59 bc
       -5.5259727e-05 0.0011861094 0.0024558455 -0.013258718
0002b0 43 a5 c1 bc 6b 2d ea bb 90 7d d3 b9 dd 66 38 bb
       -0.023638373 -0.0071465275 -0.00040338608 -0.0028137483
0002c0 73 0a a8 3b ce 20 de 3b 0d 74 c5 3c 93 99 20 3b
       0.005128199 0.006778813 0.024103189 0.00245056
0002d0 98 b9 b5 3b 5b f2 0f bc 22 35 e6 bb e6 2c f8 3c
       0.005545806 -0.008785809 -0.007025377 0.030294847
0002e0 41 e0 95 bb cb 82 28 3b 8a 4f 74 bc 5f a6 f8 3b
       -0.0045738523 0.0025712724 -0.014911542 0.0075881924
0002f0 79 32 dd 3b ba a2 ad 3a 98 dc 04 bc 00 1c c1 3b
       0.0067504016 0.0013247349 -0.008109234 0.0058932304
000300 c4 ab 68 3c ea f3 0c b9 17 39 66 3b a7 46 4b ba
       0.014201108 -0.00013442305 0.0035129243 -0.00077543635
000310 1d 06 0f 3c 71 9c 71 bb 1d 07 3c 3c c2 dd 2a bc
       0.008729485 -0.0036866928 0.011476305 -0.010428848
000320 5c 8d ec bb e9 f0 f5 bb 86 51 1e 3a 1b 23 a1 bc
       -0.007219 -0.0075055254 0.00060393696 -0.01967006
000330 b2 4e 68 3b a5 c2 a5 3c 59 8c ea bb 7c 3d 0f bc
       0.0035447297 0.020234415 -0.007157844 -0.008742686
000340 45 f6 35 bc 2c 54 9c bb 72 10 18 bb f8 e5 88 bb
       -0.0111060785 -0.0047707763 -0.0023203162 -0.004177805
000350 cc bc 43 bc 1c 3e e0 3b 87 62 6f 3c f6 c5 1a 3c
       -0.011946868 0.0068433415 0.014610893 0.009446612
000360 a5 de c1 bb 7f 27 64 bb ca c1 fc bc df b5 a8 ba
       -0.005916434 -0.003481358 -0.030854125 -0.0012871585
000370 be 34 31 3c c3 af 54 ba c8 8e 90 3c 96 cf 30 3d
       0.010815797 -0.0008113349 0.017646208 0.04316672
000380 81 65 d0 3c 7b 90 50 bd 7a 02 bd bd aa f2 96 bd
       0.025439026 -0.050919037 -0.09228988 -0.07370503
000390 ae c4 91 bd 4b ce 90 bd 5a c2 85 bd a6 93 c2 3d
       -0.07117592 -0.07070597 -0.0653121 0.09500818
0003a0 2c db 05 3e f8 59 dc 3d 60 38 b2 3b b7 2a 8b 3c
       0.13071889 0.10759348 0.0054388493 0.016988141
0003b0 5b c6 e0 3b b7 06 34 bc 58 c0 65 bc 0e a9 f5 bb
       0.0068595833 -0.010987929 -0.014022909 -0.0074969595
0003c0 74 69 60 bc 97 c6 29 bb c1 26 3f bb 15 61 e0 bc
       -0.013697017 -0.0025905722 -0.0029167386 -0.027390042
0003d0 24 eb 99 bd 45 0e 20 bd 26 93 62 bc b4 1f 58 bb
       -0.07515553 -0.03907611 -0.013829028 -0.003297788
0003e0 f8 6c fc bb 91 ab 6a 3d 34 de a7 3d f8 63 7a 3d
       -0.00770342 0.057292525 0.08196679 0.061130494
0003f0 f2 86 42 3b a5 15 ce ba 07 19 07 3c e8 c5 59 bc
       0.0029682484 -0.0015723003 0.008245713 -0.013291813

conv2.bias f4 [16]
000000 c4 df d8 bb 81 ca de 39 0f 4f f7 38 c8 dd a7 3a
       -0.006618472 0.00042494017 0.000117926036 0.0012807185
000010 26 8b 4f 35 30 1d 86 38 68 38 36 38 c0 fb 4e b8
       7.7315997e-07 6.3950545e-05 4.3444714e-05 -4.9348688e-05
000020 f5 ee 03 bc da 7b 87 ba 55 3a 18 37 e4 e1 90 b9
       -0.008052577 -0.0010336593 9.0734875e-06 -0.00027634122
000030 af 82 01 bc b7 69 e2 b9 be 89 4d b8 ab 61 ae 36
       -0.007904693 -0.00043184843 -4.900409e-05 5.196974e-06

conv3.weight f4 [32, 16, 3, 3]
000000 98 28 ae bc 1f 56 6d 3c 97 9a 2c 3b d6 49 86 bc
       -0.021259591 0.014485865 0.002633726 -0.01639263
000010 9b c9 0b bc 9b 94 48 3c cb a2 98 bc c6 9b 61 3c
       -0.008531953 0.012242462 -0.018632313 0.013770049
000020 40 13 92 bb 10 67 9f 3b 35 07 01 3c 5c 99 c8 3c
       -0.004457861 0.004864581 0.007875253 0.02448719
000030 d4 f4 80 3c f7 01 a9 bc bf a0 8b bb 0f 71 1e 3c
       0.015741743 -0.02063082 -0.004261106 0.00967051
000040 ee 56 a8 bb f7 36 84 bc 56 bb fa ba 5c a3 66 b9
       -0.005137316 -0.01613949 -0.0019129317 -0.00021995365
000050 47 5a 0f bc 85 2d 9f bc c3 29 67 3c ef 95 01 3c
       -0.008749551 -0.019430885 0.014109078 0.007909282
000060 9c 13 ff 3b a2 37 ef bb db 61 8b 3b 68 b6 c9 bb
       0.00778432 -0.007300333 0.0042536086 -0.0061557777
000070 9f 42 64 3a 4b e6 db 38 62 8f 99 3c 5b 5d c2 bc
       0.0008707437 0.00010485629 0.018745128 -0.023726156
000080 c8 d9 ee 3a 7c fb 8c bb 6d f1 dc 3b 25 bf 46 3c
       0.0018222863 -0.00430244 0.0067426474 0.012130533
000090 8b 32 30 3b 2d 72 0f 39 79 55 6f 3c f0 35 09 bb
       0.0026885595 0.00013680077 0.014607781 -0.002093669
0000a0 8d 79 81 bc f9 f3 37 3c 1d 27 8d ba c3 18 09 3b
       -0.01580503 0.011227601 -0.0010769103 0.00209193
0000b0 34 c3 40 bc 7e 41 a0 3c c4 42 a5 3b 4d a1 71 3c
       -0.01176529 0.01956248 0.0050433595 0.01474793
0000c0 85 ad 29 bb c9 f7 1d bc 8b e0 20 3c 3e 21 64 3c
       -0.002589078 -0.009641596 0.00981916 0.013923941
0000d0 ef f4 94 bc 19 2a da bc 67 30 25 3c 30 ed 33 bc
       -0.0181832 -0.026631402 0.010082341 -0.010981843
0000e0 6a 90 c2 3b a7 0d 54 bc bd 84 2e 3c 34 b2 fc bb
       0.0059376257 -0.012942708 0.010651764 -0.007711673
0000f0 67 cf 5c 3a 93 34 4d bb 26 38 c2 bc 25 43 02 3b
       0.00084232393 -0.0031311854 -0.023708414 0.0019876447
000100 16 f2 a0 3b c6 52 fa 3a 96 84 31 3c a9 72 35 bb
       0.0049116714 0.0019098155 0.010834834 -0.002768675
000110 95 85 1c bc 7d 7d fb 3a ef c1 44 3c 63 62 25 3c
       -0.009553333 0.0019187179 0.012009128 0.010094258
000120 0f b2 a6 bc 49 44 94 bc 4f f1 95 bb 58 d0 33 3c
       -0.020348577 -0.018098967 -0.0045758854 0.010974966
000130 6f fb 3e bc 35 77 19 bc 49 19 fd 3b d2 9d ef 3a
       -0.011656626 -0.0093668 0.0077239615 0.0018281287
000140 6b f1 26 3b cc 00 30 3c 45 50 c7 bb 9d e4 a5 bb
       0.0025473486 0.0107423775 -0.006082567 -0.005062653
000150 b8 44 8d 3b 51 84 c6 ba 74 8d c0 3b ed ac bb bb
       0.0043111704 -0.0015145635 0.0058762375 -0.0057274015
000160 50 17 91 3c 03 a5 3e b8 68 04 55 3c 5e c0 e6 39
       0.017711312 -4.545321e-05 0.013001539 0.00044012343
000170 e5 a5 34 3c 32 23 f0 ba b5 e5 60 ba 04 7b 72 3b
       0.01102588 -0.0018321036 -0.0008579151 0.0036999593
000180 2c 0a 68 3a 94 ca 8f bb ed 7c c0 39 65 78 8b ba
       0.00088516134 -0.004388163 0.0003671417 -0.0010640739
000190 08 6f dc bb e7 b1 01 bc d7 98 71 3b bd 48 07 3a
       -0.006727103 -0.00791595 0.0036864781 0.000516068
0001a0 20 f4 9e bb d2 1e 9f 3b 75 55 a8 b9 90 73 41 bb
       -0.0048508793 0.004855969 -0.00032107127 -0.0029518344
0001b0 6f 11 ea bb 30 af e5 bc e2 41 40 bc 7d d9 c9 bb
       -0.0071431915 -0.028037637 -0.011734458 -0.00615996
0001c0 81 1d 86 bb 35 f0 83 bb 3f ab 96 bc 9d 13 00 bb
       -0.0040928726 -0.0040264376 -0.018392203 -0.001954294
0001d0 36 df 85 bc d2 62 30 bc 0c dd 8d 3c 60 d2 a5 3a
       -0.016341787 -0.010765748 0.017317317 0.0012651198
0001e0 52 72 a5 3a 73 ea 90 bc 05 1d dc bb c7 e8 3f bc
       0.0012622571 -0.01768992 -0.0067173266 -0.011713213
0001f0 b6 e2 fb 3b 73 ea 8f 3c 18 cf 3e 3c e9 e3 25 3c
       0.007686938 0.017567849 0.011646055 0.010125139
000200 17 54 3d ba 7a 75 a5 3b 52 28 2b 3c 13 15 6f bc
       -0.0007222308 0.0050494047 0.010446625 -0.014592427
000210 2a 0d 53 bc 10 88 a4 3c 5d a0 01 bc 6c 57 73 3a
       -0.0128815565 0.02008441 -0.007911769 0.0009282741
000220 a9 d4 0a bc 20 42 29 3c 8b 04 c5 3a 15 3b 27 ba
       -0.008473554 0.010330707 0.0015031261 -0.00063793483
000230 d8 de 92 3b d3 35 29 bc 2c 63 f8 bb 97 9d 96 bc
       0.0044821315 -0.010327774 -0.0075801816 -0.018385692
000240 fe d9 cb 3b 79 12 c7 bb 98 0d 3e bc 86 2b 37 bc
       0.006221055 -0.0060752 -0.011599921 -0.01117981
000250 7d 62 f1 3b 2f 77 f1 3b 8b c9 20 bb af 22 bc bc
       0.007366477 0.007368944 -0.0024534191 -0.022965757
000260 aa 6a 08 3c 4e 72 e7 3c de 3e 3b ba 49 2a 6a 3c
       0.008326212 0.028252747 -0.0007142852 0.014292308
000270 80 80 1e 3c a0 b3 a2 3a 7f 28 7b 3c d4 0f 3b bc
       0.0096741915 0.0012413152 0.015329479 -0.011417348
000280 03 c6 1d 3a 79 05 8c bb 78 8c 7a 3b f2 d0 da bb
       0.0006018581 -0.0042731133 0.0038230699 -0.0066777403
000290 5e 36 0f bb 12 3e 87 bb 64 32 9e 3c 3f 9f 84 bb
       -0.0021852474 -0.0041272724 0.019311137 -0.004047304
0002a0 de ee 8a bc 72 1f 01 3b a5 f0 0c 3b 48 80 6d bb
       -0.016959604 0.001970258 0.002150574 -0.0036239792
0002b0 45 23 9a bc 6b b5 cf 3b 7f 1f 73 bc f8 bd 98 bb
       -0.018815646 0.0063387654 -0.014839052 -0.004661318
0002c0 88 65 27 bb 9c 19 ca ba 9b 0f 27 bc ee 84 cd 3b
       -0.0025542695 -0.0015419009 -0.010196592 0.00627195
0002d0 72 99 88 bc d5 ff b7 bb cf e7 c2 3c d4 ba c7 3b
       -0.01667473 -0.0056152144 0.023792176 0.0060952697
0002e0 00 34 3b bc b5 15 ef bc db d9 47 3c 1c 17 56 bb
       -0.011425972 -0.029185155 0.012197937 -0.0032667583
0002f0 2e c7 83 bb 6d b2 2d 36 27 72 7e 3a 93 2a 44 3c
       -0.004021547 2.5882866e-06 0.0009706341 0.011973041
000300 4b 69 39 3c 6a a2 56 3b 18 19 32 bc b4 07 af bc
       0.011316608 0.0032750615 -0.010870241 -0.021365978
000310 3d 3b 7f bc 82 14 87 bc 61 4b 42 bc 38 09 41 bc
       -0.015578088 -0.016489271 -0.011858792 -0.011781983
000320 6b cc 0c bc 79 82 82 3b 5c 15 37 bc 10 a5 1a bb
       -0.008593659 0.0039828387 -0.011174526 -0.002359692
000330 25 36 99 bc aa 3e f3 3b aa ec 8d 3c 4f 13 5f bc
       -0.018702576 0.0074232416 0.017324764 -0.013615443
000340 39 f3 32 3c cb 2e 4a 3c 85 b0 57 bc 77 b9 72 bc
       0.010922247 0.012340258 -0.013164644 -0.014814726
000350 c1 d2 10 bc 2d 71 5b bc 01 69 ae 3c 95 94 08 39
       -0.00883931 -0.013393682 0.021290304 0.00013025322
000360 eb f1 9f bc 10 22 50 3c 34 d7 50 ba f3 54 c4 bc
       -0.019524535 0.012703434 -0.0007966638 -0.023966288
000370 d0 fb b9 bb 13 32 36 bc 01 60 1e bc 94 f9 a5 3b
       -0.0056757703 -0.011120337 -0.009666444 0.0050651524
000380 1e 19 a2 3c 0f 3e d9 3a 79 47 59 bb 3e a3 c2 3b
       0.019787367 0.0016574281 -0.0033154173 0.00593987
000390 7d 11 86 3b ce 0e da bb 75 b2 2c bc 0e 38 0a bc
       0.0040914402 -0.006654597 -0.010540594 -0.008436216
0003a0 2b bc 43 3b ca bb 26 bc 8c ec 8c bb 65 a2 2d 3b
       0.0029866796 -0.010176608 -0.0043006595 0.00264945
0003b0 0a ce b5 3b 47 f3 79 3b 60 db 91 ba 15 fc 50 bb
       0.0055482434 0.003813939 -0.0011128001 -0.0031888534
0003c0 76 6b 74 3c 1d cb be b9 18 e7 48 bc 3e 9d 9c 3b
       0.014918199 -0.00036390955 -0.012262128 0.004779487
0003d0 48 e1 8d bb 97 b2 cf 3b 91 fa ed bb 79 f6 be bc
       -0.004329834 0.0063384282 -0.007262536 -0.023310887
0003e0 4f 08 8e bb ed 13 a8 3b a9 9a 12 3c 27 7a 25 3c
       -0.0043344866 0.0051293285 0.008948007 0.010099924
0003f0 e6 6d a6 3b b9 7a e2 ba 70 f9 92 3b 41 fe 91 bc
       0.005079019 -0.0017279006 0.0044853017 -0.017821433

conv3.bias f4 [32]
000000 90 ea 41 bb cc 81 15 39 31 55 ee bb 0e a9 6b bb
       -0.0029589273 0.000142581 -0.007273339 -0.0035958919
000010 9b c5 ad bb d6 3c df ba bd 1a 73 bc 8a 8b 64 bc
       -0.0053030974 -0.001703168 -0.014837918 -0.013949284
000020 1c 62 ee ba 41 ba d0 ba 74 d5 92 bb 42 30 4f ba
       -0.0018187198 -0.0015924649 -0.004481012 -0.00079036143
000030 f8 dd aa ba ae e0 0a ba 0e 0d ff bb 51 d8 2b bc
       -0.0013036123 -0.0005297762 -0.0077835387 -0.010488586
000040 be 88 bd ba 0c 2f 5e ba d4 14 89 37 4f 55 2c bc
       -0.0014460308 -0.00084756385 1.6341372e-05 -0.010518386
000050 d3 28 c6 b8 bb e2 5f bb 59 3c 5e ba bb 12 a1 ba
       -9.44898e-05 -0.0034162241 -0.00084776204 -0.0012288907
000060 c7 69 dc 3a 39 70 5a ba 82 8a 17 38 62 59 ee bb
       0.0016816192 -0.00083327625 3.61302e-05 -0.007273839
000070 1c 34 3d 3b b2 7f df 3a 4d 69 72 bb d6 cd db 3a
       0.002887017 0.0017051606 -0.0036989034 0.0016769718

fc.weight f4 [15, 8192]
000000 b5 7a ea 3b 59 e6 51 3b af 82 49 ba a8 9a e9 bb
       0.007155741 0.0032028167 -0.0007687015 -0.007129032
000010 4c 90 93 3b f6 33 45 3c 68 65 9e bb 1e 32 64 ba
       0.0045032855 0.012036314 -0.004833866 -0.0008704978
000020 98 65 ab bc b8 62 b7 bb 47 0a 3b bb 28 b6 f8 3b
       -0.020922467 -0.005596485 -0.0028540061 0.007590074
000030 c6 12 cb bb 59 da e9 bb f6 cc 2d 3c 41 7b ab 3c
       -0.0061973063 -0.007136625 0.0106079485 0.020932795
000040 c1 c1 8c bb 7e c2 ae bb 3a b3 77 bc c7 c2 d3 bb
       -0.004295558 -0.005333244 -0.015118415 -0.0064624283
000050 25 dd 9b 3b 1e 20 ac 3b 05 6a d3 bb 6d 33 a9 3b
       0.004756587 0.005252852 -0.0064518475 0.005163601
000060 1c de 0f 3c ae f3 06 39 8c 29 de 3b ce 03 ed bb
       0.008780982 0.00012870014 0.006779855 -0.0072331196
000070 87 05 3d 3b 13 99 28 bc a4 d8 00 bc c1 95 a7 3c
       0.0028842406 -0.010290402 -0.007864151 0.02045715
000080 68 da 2b 3c f4 92 8c b9 89 1b 39 bc 08 a7 3f 3c
       0.010489084 -0.0002681237 -0.011298069 0.011697538
000090 fb 7b a6 3b 97 13 76 3c 6e a8 2f bb 97 13 ba 3b
       0.0050806976 0.015019319 -0.0026803273 0.005678605
0000a0 22 31 81 bc 64 eb 2e bc e0 e8 54 3b 0e d6 5e 3c
       -0.015770499 -0.010676239 0.0032487437 0.013600839
0000b0 2f c3 9e ba 6f c8 44 3c a0 75 0b bc d7 aa 60 3c
       -0.0012112613 0.012010678 -0.008511931 0.013712606
0000c0 bd 8f 03 3b fb 8b 0c 3c 46 c3 30 bc ed ff e2 bb
       0.0020074688 0.008578296 -0.010788744 -0.0069274814
0000d0 71 34 dd 39 ab 27 92 bb 85 62 8e 3b 7e a0 12 3a
       0.00042191477 -0.004460295 0.0043452405 0.0005593373
0000e0 d7 d5 16 3b bc 8d e8 3b 65 f2 07 39 41 a4 8a 3c
       0.0023015642 0.007096974 0.00012964902 0.016924025
0000f0 c6 56 e5 bb d0 97 eb 3a f8 7c 35 3b 3a 55 0b 3c
       -0.0069988696 0.0017974321 0.0027692895 0.008504206
000100 db 3d 35 3b 10 8b 21 3c 25 4b 06 3b f1 59 15 bc
       0.0027655277 0.009859815 0.0020491567 -0.009115682
000110 13 0a 45 3c 25 d6 86 3b 09 56 2f bc bf fa d5 bb
       0.012026328 0.0041148835 -0.010701665 -0.0065301354
000120 1d 8b 2a bc dc 52 58 3c 17 6b f0 3b 3a eb 2e 3c
       -0.010409144 0.013203349 0.007336985 0.0106762
000130 7a d8 99 3c d5 c6 d3 3b 4c b4 99 bc 84 cc 06 3c
       0.018779982 0.0064629116 -0.01876273 0.008227471
000140 5b 42 50 bc 16 b6 b9 3b e7 11 0b 3c 97 54 28 3c
       -0.012711133 0.0056674583 0.008488155 0.010274074
000150 57 df 6c bb b1 35 11 bc 6f 95 92 ba 17 56 a7 3b
       -0.0036143863 -0.008862899 -0.0011183451 0.0051066983
000160 7e 14 dd 39 30 80 9e bc 2b e2 88 3c 30 da 0b bb
       0.00042167673 -0.019348234 0.016709408 -0.0021339767
000170 c9 83 e1 bb 4b b7 90 3a 1c 01 1d 3c b5 8e aa 3c
       -0.006882165 0.0011040954 0.009582784 0.020820001
000180 1f 1b b7 ba 77 41 5d bc d6 b9 25 bc 55 1d 9f 3c
       -0.0013969875 -0.013504378 -0.0101151075 0.019423166
000190 e1 c2 16 3c 1c d9 ec b9 76 a6 6d 3c ce 54 f7 bb
       0.009201736 -0.00045175187 0.014505019 -0.0075479513
0001a0 a9 5e 5e 3c d2 bb 99 bb 00 29 1e bc 42 bb 17 3c
       0.013572373 -0.0046915794 -0.00965333 0.009260954
0001b0 de 59 7e 3b 58 ad 18 3b a2 47 3e bc 23 02 bf 3b
       0.003881089 0.002329668 -0.011613758 0.005829112
0001c0 de b8 35 3b cc 13 a0 3a 3c 76 f0 3a d4 67 7f 3c
       0.0027728598 0.0012212931 0.0018345783 0.015588719
0001d0 ed ae 94 bc cf 15 00 3b fe 66 a8 3c 3d a9 fd 3a
       -0.018149817 0.001954425 0.020556923 0.0019352805
0001e0 6e 10 72 3a a5 24 76 3c 7a f5 24 bc 6e 4b ec bb
       0.00092340156 0.015023385 -0.010068292 -0.0072111404
0001f0 c1 5d 00 3b 5e 12 61 bb 53 cc 39 bc bf 6c 86 ba
       0.0019587132 -0.0034343223 -0.011340219 -0.0010255798
000200 03 68 29 bc b6 4c 0b 3c 00 35 22 bc 8c f1 97 bb
       -0.01033974 0.008502176 -0.0099003315 -0.004636949
000210 ed 50 aa bc 82 10 65 3a 18 cc c5 3b 2f f6 09 3c
       -0.020790542 0.00087381166 0.0060362928 0.008420511
000220 4e 21 04 bc 81 3f 23 bb ca 7b 9c bb 6f 08 dd ba
       -0.008064581 -0.0024909677 -0.004775499 -0.0016863475
000230 07 c9 9b bc 65 6a 1a ba ea 81 d8 3b 35 41 71 3a
       -0.019016756 -0.0005890488 0.006607284 0.0009203137
000240 02 35 db 3c 76 2a d3 3b 90 d7 fe 3b fd 45 aa 3b
       0.026758675 0.0064442707 0.007777162 0.0051963315
000250 ed 7d 0e 3c 80 40 fa bb 6c c3 2e bb 1f be dc 3b
       0.008697015 -0.0076370835 -0.0026666773 0.0067365314
000260 60 ba 04 bc bb 82 db 39 52 02 d4 3b c7 22 9c 3a
       -0.008101076 0.00041868337 0.006470003 0.001191222
000270 15 27 b4 bb d3 22 1c bb b2 f9 4e 3b 0d 20 0f bc
       -0.005497823 -0.0023824468 0.0031581935 -0.008735669
000280 ed 45 39 3c b0 e8 2c 3c 49 52 eb 3b 9b cd 92 3c
       0.0113081755 0.010553524 0.00718144 0.017920306
000290 bd d5 83 bc c1 ae 09 3c 6d 70 df 3a 40 93 e3 bb
       -0.01609313 0.008403481 0.0017047055 -0.006945044
0002a0 48 4d 86 3c 9d 0e bf 3c a8 c2 5c 3b 9a d9 17 bc
       0.016394272 0.023322398 0.003368536 -0.009268189
0002b0 8b 6d 18 bc 7d 84 d1 bb cd 74 37 3c d9 3f 43 bc
       -0.009303461 -0.0063939677 0.011197281 -0.011917078
0002c0 2d 6c 96 ba e2 07 d4 3b 40 da cc bb 0b af 7e bc
       -0.0011476331 0.0064706663 -0.0062516034 -0.015544663
0002d0 62 d0 20 b7 86 3f 19 3b d8 ce a5 b8 e7 25 28 bc
       -9.585261e-06 0.002338381 -7.906341e-05 -0.010262943
0002e0 cc 75 c0 3b e2 d2 82 3a 3c ec b9 3b 0f 2c a0 bb
       0.0058734175 0.0009981061 0.0056739133 -0.0048880647
0002f0 74 5b bc 3b 7d 2c 91 bc 9e 34 7a bb 54 03 89 3b
       0.0057482067 -0.017721409 -0.0038178335 0.004181305
000300 ac 9b 38 bc ad 16 7b 3c cf ab 01 3c e0 50 86 bb
       -0.011267584 0.015325231 0.0079144975 -0.0040989965
000310 04 09 d3 3b 03 7e 42 3c 63 dc 72 3c 38 4b 08 bb
       0.0064402837 0.011870864 0.014823052 -0.0020796787
000320 d1 6f 1b bc dc 21 59 bb 4b f5 d6 3b b2 35 30 3a
       -0.009487108 -0.0033131754 0.006560003 0.00067218684
000330 68 1e c3 bb bc ae c9 bb 1d d1 e7 3b c1 ea 99 3c
       -0.0059545524 -0.006154863 0.007074489 0.018788697
000340 5f c3 1a 3c 83 58 8b bc 6e 3e d1 b9 4a 23 79 3b
       0.009445994 -0.01700998 -0.000399101 0.0038015419
000350 0c 38 70 3c ea 87 36 bc 2e d8 b2 ba c5 0a 6b 3b
       0.0146618 -0.011140803 -0.0013644749 0.0035864573
000360 16 60 70 3c 69 c6 df 3a f3 23 9e bc 55 0b b7 39
       0.014671346 0.0017072681 -0.019304251 0.00034912923
000370 57 55 0c 39 66 ad 38 3c cb c8 99 3a 51 b3 11 bc
       0.00013383232 0.01127181 0.0011732815 -0.00889285
000380 14 87 2e 3c 40 21 46 3c ab 1b 14 3c 64 bf c8 bc
       0.010652322 0.012092888 0.0090398 -0.024505325
000390 4e bb 7c 3b 0f 97 4a 3b e2 ba 10 bb 40 c0 94 bb
       0.003856379 0.0030912792 -0.0022084047 -0.0045395195
0003a0 fb 4c ee bb 46 0d 13 bc f7 41 ec 3b 0e 83 7b 3c
       -0.0072723604 -0.008975333 0.007210012 0.01535107
0003b0 b9 b1 6a 3c 5d e0 e5 bb 80 93 07 3c 45 52 79 3b
       0.014324599 -0.0070152716 0.008274913 0.0038043421
0003c0 d6 6a d9 3b d5 f2 0a bc 80 da 65 3c 93 b7 75 bc
       0.0066350503 -0.008480747 0.014029145 -0.014997381
0003d0 6d a9 88 ba 9e 0f 4f 3c a3 d4 30 bc 34 2e b2 ba
       -0.0010426469 0.012638001 -0.010792884 -0.0013594092
0003e0 ed 12 32 3b 7b 10 60 bc 13 0d d3 3b 2f 7d fd ba
       0.0027171925 -0.013675804 0.0064407676 -0.0019339676
0003f0 0f 44 e7 39 38 a0 92 3c 68 d7 41 bc 4c a1 1c 3c
       0.0004411046 0.017898664 -0.011831142 0.009559941

fc.bias f4 [15]
000000 4a 1b 84 bc e2 df 2d bb 31 b7 aa 3c d5 65 99 ba
       -0.016126294 -0.002653115 0.020839306 -0.0011703322
000010 e9 1b 21 bc ad ce 8e 3b fe 03 08 bc 29 f1 9b bb
       -0.009833314 0.0043581338 -0.008301733 -0.004758973
000020 f0 01 db 3b 19 03 77 3c d0 d5 fa 3b 59 08 d4 bb
       0.0066835806 0.015076422 0.007654883 -0.0064707217
000030 02 60 77 bb b7 a4 73 bc c2 af 5a 3c
       -0.0037746434 -0.014870814 0.013347568
