models/batch.pth (torch, 522779 bytes, 20 tensors)

conv1.weight f4 [8, 3, 3, 3]
00000000: 1388 233c 9c83 9d3c 31aa 063d d2d4 a73c
00000010: 1696 6b3c 1fd1 f93b 6136 49bb 5e80 47bb
00000020: c72e 0b3c 7ab9 c13c 1af1 b23c 1d32 933c
00000030: 56d6 503b 751f d83c f594 9b3b 1b36 c1ba
00000040: d9f0 833c 610e 95bc 910f 603c afa2 b33c
00000050: 0374 573c 3e98 1c3c 6e3a 543c fad4 453c
00000060: 6f92 57bc 2a17 ad3a de3e 4abb 36f2 8e3c
00000070: 9567 ae3c 9c69 fd3c d793 73bc 6d6a 6f3b
00000080: 79b9 1dba 243b 013c e755 963b 9acb c0bc
00000090: a5a8 d73c 8704 4d3b bf58 d63c c55a da3b
000000a0: ebe5 183b 3478 fcbb e061 d33b cb05 8dbc
000000b0: b14e 6bbc 1aff ce3c 1566 0d3d 70af d93c
000000c0: aa9d 703c 0051 163c f453 76bc c36b 753c
000000d0: dfc3 43bc cebc 05bc fba1 3dbd 7d5b f73c
000000e0: 20f5 083d c0c3 b6bc 6502 e13b 5628 853c
000000f0: 4ecc 3abd bb48 c73b 83e6 873c b716 40bd
00000100: 8f04 493b f930 273d 36f4 59bd d909 0b3c
00000110: 2ef7 e23c 2ba1 1cbd 6720 143d 0c2e 213d
00000120: d1ed e0bc 3b63 8a3c a86f b13c 2a4a 74bd
00000130: 7d83 813a 3cd8 1a3d a475 f0bc 0ff2 873c
00000140: f0f8 513c 4317 943c da47 2dbc 9254 223c
00000150: 718b 90bc 1500 d6bb 3439 8f3c be8f d83c
00000160: c8d0 4c3c a43e 4e3c 763c d53b e571 08bc
00000170: 7339 3c39 c68c 373c eff8 d137 472e 353c
00000180: 04f5 1f3c a12a e93b 515a a03b 2e19 96ba
00000190: 7b4a 3abc dc60 c3bb 98aa 8a39 2359 1f3c
000001a0: 67bb 863c 09b6 c23b 4405 fb3b 1828 ee3c
000001b0: c1d8 ccbc c930 d3bc 1f19 a0bc 45ee c6bc
000001c0: 828b 8ebc 763b 95bc 6771 98bb b254 bcbc
000001d0: 97c5 c1bb a3b0 97bc 0264 b0bc 65c1 46bc
000001e0: 7e4b dfbc fedc dabc 1b84 1fbd 53ec 8b3a
000001f0: bc60 b6bc 75f2 8fbc 8f4f b7bc 0c12 9cbc
00000200: 5c71 3cbc e737 c2bc 7fb1 dcbc 2702 eebc
00000210: 7989 35bb bf36 b0bb 2e40 9f3a 826e 153d
00000220: b632 16bd 8ed8 97bc 2d22 0c3d 419c 69bd
00000230: 006e 91bd 46dd dc3d 0902 1b3d e277 543c
00000240: 192c d03c 730d 23bd 2ad1 22bd 8eda 083d
00000250: 9588 7cbd 217a 94bd d4ca ca3d a76c 323d
00000260: 3dac 8e3b 5cda 473d 3b2b 34bd d03f 21bd
00000270: 1304 be3c 79a0 7cbd 8b9a 99bd 2ac8 a73d
00000280: 335d df3c a067 903c 68c1 aaba ecbc 8bbc
00000290: bf4c e6bc e558 ddbc 7310 e9bc 4b34 fbbc
000002a0: 1d09 b53b 8a4c 75bc 0aad bcbc b86f a0bc
000002b0: d8be 15bd b951 31bd 9ccb fbbc 543f 22bd
000002c0: d38d 20bd 9c1e bcbb 97b9 a3bc ed96 4e3b
000002d0: a27c 563b 242c b8bc 12fe 6ebc 1d3c 00bc
000002e0: b99c 47bd 41a2 40bc b73d b8bc 9df2 f3bc
000002f0: 6de7 bbbb 59ec 073a 1c48 853c 252d d73b
00000300: 8c16 de39 1f1b 543c 647e 043d 38b3 1ebc
00000310: ec73 c43b cb71 493c f80c 2e3c ae74 0a3c
00000320: 8e99 9e3b f475 a53b de78 113c 760d b73c
00000330: deba 163b a253 09bb 493e 883c 3db0 67bc
00000340: 4375 013d 0095 303c a49e 1fbb fc49 9b3c
00000350: c0cb 4c3a fd56 c0bc 26ec fc3a b9d7 31bc
0.009981173 0.019227795 0.03287715 0.020487223 0.014379045 0.007623806 -0.0030702578 -0.0030441503
0.008495039 0.023648012 0.021843482 0.017968232 0.0031866035 0.026382187 0.0047479817 -0.0014740856
0.016106056 -0.018195333 0.013675586 0.02192816 0.013150218 0.009557782 0.012953384 0.012074703
-0.013157471 0.0013205756 -0.0030860226 0.01744948 0.021289626 0.030934148 -0.014866791 0.003653194
-0.0006016712 0.007887635 0.004587877 -0.023534585 0.026325533 0.0031283216 0.026165364 0.0066636526
0.00233304 -0.007704759 0.0064508766 -0.017214676 -0.014362023 0.025268126 0.03452118 0.026572913
0.014686028 0.009174585 -0.015034664 0.014979306 -0.011948555 -0.00816269 -0.046297055 0.030194992
0.033436894 -0.022310138 0.0068667405 0.016254585 -0.045604996 0.006081668 0.016589409 -0.046896663
0.0030672883 0.04081819 -0.053211413 0.008486235 0.027705755 -0.03823964 0.036163714 0.039350554
-0.02745715 0.01689302 0.021659687 -0.05964104 0.0009881106 0.037803873 -0.02935297 0.016594915
0.012815699 0.018077498 -0.010576213 0.009907858 -0.017644616 -0.0065307715 0.017483331 0.02643573
0.012500949 0.012588177 0.0065074516 -0.008327936 0.00017950479 0.011202997 2.503066e-05 0.011058397
0.009763006 0.0071156775 0.004893579 -0.0011451596 -0.011370297 -0.0059624743 0.00026448513 0.009725842
0.016446782 0.0059421104 0.00766054 0.029071853 -0.0250057 -0.025780099 -0.019543229 -0.024283538
-0.017400507 -0.01821683 -0.0046521905 -0.022989605 -0.005913447 -0.018516844 -0.021532062 -0.01213107
-0.027257677 -0.026716705 -0.038944345 0.0010675289 -0.022262923 -0.017571667 -0.022376804 -0.019051574
-0.011501636 -0.023708297 -0.026940105 -0.02905376 -0.0027700348 -0.00537762 0.0012149864 0.03648234
-0.036669455 -0.018535879 0.03421228 -0.05703378 -0.07101059 0.10784392 0.037843738 0.012968035
0.025411652 -0.039807748 -0.039750256 0.033411555 -0.061653692 -0.07249857 0.09901968 0.04356065
0.0043540285 0.048792228 -0.04398654 -0.039367497 0.023195302 -0.061676476 -0.0750018 0.08192475
0.02726612 0.017627537 -0.001302761 -0.017057858 -0.028112767 -0.027019927 -0.028450226 -0.030664584
0.005524768 -0.014971862 -0.02303173 -0.019584522 -0.036558956 -0.043290827 -0.030736737 -0.039611176
-0.039197754 -0.0057409536 -0.019985957 0.0031523064 0.0032728096 -0.022481985 -0.014586942 -0.007826832
-0.048733447 -0.011757434 -0.022490365 -0.029778773 -0.005734375 0.000518506 0.016269736 0.006566661
0.00042359938 0.012945919 0.032347098 -0.009686284 0.0059952643 0.012295197 0.010623209 0.00845067
0.0048400825 0.0050494615 0.008878915 0.022345286 0.0022999565 -0.002095439 0.016631262 -0.01414114
0.03160597 0.010777712 -0.0024356032 0.018956177 0.00078123435 -0.02347898 0.0019296452 -0.010854655

conv1.bias f4 [8]
00000000: 9701 7fb1 f9b8 1832 f505 3a32 c742 5231
00000010: 433a ce31 cb03 4ab2 186e 20b1 6091 28b1
-3.7108288e-09 8.889622e-09 1.0827979e-08 3.059698e-09 6.0020127e-09 -1.175881e-08 -2.3345645e-09 -2.4529854e-09

conv2.weight f4 [16, 8, 3, 3]
00000000: fc2d e1bb d9c8 933c df6c 42bc f688 d1bc
00000010: 3882 08bc 1080 b0bc 4480 66bb 6c0d 443c
00000020: d0dc ba3a a191 b539 b2da 393d 7928 013c
00000030: b86d 8bbc fd87 023b 4af1 9cbc 1b31 8abc
00000040: 666a 4f3c 6365 b4bc 4eca 923c 225a 113c
00000050: 0ea0 523c f191 f43b 63bd 7abc 484f 12bc
00000060: ae4c 6dbb bb34 823c cbb7 303c 8788 1fbc
00000070: bbb9 173c 2ce2 81bc d902 34bb 0753 c43b
00000080: 0b60 1dbb 7c6f d23c be71 243b c4a5 4e3b
00000090: 1739 79bc b356 b0ba 3b0e f2ba deff 38bc
000000a0: 830d 3cbc 5eb9 993a 6ad2 73bc a094 b6bc
000000b0: 49a0 d2b9 038b 6dbc 0c76 623d fbe5 353d
000000c0: 9ba1 dabc c1c8 673c 77c8 053d 7df9 e5bc
000000d0: 355c 5fbc 8e45 1dbc 765e 16bc 76e0 e5bc
000000e0: 6448 40bc 1942 11bc 212c 12bb ffe7 bcbc
000000f0: fa16 15bd 9182 14bd 8c07 28bc f6aa 533c
00000100: d52c fe3c 6b32 6bba 643a 08bc e0f4 fdbb
00000110: 8f2d ebbb 6a29 7fbc d16b 8aba 0c56 07bd
00000120: d7f6 023c 2e1c 9dbc b3c3 333c 5bbe 99bc
00000130: f22f f3bc 4181 053b a606 92bc 323e 82bc
00000140: bd3f a83c 140b 3cbc 108e fabc de09 8abb
00000150: 39b1 86bc 13cc 2abc 281d 083c 0204 5ebc
00000160: f6bf fa3b 3d5c 283c 39ca 0cbb 9b2e 3abc
00000170: d141 083d 6899 2d3b 713b c13b 37d2 3e3c
00000180: 2e67 4e3b 4c63 58bb f2f9 a93a fa95 3bbc
00000190: b268 66ba 1c50 d43b 39ae 24bc a6cb 2abc
000001a0: a98d 773c 2a91 a9bc 5de7 213c e952 5b3c
000001b0: c7ca cdbb cc53 8c3b cbaa 1dbb 96ed 043c
000001c0: 0186 093c d9f4 e1bb b829 f93b 603b 16bc
000001d0: 718f c1bb b948 ae3c f565 853c 19c8 1b3c
000001e0: 1691 31bc bb52 a4bc c632 213d ab44 13bd
000001f0: 99dc 42bd 948f 903c 04b8 b6bb c284 bd3c
00000200: 3fe4 4cbb 5bb1 8b3c ce3a c33b d1ae d13b
00000210: 93f6 bfbb 1d05 0abc 8e12 69bc e6b6 17bc
00000220: 65d8 b63b 6c20 34bc 7df1 0abc a946 e0bb
00000230: 3880 7ebc 3b6b abbc 3721 e4ba 5a4f 543b
00000240: a8bf 54b9 9417 653c 2b8b d43c 06be 7ebc
00000250: 7dd0 d73b 5392 4c3c a3ee a4ba 361e 563c
00000260: 68aa f0bb f682 05bc 00ae b1bc d0da 4a3c
00000270: b488 b7bc 56d2 f6bc e6ca 49b8 d410 883a
00000280: d0e9 97bb 1be2 253c 83e3 f6ba 63d6 dfbb
00000290: e635 073d ef81 21bc 7f32 92bc db37 693b
000002a0: 9fe1 d03c 3e23 123c 8d9d c2bc 4b0a 9038
000002b0: 5658 103a a9c1 833c 8fa5 9ebb 1a74 0bbc
000002c0: 6cbe 833c 46ff 41bc 0154 a33c a04d b1bc
000002d0: b4c0 353c e347 3d3c 2a19 45bb 6eaa 2fbb
000002e0: e300 31bc 68c1 c63c 4e59 f6bb 2e6f 7abb
000002f0: bff6 9e3c 1987 b8bc 6b31 8cbd 1aa1 3fbd
00000300: 697c 813d 7d7a 8bbc a23a 33bb 34a8 823d
00000310: 2696 6e3d a6e7 973d f252 083c 9de9 823b
00000320: 743c 9fbc a820 c33b 484b abbc 8092 d33c
00000330: ce55 ef3b 7fe6 6fbc a50b 60bb a86e 49bc
00000340: 193e eabb 1ed2 c83c 8ce6 d7bc 1625 cfbc
00000350: 35e8 4a3c 7364 643b a342 d63c 81ad 78bb
00000360: acc3 cab9 3eea 86bc 3a1e 12bc 63ac cebb
00000370: 3bd8 d4bc 1a6c 12bd f390 1fbc 2e64 2dbc
00000380: b2c1 7cbc d630 d33c c7a3 00bc d059 cdbc
00000390: 533a a53c b65d 06bc 5204 cabb b48b 313c
000003a0: 4493 9bbb e5a7 a2bc 0ff4 98bc 8355 493c
000003b0: 601e 373c 4a68 863c 4340 253c 6354 023d
000003c0: 913b 2d3c ccc2 963c 68aa a33c 1f60 db3c
000003d0: 0653 bfbc f368 e4bb 5c4e ae3b 1f37 783c
000003e0: a70f 8a3c 0f87 ed3b 9298 47bc 318d e9bc
000003f0: 1db4 a53c 0aaf 45ba 136c a4bb 7b4b 7d3c
-0.006871937 0.018040108 -0.011866777 -0.025578003 -0.008331828 -0.02154544 -0.0035171667 0.011966091
0.0014256481 0.00034631512 0.04537458 0.007883185 -0.017020091 0.001991748 -0.019158024 -0.016869118
0.012659645 -0.022021001 0.017918732 0.008871587 0.012855543 0.0074636866 -0.015303942 -0.008930035
-0.0036209035 0.015894284 0.010786007 -0.0097371405 0.00926059 -0.015854917 -0.0027467518 0.005991343
-0.0024013545 0.025687926 0.002509221 0.003153191 -0.015211365 -0.0013453573 -0.0018467376 -0.011291472
-0.011477831 0.0011728217 -0.01488171 -0.022287667 -0.00040173743 -0.014498475 0.05528836 0.04440878
-0.026688388 0.014146985 0.03266188 -0.028073067 -0.013632824 -0.009599103 -0.009177795 -0.028061133
-0.011736009 -0.008865857 -0.0022304135 -0.023059843 -0.036398865 -0.03625733 -0.010255706 0.012919178
0.031027237 -0.00089720514 -0.008314703 -0.0077501386 -0.007177062 -0.015573839 -0.0010560696 -0.033041045
0.0079934215 -0.019178476 0.010971951 -0.018767526 -0.029685948 0.002037123 -0.017825436 -0.015898798
0.020538205 -0.011477251 -0.030585319 -0.004212602 -0.016441928 -0.010424632 0.008307733 -0.01355076
0.007652278 0.010275898 -0.0021482839 -0.011363651 0.033265892 0.0026489142 0.0058969785 0.011646799
0.0031494605 -0.003301817 0.0012968166 -0.011449331 -0.00087894045 0.0064792763 -0.010051304 -0.01042453
0.015109458 -0.020699102 0.009881821 0.013386467 -0.0062802765 0.0042824503 -0.00240581 0.0081132855
0.008393765 -0.006895643 0.00760385 -0.00916943 -0.005906992 0.021274911 0.016283968 0.009508156
-0.010837814 -0.02005898 0.039355062 -0.03595416 -0.04757366 0.017646588 -0.0055761356 0.023134593
-0.0031263975 0.017052343 0.005957938 0.0063990136 -0.0058582514 -0.008424071 -0.014225615 -0.009259915
0.0055799955 -0.010994058 -0.008480427 -0.006844361 -0.015533499 -0.020925155 -0.0017404918 0.003239593
-0.00020289293 0.013982672 0.025945267 -0.015548235 0.006586133 0.012486058 -0.0012583326 0.013068726
-0.0073445328 -0.008148899 -0.021689415 0.0123812705 -0.022404052 -0.030129593 -4.81111e-05 0.0010380992
-0.004636027 0.0101247085 -0.0018836114 -0.006830977 0.033010386 -0.009857639 -0.017846344 0.003558627
0.02549821 0.008919535 -0.023756767 6.868372e-05 0.0005506327 0.016083555 -0.0048415135 -0.0085115675
0.016082011 -0.011840647 0.019937517 -0.02164346 0.011093307 0.011552784 -0.0030074813 -0.0026804465
-0.010803434 0.024262145 -0.00751797 -0.003821324 0.019404767 -0.022525357 -0.06845363 -0.046784498
0.063225575 -0.01702618 -0.002734818 0.063797385 0.05824866 0.0741723 0.008320557 0.003995134
-0.019438006 0.0059548207 -0.02090992 0.025826693 0.00730393 -0.014642357 -0.0034186628 -0.012294449
-0.007148516 0.024514254 -0.02635505 -0.025286239 0.012384464 0.0034849911 0.026154822 -0.0037945213
-0.0003867423 -0.016469117 -0.008918339 -0.006307171 -0.025982013 -0.035747625 -0.009739148 -0.010582967
-0.01542704 0.025780123 -0.007851548 -0.02506724 0.020169413 -0.008201053 -0.006165066 0.0108365305
-0.00474778 -0.019855449 -0.018671064 0.012288454 0.011176676 0.01640715 0.010086122 0.03181876
0.010573284 0.018403433 0.019978717 0.026779233 -0.023355018 -0.0069705187 0.0053193998 0.015149861
0.016853167 0.0072487663 -0.012182372 -0.028509708 0.020227486 -0.00075410365 -0.0050177663 0.0154598905

conv2.bias f4 [16]
00000000: 8314 8034 fb28 ab32 aaf9 7033 640e b9b4
00000010: e0b7 1935 67be 7333 adb2 60b3 36d6 15b3
00000020: 0fec bcb4 2ec2 7734 cca3 a633 6bbc 0134
00000030: 936c 68b4 aa2c 19b4 0fa5 bd2f b82d 3bb4
2.3856782e-07 1.9925656e-08 5.6106423e-08 -3.4469406e-07 5.7264515e-07 5.6751016e-08 -5.231657e-08 -3.488659e-08
-3.5189484e-07 2.307431e-07 7.759772e-08 1.2082607e-07 -2.1646183e-07 -1.4265484e-07 3.449618e-10 -1.7432365e-07

conv3.weight f4 [32, 16, 3, 3]
00000000: 6cdc 663c 3476 8c3c 62e8 7ebc cb2d b03c
00000010: 931a fbbb c6ed 073b 5bd9 d8b9 8bf2 babc
00000020: eef0 4ebc f143 103c 566a 0bbc 562f 86bc
00000030: 2ac0 53bc e1c5 82bc 361c cdbb 3935 f8bb
00000040: 4dda c8ba f3d3 9dbc 7192 7e3b d5cb ad3b
00000050: 6476 72bc a711 c83b 3340 8bba e5ed 8f3a
00000060: 57b4 f93b 2ad9 71bc 3b62 4a3c 5da6 23bc
00000070: ad46 bfba 1e83 2a3c eab4 a53b ff4a a73c
00000080: 5dd2 9cbb 27f1 fc3b 7fe2 843a 9e9b f9bb
00000090: 4bb1 abbb c84e 5b3b 7030 10bd 3f3c 59bc
000000a0: b0ee 21bc 0946 59bc 801b c5ba f811 c93b
000000b0: 7ba8 fabb cd7e 113c f088 1a3d 925e 173c
000000c0: 7b3b ad3c 43a3 203c c668 4dbc e589 6e3b
000000d0: 6ad9 08bc 0a2a b63b 60b5 8ebc fdc0 0cbc
000000e0: 3a7f 363c abfc 4c3c 1fc9 923c e648 2f3b
000000f0: ff6e 6d3c e15e 143d d242 bb3c 8fce b9bc
00000100: 5e2d af3b 154e 13bc 45a2 8bbb 88a2 b6bc
00000110: ffd1 aabc cd02 c3bb 6266 e13a c46e 94ba
00000120: f3e7 883c 9bf9 8d3c 1e43 483c 548b c0bb
00000130: 14e7 3f3c f35e b7bb 1c59 5cbc 9468 99bb
00000140: 58b8 1d3c 9519 7fbc a5ae 653c 394c a4bb
00000150: 8728 a2bb 4f17 683c 4e52 703c 268a 413c
00000160: ed30 0f3a fb06 9dbc 4609 baba 9198 ddbb
00000170: 433c 7d3c ed68 0dbc 80ce a73c 3ec0 423c
00000180: 1e06 813b b91a 0bbb c310 97bb ac30 14bd
00000190: 36d5 973c 698f c2ba 3993 56bc 45e3 753c
000001a0: 1774 4fbc 996a ed3c a0ac 783b 3bf4 b83c
000001b0: f993 893c d671 253c b03d 65bb 0b7b 043c
000001c0: d49d d8bb de85 10bc 22c3 4dbc 044c 43bc
000001d0: abe8 64bc bfe5 9bba 12c9 6c3c 6796 653c
000001e0: 6811 06bb b133 883c edda a93c 8b72 d83b
000001f0: 1ed8 ad3c afa8 9a3b 14de 17bc 5a75 a0bb
00000200: 5af4 02b9 7a43 9d3c b4b2 e5ba 9f42 0f3c
00000210: 17ba 9cbc 7964 b2bb 0d30 0ebb 1296 95bc
00000220: bed8 1a3c f189 01bb fb8a 4e3c 2f2e 57bc
00000230: f268 bcbb c0b9 833c ab17 123c d35f c73c
00000240: ad5f 5dbc d002 69bc e163 6d3b ec1e 1b3c
00000250: 4dc0 923c e32b 963a af9e 0dbc bf83 a4ba
00000260: 501d 41bc 6f61 eb3b c187 7dba 28d0 813c
00000270: ce32 1f3a 689a 143b 4e09 003d 75ae 30bb
00000280: 6652 153c 6a34 f83b 1eef de3b bd05 bd3b
00000290: f67f 82bc 4375 0fba 75e1 c9bb d330 9dbc
000002a0: 890f bfbc bb83 2a3a 0ec8 9a3b da17 bdbc
000002b0: a37c 22bc f28f 45ba 42e3 b0ba b0a2 37bc
000002c0: da86 a83b c23a b23c 32dd 89ba 187f 85bc
000002d0: 3f24 aeba 2e44 36bc 2ac3 4e3c 78be 97bc
000002e0: 3d03 323c b5ec 20bc ef8e 3c3c 4f8e 033c
000002f0: 1ad4 3abb 7674 f23b 9a18 89bc 03a3 f9bb
00000300: 7c1c ad3b 787e 273a 8235 41bb a268 583a
00000310: 836f c5bb a976 b23b 5d37 57b9 c6dd 033b
00000320: 0350 2abb c99e debc d435 e8bc c0f3 ee3b
00000330: 8713 d43c 3a10 70bc 198c 68bb d003 373c
00000340: 2559 06ba 91d8 f4bb c8af 7b3c 81c2 9f3c
00000350: 24ba 6cbc 9485 26bb 83b3 333c 1d98 2fbc
00000360: c5fc 973c c00d 24bc ce71 abbc c738 73bb
00000370: 0e39 c3bc 07e9 3e3c f5f8 79bc 6ace 1dbc
00000380: afd8 25ba e520 f93c 5d11 153c efb6 283c
00000390: ba44 583c 21a4 c33b 973c ba39 510c 243a
000003a0: 5e5f a63c 7c0a 313c ee60 2bbb 04eb 93bc
000003b0: bcea 8b3b 9f89 9fbb 4566 b83c 12a0 353c
000003c0: 8db0 003c 33e6 92bc 4ab3 dabc 73b4 993c
000003d0: 693d e6bc 486b 11bb c41e c63b 62af 43bc
000003e0: 21d1 a3bb 6329 a1bc 51cf 7abc b7ac 943c
000003f0: e5a7 cbbb 92ed 893c ddcb 08bb 5c8b 17bc
0.014090639 0.017146207 -0.015558334 0.02150621 -0.00766308 0.002074109 -0.00041360673 -0.022820732
-0.012630684 0.008805261 -0.008509239 -0.016379993 -0.012924233 -0.015963497 -0.0062594665 -0.007574704
-0.0015323848 -0.019266104 0.003884461 0.0053038397 -0.014798734 0.00610562 -0.0010623991 0.0010980932
0.007620375 -0.014761249 0.0123525215 -0.009988395 -0.0014593207 0.010407237 0.005056967 0.020421503
-0.0047858194 0.0077191773 0.0010138302 -0.007617428 -0.005239641 0.0033463705 -0.035202444 -0.013258993
-0.009883568 -0.013261327 -0.0015038103 0.0061361752 -0.007649479 0.008880329 0.03772825 0.009238856
0.021146527 0.00980455 -0.012537187 0.003639811 -0.008352617 0.0055592107 -0.01742047 -0.008590934
0.011138732 0.012511413 0.017918168 0.0026746332 0.014491796 0.036223296 0.02285901 -0.022681503
0.0053459844 -0.008990784 -0.0042612874 -0.022294298 -0.020852087 -0.0059512616 0.001719665 -0.0011324515
0.016712165 0.017330935 0.012223033 -0.005875984 0.011712808 -0.0055960356 -0.01344898 -0.004681656
0.0096264705 -0.015570064 0.014018689 -0.0050139693 -0.004948679 0.014165713 0.0146680605 0.011812722
0.00054623076 -0.019168368 -0.0014193438 -0.006762572 0.015456262 -0.008630973 0.020484209 0.011886654
0.003937497 -0.0021225645 -0.0046101524 -0.03617923 0.018534284 -0.0014843765 -0.013096624 0.015007799
-0.012661955 0.028981494 0.003794469 0.022577396 0.016794192 0.010097941 -0.0034979396 0.008085976
-0.0066106115 -0.008820979 -0.01255873 -0.011919979 -0.013971488 -0.0011894031 0.014452236 0.0140129095
-0.0020457152 0.01662621 0.020734275 0.0066054515 0.021221217 0.0047198157 -0.009269256 -0.004896802
-0.00012488794 0.019197214 -0.0017524571 0.008743911 -0.019131703 -0.005444106 -0.002169612 -0.018260036
0.009451089 -0.0019766057 0.012606378 -0.01313357 -0.005749815 0.016079783 0.008916776 0.024337685
-0.01351158 -0.014221862 0.0036222863 0.009467822 0.017913962 0.0011457171 -0.00864379 -0.001255147
-0.011786774 0.007183246 -0.0009671413 0.015846327 0.0006072939 0.002267504 0.031258874 -0.0026959453
0.009113884 0.0075746076 0.0068034073 0.0057685063 -0.015930157 -0.00054724904 -0.00616091 -0.01918832
-0.023322837 0.0006504615 0.0047235554 -0.023082662 -0.009917411 -0.0007536403 -0.0013495462 -0.011208221
0.0051430287 0.021756534 -0.0010518192 -0.016295955 -0.0013285949 -0.011124654 0.012619773 -0.01852344
0.01086503 -0.00982206 0.011508687 0.0080295345 -0.002850777 0.007399137 -0.016735364 -0.0076183095
0.0052829366 0.000638939 -0.0029481356 0.00082553376 -0.006025256 0.0054462743 -0.00020524622 0.00201212
-0.0025987632 -0.027175324 -0.02834598 0.007292241 0.025888218 -0.014652306 -0.0035483895 0.011170343
-0.0005124978 -0.007472106 0.015361734 0.019501926 -0.014448676 -0.0025409209 0.010968092 -0.010717419
0.018553147 -0.010013044 -0.02092829 -0.00371127 -0.023830917 0.011652238 -0.01525711 -0.0096317325
-0.0006326539 0.030411193 0.009098378 0.010297521 0.013199979 0.0059704934 0.00035521828 0.0006257939
0.020309146 0.010805722 -0.0026150304 -0.0180564 0.004269926 -0.0048687006 0.022509703 0.011085527
0.007854593 -0.017932033 -0.02669682 0.018762803 -0.028105455 -0.0022189189 0.006046148 -0.01194367
-0.0049992953 -0.019673055 -0.015308217 0.018148763 -0.006215083 0.016836915 -0.0020873465 -0.009249534

conv3.bias f4 [32]
00000000: c9ce 7fb1 d639 d331 0692 d531 566d 6631
00000010: 89fe 8f32 70be b232 2415 0ab2 b888 aab1
00000020: 1189 9232 3b55 83b2 dae4 14b1 3603 0fb1
00000030: f6b1 a8b2 9607 c930 9ba9 a6b1 d328 2133
00000040: a02f 9432 d345 56b2 f020 a931 ac12 9932
00000050: 09dc 4032 40ed b131 e78f 26b3 f24e d8b1
00000060: 76e9 6bb1 11a4 62b1 81df 3ab3 7150 bf31
00000070: 2340 4d32 05a8 8eb2 7999 2833 160e bb32
-3.7224928e-09 6.1474834e-09 6.215717e-09 3.3531555e-09 1.676314e-08 2.0808528e-08 -8.037464e-09 -4.9631943e-09
1.7058968e-08 -1.5289165e-08 -2.1666922e-09 -2.0811064e-09 -1.9638701e-08 1.4626831e-09 -4.8505178e-09 3.7522863e-08
1.7251125e-08 -1.2472316e-08 4.922292e-09 1.7820035e-08 1.1225901e-08 5.17835e-09 -3.8780765e-08 -6.2954024e-09
-3.4329708e-09 -3.298059e-09 -4.3509775e-08 5.5679767e-09 1.19471535e-08 -1.6607382e-08 3.925513e-08 2.177607e-08

fc.weight f4 [15, 8192]
00000000: 33ce d4bb 726a 1cbc d2d1 ddbb 961e fe3b
00000010: cd69 023c 44f6 4a3c 56b1 f8b9 8d70 6d3b
00000020: 691f 0bbc 76b2 03bc 7453 11bc 96ca 9c3b
00000030: 11f6 19ba 85cc 10bb 7f64 ac3b 30fd 7ebb
00000040: 8fd2 c63b 54f9 523b b023 39bc 6da8 33bb
00000050: 0ff0 4dbc f71a 7f3c a5e0 f23b d353 ed3a
00000060: 332d b03a 9fc7 f93b 6ace 49bc fb88 62bb
00000070: ecda dcbc 5fa9 b13a b8ce 32bc f974 5bbc
00000080: eae1 bc3b 4a5f 13bc 9495 e7bb 05f5 7ebc
00000090: e3bf 273c c74c 50ba 23c5 6fbc 088b 60bb
000000a0: b0e1 31bb ae3d cd3a 7a2d cfbb 6903 f4bc
000000b0: 02be 9cbb a1d7 65bc e5c7 7fba 2f21 2dbc
000000c0: 23c2 5cbc 34a9 b53b 141b 31bc cf40 58bb
000000d0: f80a 1d3c eb87 5ebb 2260 5fbb 8887 95bb
000000e0: 6c12 f6ba e7cc a5bb 8de3 abbb 1a11 82bb
000000f0: 3d4a ff3a 1ff6 d1bb d8c3 21bc aebe 933a
00000100: 7ea0 ba3b 1dfa 033c 26a0 bfbc 5d01 5dbc
00000110: 5dd9 303b beb6 94bc 46d0 45bc a19d 5d3b
00000120: ede1 05bc 0633 813c b2b4 14bc 723d 463c
00000130: ec45 c8ba 53f3 bd3c 4f66 4fbb 21e4 29bc
00000140: 74b8 be3b 5ea6 643c 79f2 44bc 722d 20bc
00000150: 3eec 67bc 736c b5bb 6598 bf3b 178e ef3b
00000160: 75f9 953c d2fc 12bb 2389 52bc ec7c 99bb
00000170: 0867 0c3c 8fbd 0e3c d6db 6abb 13df 48bc
00000180: 8be1 d8bc 63af ae3b 1f9c fb3a 599d c4bb
00000190: 681b 723c 4474 e2b9 eb4e 0ebb 7c19 e0b9
000001a0: daf0 80bb 2e40 9abb d642 433b b733 81bb
000001b0: 823a 8ebc b549 d1bb 3a98 313c b3c2 2f3b
000001c0: bba6 a63c 8879 50bc 3f16 623a 7912 3a3c
000001d0: 8ecf dd3b e15f 48bc a959 f4bb f1e3 0d3c
000001e0: e30f c1bc 307d 88ba efcb 8e3b 65f2 143c
000001f0: 8636 a13b feea 16bc 3b6d c03b 4196 0ebb
00000200: a460 893b 5438 f8ba 4adf 8c3c 49fd c0ba
00000210: 77a1 97bb 17d3 23bc 55d1 413b f4cb 11bc
00000220: 3276 e53b 5389 d33c e98d 8ab8 1eb6 f7bb
00000230: bf92 ba3b bfd3 91bb eaf2 ba3b e1e6 b83b
00000240: f564 bc3c f5d6 0abc bdfc 93bc 7bd8 43bc
00000250: 0c27 bb3a e4c9 e83b 7890 1dbb dcb1 e33b
00000260: 8e3e e33c 4e89 1e3c 1af5 963c a105 4e3a
00000270: 4328 a43b 28a6 843c 52ba f73b 7fcd 26bc
00000280: 508e 183c 686a 8e3c 35d8 963c 0651 d23b
00000290: 252c e53b dd7f 653b 2204 783c 980d 6f3c
000002a0: 3939 6e3c af6f febb 24b9 b1bc cb6e 97bc
000002b0: daf0 193c ac61 80b9 f43e 1c3c b9ee 87bb
000002c0: a59e 123c d217 683c 6600 633b e689 4dbc
000002d0: 5170 0abc ec0e 473b d96b dfbb 8114 d13b
000002e0: 1682 c63c 8375 d53b 42ea 8d3a 6f76 e9bc
000002f0: ffbc 9ebc 5106 96bc 770f 5c3b 3f14 db38
00000300: cede 623c dd58 9e3c 26e2 9e3c e50a febb
00000310: 6ac2 013c 47e8 9cbc 7641 bfbc 632e 913b
00000320: abe1 af3a cd14 123c 977f 8dbc c147 c3bb
00000330: 4bef b73c a393 83bc 8a97 2abb 8579 623c
00000340: b218 80bc 92bd 25bc 5850 52bc 2eff 57bc
00000350: 7dbe 47bc 41e2 e4bb 3d82 5d3b b050 f4bb
00000360: 88c3 39bc 668b 1fbb 82ac 47bc d3f8 653a
00000370: 675e e53b 0747 6c3a f1d8 8138 3220 51bc
00000380: 4ffe 33bb aee6 ab3c e7a0 40bc 5e2f 9ebb
00000390: 2d9b 2abc 3e74 29bb 6875 1ebc 81e6 93bc
000003a0: 15af 0dbc 1415 d1bb 6c64 b3bc 7464 75bb
000003b0: cb63 963b a6b3 3cbc d422 88bc 7f7f 4cbc
000003c0: 299a 493b e4fd 5d3c f8eb 593c 47be 0e3c
000003d0: d224 18bc 4b76 8ebb 2842 c53b bbd0 7c3b
000003e0: 7673 5abc 24a1 99bb 4e49 133c f4b9 193c
000003f0: ab7f 57bc 67bd ebba b2b7 f5bb 144a 8ebc
-0.0064943074 -0.009546863 -0.0067693973 0.007755111 0.007959795 0.012387816 -0.00047434372 0.0036230416
-0.0084913755 -0.008038154 -0.008869994 0.0047848923 -0.00058731536 -0.002209456 0.0052610035 -0.0038908236
0.006067581 0.0032192068 -0.0113000125 -0.0027413622 -0.012569441 0.015570394 0.0074120336 0.0018106647
0.0013441205 0.0076226736 -0.012317279 -0.003456651 -0.026959859 0.0013554505 -0.010913543 -0.013394588
0.0057642357 -0.008994887 -0.0070673916 -0.015561347 0.01023862 -0.0007946011 -0.014634403 -0.0034262557
-0.0027142577 0.0015658641 -0.00632256 -0.029786782 -0.004783393 -0.014028461 -0.00097572646 -0.010566994
-0.01347402 0.005543852 -0.010809679 -0.0032997613 0.009585135 -0.0033955525 -0.00340844 -0.0045632757
-0.0018773801 -0.0050598267 -0.005245632 -0.003969324 0.0019477081 -0.0064075137 -0.009873353 0.0011272037
0.0056954017 0.008055237 -0.023391794 -0.013489095 0.0026985027 -0.018153545 -0.012073582 0.0033815878
-0.008171541 0.0157714 -0.009076284 0.012099611 -0.0015279627 0.023187315 -0.0031646674 -0.010369332
0.0058203284 0.013955681 -0.012020701 -0.00977646 -0.014155446 -0.00553661 0.0058470243 0.0073106396
0.018307427 -0.0022428525 -0.012850079 -0.0046840813 0.008569486 0.0087121865 -0.00358366 -0.012260216
-0.026474735 0.0053309663 0.0019196308 -0.0060002026 0.014777042 -0.00043192704 -0.002171452 -0.00042743597
-0.0039349617 -0.004707358 0.0029794476 -0.0039429325 -0.017361883 -0.0063869604 0.010839516 0.002681893
0.020343175 -0.012724288 0.0008624531 0.011356943 0.006769127 -0.012229891 -0.0074569774 0.0086603025
-0.023567146 -0.0010413285 0.004357807 0.0090909945 0.00491983 -0.0092113 0.0058723963 -0.0021757039
0.0041924287 -0.0018937686 0.017196316 -0.0014723922 -0.0046274024 -0.009999058 0.0029574235 -0.008898724
0.0070026154 0.025822317 -6.6067856e-05 -0.007559552 0.005693763 -0.004450291 0.005705227 0.0056427573
0.022997359 -0.008474101 -0.018064851 -0.011953468 0.0014278605 0.0071041454 -0.002404241 0.0069486927
0.02773979 0.009676291 0.01842742 0.0007859115 0.0050096824 0.01619251 0.007560053 -0.01018083
0.009311274 0.017384723 0.018413642 0.00641835 0.006993788 0.003501884 0.015137704 0.014590643
0.01454001 -0.0077647786 -0.021694727 -0.018485447 0.009395802 -0.00024486834 0.009536494 -0.004148331
0.008948957 0.014165835 0.0034637689 -0.012545085 -0.00844963 0.0030373884 -0.0068182764 0.006380618
0.024231952 0.0065142526 0.001082726 -0.028498856 -0.01937723 -0.018313559 0.0033578554 0.00010446505
0.013847066 0.019329483 0.019394945 -0.0077527636 0.007919887 -0.019153727 -0.023346644 0.0044305786
0.0013418695 0.008916092 -0.017272754 -0.0059594815 0.022452971 -0.01606161 -0.0026030266 0.013822918
-0.015636776 -0.010115998 -0.012836538 -0.013183398 -0.012191412 -0.0069849794 0.0033799552 -0.0074559078
-0.011338122 -0.0024344563 -0.012187125 0.00087727344 0.006999779 0.00090132694 6.191608e-05 -0.012764024
-0.0027464812 0.02098402 -0.011757112 -0.004827424 -0.010412973 -0.002585664 -0.0096715465 -0.018054249
-0.0086477 -0.0063806865 -0.02189847 -0.0037443908 0.004589533 -0.011517441 -0.01661817 -0.012481569
0.0030762053 0.013549302 0.013300888 0.008712358 -0.009286122 -0.0043475977 0.0060198493 0.0038576561
-0.013333192 -0.004688399 0.008989645 0.009382714 -0.013152997 -0.0017985523 -0.007498705 -0.017369308

fc.bias f4 [15]
00000000: 1606 dfba b23b 45bb 28aa ff3b cc3c 6b39
00000010: e8d3 09bb 6213 193a 2bd5 203a 32a9 d9ba
00000020: 9edd 7a3b 0e43 c9b9 905a 3e3b 7a82 90ba
00000030: 46fb 07b9 750e 99bb 039a 9cba
-0.0017015364 -0.0030095396 0.0078022666 0.00022433995 -0.0021030847 0.0005839375 0.000613528 -0.001660621
0.0038279067 -0.00038387667 0.0029045679 -0.0011025213 -0.0001296821 -0.004670913 -0.0011947755

batchnorm1.weight f4 [8]
00000000: 22bc 7d3f e6ab 7e3f 6c1c 7e3f 96f8 7d3f
00000010: a18b 7d3f 1f8d 863f d413 7e3f db01 7e3f
0.9911519 0.99481046 0.9926212 0.9920744 0.9904118 1.0511817 0.99249005 0.9922158

batchnorm1.bias f4 [8]
00000000: d681 f139 e35d c7bb b10e 633c f005 c639
00000010: b22d 8bbc f4e3 473d 1546 7abc dfd2 31bc
0.00046063837 -0.00608419 0.013858483 0.00037769927 -0.016989563 0.048801377 -0.015275498 -0.010853498

batchnorm1.running_mean f4 [8]
00000000: 3346 f641 bb54 9b41 22d0 0f40 9e33 8e41
00000010: 02ee 5bc2 acf1 3a3e f8aa 7bc2 0515 9a41
30.784277 19.416372 2.2470784 17.775204 -54.98243 0.18256253 -62.91696 19.260263

batchnorm1.running_var f4 [8]
00000000: fc83 7643 779a eb42 9f03 df42 19c6 aa42
00000010: 6b89 3d44 395b 8d43 a779 7844 91b5 c642
246.51556 117.80169 111.50707 85.38691 758.14716 282.71268 993.9008 99.35462

batchnorm2.weight f4 [16]
00000000: 5518 7f3f 8d2c 803f 5b89 7f3f e90a 813f
00000010: cbc3 803f 1a74 7f3f 96ff 803f ac16 7e3f
00000020: ca70 7f3f 9957 803f ca68 7f3f 0be2 7f3f
00000030: c919 7f3f 68e4 7f3f b04e 7e3f a1a9 803f
0.996465 1.0013596 0.9981896 1.0081455 1.0059751 0.9978653 1.0077999 0.99253345
0.9978148 1.0026733 0.9976927 0.9995429 0.9964872 0.99957895 0.9933882 1.0051767

batchnorm2.bias f4 [16]
00000000: 2d52 59bc 3c48 49bb 6b81 013c 0361 9ebb
00000010: 9a02 d7bb 010a 34bb ba17 87bb e6b1 0abc
00000020: e8aa 25bc ccf1 85bb ac9a f9bb 868a 67bb
00000030: 9177 6bbc a948 77bc bc86 adbc 37b5 0dbc
-0.013264221 -0.003071322 0.007904391 -0.004833342 -0.0065615894 -0.0027471783 -0.0041227015 -0.008465266
-0.010111548 -0.0040876623 -0.0076173153 -0.003533037 -0.014371769 -0.015093007 -0.02118241 -0.008649162

batchnorm2.running_mean f4 [16]
00000000: b357 9fbd 2caa a8bd 21b7 3f3d cb8f eabd
00000010: 914a d0bd 28eb 09bd c248 63be 4180 f33d
00000020: 37c9 873c 39ed 0bbe cfb3 18bd 6a68 7bbb
00000030: 143b b339 c4c3 adbd b84c ed3c 22cc 54be
-0.07780399 -0.08235583 0.046805505 -0.114532076 -0.101704724 -0.033671528 -0.22195724 0.11889697
0.016575439 -0.13664712 -0.037280854 -0.0038361796 0.00034185557 -0.08484605 0.028967246 -0.20780995

batchnorm2.running_var f4 [16]
00000000: ba51 bb3c 7010 a73c 9813 c83c bb19 193d
00000010: 916e 6a3c 83f5 d53c 6f45 883c 6e22 a23c
00000020: 1584 663c 16fe 523c a2cd 533c eac8 de3c
00000030: 26cb 1b3c bf22 d63c 717a 9a3c fd38 d03c
0.022866119 0.02039358 0.024423406 0.037378054 0.014308588 0.026118046 0.016634671 0.019791808
0.014069577 0.012877962 0.012927445 0.027195413 0.009508884 0.026139615 0.018857213 0.0254178

batchnorm3.weight f4 [32]
00000000: 9d58 863f 657d 883f c299 863f 3539 8a3f
00000010: 8e31 883f f72b 873f 3102 883f e5c6 853f
00000020: 4371 843f 35d9 873f 46e7 893f 9a39 8a3f
00000030: 711b 8a3f 4e04 863f f174 883f 487c 893f
00000040: 05ac 893f 8abe 883f 90b7 853f 1bde 853f
00000050: b722 8b3f 46d6 863f ee7a 863f 35c9 863f
00000060: f84e 863f 3008 8a3f 079a 863f 8e56 8a3f
00000070: 51b6 873f e530 8a3f ef76 873f eff0 863f
1.0495793 1.0663267 1.0515673 1.0798708 1.0640123 1.0560292 1.0625669 1.0451323
1.0347065 1.0613161 1.0773704 1.0798829 1.0789624 1.0470064 1.0660688 1.0741053
1.0755621 1.0683148 1.0446644 1.0458406 1.0869969 1.0534141 1.0506265 1.0530154
1.0492849 1.0783749 1.0515755 1.0807664 1.0602514 1.0796171 1.0583171 1.0542277

batchnorm3.bias f4 [32]
00000000: 71ff a63c 1857 da3c 6c23 dc3c 8a98 133d
00000010: 7d63 d33c a8da a33c 48fd 153d 85a9 843c
00000020: 1176 af3c 4d1e b73c a374 053d 0a3b f63c
00000030: 1071 293d aaf4 d53c 7714 e33c d1af 1f3d
00000040: c6b6 083d 89b1 f53c 712b cd3c ffdd b63c
00000050: e948 f13c 72ce ec3c 80e6 d63c c1bb f63c
00000060: d204 d93c f909 063d d992 e03c 2fb4 0d3d
00000070: 096d ef3c a242 133d 3684 113d 01f5 eb3c
0.020385476 0.026652858 0.02687236 0.036034144 0.025804276 0.020001724 0.0366185 0.016194114
0.021418603 0.022353316 0.032581937 0.030057449 0.04136759 0.026117641 0.02771972 0.03898603
0.03337743 0.029991882 0.025045129 0.022322653 0.029453712 0.028907035 0.026232958 0.030118825
0.026491556 0.032724354 0.027413772 0.034595665 0.029226797 0.035952218 0.035526477 0.02880335

batchnorm3.running_mean f4 [32]
00000000: d7af a23d 72d6 95bc 0b2a a33c 748b 7f3d
00000010: f049 9abd bb25 603e cb3a 0fbe 7a1c d03d
00000020: ccc7 8dbd 3818 f43d 826d f83d 808d 393e
00000030: fe97 8b3c 3e77 ccbd 1e85 0abc 20c9 033d
00000040: 928c f33d 3ba7 cc3c 8940 6cbe 3b70 493d
00000050: 8e45 d63d 8836 943d e25d a53d 9c7a 8ebd
00000060: 2e77 543c 10c4 743d bf5a edbd 0ba3 9a3d
00000070: 7642 303d 9afc 803d 6a20 3bbe 961b 34ba
0.07943695 -0.018290732 0.019917509 0.062388852 -0.07533634 0.21889393 -0.13987271 0.101616815
-0.06922874 0.11918682 0.12130262 0.18120384 0.017040249 -0.09983681 -0.008454589 0.03217423
0.11892046 0.024982085 -0.23071493 0.049179297 0.10462485 0.072369635 0.08074547 -0.0695698
0.012967868 0.059757292 -0.11589574 0.07550629 0.043032132 0.0629818 -0.18274084 -0.00068705657

batchnorm3.running_var f4 [32]
00000000: ac8a 2b3c 3ec1 233c 8d94 543c 364d 733c
00000010: 9764 613c ec46 553c c1f4 1f3c b711 3a3c
00000020: 82c1 4d3c cbb1 293c e917 5e3c 0f82 503c
00000030: 8da8 333c 6b8b 2f3c 5ab7 103c 6dbd 0e3c
00000040: b37a 2f3c 2a05 883c 2bc6 a23c f07f 2d3c
00000050: 3fc6 8d3c 1d73 3f3c 7b62 f43b 342f 053c
00000060: 2e7d 133c d73a 5d3c cc1f 0b3d a131 333c
00000070: df82 3c3c bb85 4e3c a602 873c 1f2d 083c
0.010470074 0.009994803 0.01297487 0.0148499515 0.013756893 0.013017397 0.009762944 0.011356763
0.012558343 0.010357331 0.013555505 0.012726321 0.010965479 0.010714392 0.008832777 0.008712155
0.010710406 0.016604025 0.019869884 0.010589585 0.017306445 0.01168516 0.007458029 0.00812893
0.009002013 0.013502798 0.03396587 0.010937125 0.0115058115 0.012605126 0.016480755 0.008311539
