models/dropout.pth (torch, 518528 bytes, 8 tensors)

conv1.weight f4 [8, 3, 3, 3]
-0.0027618362 0.0010411475 -0.013901893 -0.014818233 -0.023556847 0.0032458145 -0.018670876 -0.0097045265
-0.010189664 0.0051982603 -0.011836775 -0.0060761156 0.0059846463 0.002588641 0.0030089978 -0.0005988977
-0.0020786482 0.017657064 0.0023907337 0.010614103 -0.0022424124 0.01281926 0.005188172 -0.0048291697
-0.0043040495 0.031368397 -0.0217944 0.043367334 0.052933257 0.06707132 0.003501378 -0.017720424
0.016158056 -0.0815736 -0.08453811 -0.06108528 0.024069268 0.045893565 0.061439957 -0.008299067
-0.009290369 0.040298425 -0.0657374 -0.070922956 -0.05283934 0.055051085 0.041172206 0.07505265
-0.027461058 -0.016777689 0.041124083 -0.054467186 -0.076497346 -0.037821624 0.008806726 -0.010185673
-0.008932596 -0.0028090752 0.011117696 -0.021193573 -0.007951802 -0.03042781 -0.0037066455 -0.017445192
-0.014275094 0.007656374 0.012088894 0.008445635 0.0005525632 0.0023516202 -0.008309199 0.013997443
-0.003201485 -0.021372233 0.01276637 0.011767879 -0.013888728 0.007912146 -0.0021931892 -0.008641811
0.0012676327 0.057443026 0.055027105 0.016568702 0.044473037 0.02683981 -0.007675016 -0.014055754
-0.016148321 -0.063550875 0.050828803 0.05450245 0.010334487 0.032541875 0.047099687 6.25528e-05
0.01052895 -0.020553092 -0.06126739 0.05841456 0.055293318 0.024786036 0.030939443 0.025076676
-0.011241926 -0.023829231 -0.013394705 -0.061923474 0.042898957 0.058815457 0.0229281 0.0118165575
0.005790255 -0.023228435 -0.014888421 -0.038064484 -0.05130461 0.041730646 0.0469141 0.02870349
0.02205117 0.0010806452 -0.03490987 -0.02814661 -0.020698171 -0.07394923 0.043975767 0.036233723
0.054069303 -0.0042960728 -0.0074192565 -0.034882076 0.0004389064 -0.03464533 -0.047553826 -0.11271865
-0.12649216 -0.11952248 -0.028088817 -0.008522599 -0.016306125 0.10331428 0.12363382 0.11876784
-0.09906036 -0.11996113 -0.11778417 -0.019799702 -0.010650009 -0.0069824555 0.11984341 0.115083195
0.104743004 -0.09125528 -0.10258172 -0.108933695 -0.017131276 0.0015699724 -0.014982537 0.12331394
0.122786835 0.123946175 -0.0030261073 0.033467397 0.004979903 0.020544803 0.05265276 0.022734199
-0.0074122287 0.00082512473 -0.010697582 0.016180875 0.016718078 -0.007012541 0.019206814 0.054857887
0.039073553 0.0022546833 0.012896444 -0.0012208781 0.0013210982 0.030755974 0.0014800659 0.023573082
0.06349916 0.019578809 -0.017877493 0.011256322 0.0016833023 0.04335395 0.015790673 0.03061079
0.014430726 -0.017864406 0.0063964576 -0.010693882 -0.04941924 -0.040234413 0.035729665 0.03408073
0.020969432 -0.0017215405 0.009301737 -0.015393174 -0.030076222 -0.061047073 -0.026279839 0.0396957
0.03918409 0.025670253 0.023768848 -0.0075143636 -0.0099972775 -0.024932148 -0.0427969 -0.03415529
00000000: ecff 34bb 1d77 883a c4c4 63bc 2dc8 72bc
00000010: 4afa c0bc bbb7 543b aaf3 98bc bcff 1ebc
00000020: 8cf2 26bc 2b56 aa3b 08ef 41bc 271a c7bb
00000030: da1a c43b 30a6 293b 9b32 453b 58ff 1cba
00000040: ee39 08bb 8ca5 903c dbad 1c3b c6e6 2d3c
00000050: 70f5 12bb e007 523c 8b01 aa3b 033e 9ebb
00000060: fc08 8dbb 267c 003d 2b8a b2bc f2a1 313d
00000070: 8bd0 583d b05c 893d 6077 653b 6c2a 91bc
00000080: e65d 843c 0f10 a7bd 5122 adbd 8f34 7abd
00000090: ea2c c53c e4fa 3b3d 77a8 7b3d cff8 07bc
000000a0: a236 18bc f60f 253d 54a1 86bd 0e40 91bd
000000b0: 106e 58bd 3f7d 613d 30a4 283d 34b5 993d
000000c0: 03f6 e0bc 5d71 89bc ba71 283d fc18 5fbd
000000d0: a4aa 9cbd d9ea 1abd 164a 103c cfe1 26bc
000000e0: 065a 12bc 7618 38bb ff26 363c 259e adbc
000000f0: 4648 02bc be43 f9bc 31eb 72bb 38e9 8ebc
00000100: 15e2 69bc 52e2 fa3b 7f10 463c 905f 0a3c
00000110: e3d9 103a a41d 1a3b 4e23 08bc 8855 653c
00000120: 01d0 51bb d214 afbc 092a 513c 10ce 403c
00000130: 8c8d 63bc f2a1 013c 9cbb 0fbb 6296 0dbc
00000140: b226 a63a 6149 6b3d 1a64 613d 16bb 873c
00000150: 5c29 363d 29df db3c b37e fbbb 1b4a 66bc
00000160: 7c49 84bc f626 82bd dd31 503d f63d 5f3d
00000170: fb51 293c a14a 053d 9aeb 403d c72e 8338
00000180: 9e81 2c3c f55e a8bc 84f3 7abd 1b44 6f3d
00000190: 3f7b 623d 160c cb3c b774 fd3c 9a6d cd3c
000001a0: 0e30 38bc 8535 c3bc 7775 5bbc 78a3 7dbd
000001b0: d1b6 2f3d 7ae8 703d b6d3 bb3c 3c9a 413c
000001c0: 2ebc bd3b 8f49 bebc 90ee 73bc 81e9 1bbd
000001d0: c824 52bd c1ed 2a3d 0029 403d 9523 eb3c
000001e0: a8a4 b43c 70a4 8d3a a7fd 0ebd b893 e6bc
000001f0: 368f a9bc b272 97bd ef1f 343d d069 143d
00000200: c677 5d3d 12c6 8cbb 3c1d f3bb 82e0 0ebd
00000210: 051d e639 43e8 0dbd cdc7 42bd 09d9 e6bd
00000220: 2987 01be 34c8 f4bd 851a e6bc 5fa2 0bbc
00000230: 6c94 85bc 7096 d33d ba33 fd3d 8e3c f33d
00000240: 28e0 cabd 2eae f5bd d438 f1bd fc32 a2bc
00000250: 607d 2ebc 15cd e4bb 7670 f53d bdb0 eb3d
00000260: 8083 d63d 0ce4 babd 5d16 d2bd a118 dfbd
00000270: e456 8cbc 88c7 cd3a 5179 75bc 058c fc3d
00000280: aa77 fb3d 7ed7 fd3d a851 46bb 1c15 093d
00000290: 742e a33b 934d a83c 6caa 573d 123d ba3c
000002a0: 48e2 f2bb 2f4d 583a e944 2fbc c18d 843c
000002b0: 5af4 883c 75c9 e5bb 9c57 9d3c aab2 603d
000002c0: 970b 203d 4fc3 133b 9b4b 533c df05 a0ba
000002d0: b328 ad3a f4f3 fb3c c5fe c13a 561c c13c
000002e0: d90b 823d bd63 a03c d273 92bc 706c 383c
000002f0: 41a2 dc3a e993 313d 715b 813c 7bc3 fa3c
00000300: da6e 6c3c 6058 92bc 6099 d13b 6435 2fbc
00000310: d46b 4abd d7cc 24bd 4559 123d 3c98 0b3d
00000320: 16c8 ab3c 50a5 e1ba 5066 183c a733 7cbc
00000330: 6962 f6bc 7f0c 7abd d148 d7bc f597 223d
00000340: 7f7f 203d 6c4a d23c e3b6 c23c 0d3b f6bb
00000350: 9fcb 23bc 813e ccbc cd4b 2fbd 6be6 0bbd

conv1.bias f4 [8]
-7.938157e-06 0.00040967972 4.262877e-06 -0.0026168968 -0.00011822194 0.0013443716 -0.0036154066 0.00018067751
00000000: 202e 05b7 48ca d639 d609 8f36 3e80 2bbb
00000010: eced f7b8 a035 b03a 75f0 6cbb 4074 3d39

conv2.weight f4 [16, 8, 3, 3]
0.0002124929 -0.0022287406 -0.0076949107 -0.006124889 0.008123094 -0.019238954 -0.0005335195 0.0047597284
-0.007513265 0.041880835 0.043354288 0.020670699 -0.0011409029 0.034402948 -0.010614176 -0.006513293
-0.009360812 -0.003348457 0.0013558506 -0.010769768 0.0052013723 0.015218455 0.0067229336 0.0049482947
-0.00535867 0.0069686742 0.0016950761 0.052648053 0.054499112 0.0607764 0.005322274 0.02249695
-0.012366853 -0.035089403 -0.06315617 -0.046530083 0.025323194 0.011601821 0.021742526 0.046656538
0.0338727 0.01673858 -0.011382855 -0.023462456 -0.00445214 0.042350218 0.049217325 0.007739051
-0.014977068 -0.0138830505 -0.018415626 -0.0069745923 0.015160675 0.026920903 0.06869374 0.09839357
0.084150515 -0.02855276 -0.035288796 -0.05463837 -0.049603637 -0.08735055 -0.050185874 0.011873688
0.023187965 0.025056956 0.014353522 0.019006304 0.008702157 0.0039170147 -0.0019571795 -0.011548682
-0.005112937 -0.011588454 -0.0047939066 0.02264307 0.0058607254 0.009200649 0.0011828392 0.00020779065
0.0047185295 0.020582339 0.0146112945 -0.017595178 0.0014982736 0.02879218 0.00965239 0.0021760096
-0.0040871394 0.0127788475 -0.013411648 0.0076861004 -0.0039482685 0.0012169498 0.006360435 0.016469873
0.0070974864 -0.0002269776 0.024221195 -0.027539229 -0.023659244 0.03350479 -0.028165508 -0.010301652
0.031249126 -0.014285812 -0.01553939 0.015433159 0.02032543 -0.0012656777 -0.016493596 -0.018332396
-0.006691999 0.0023762383 0.0020075482 0.009271949 -0.015246974 -0.0134423645 -0.0049869544 0.026059316
0.03809406 -0.009243277 -0.009583941 0.016967608 0.04254488 -0.039736282 -0.055653717 0.04042763
0.052198216 -0.053209852 -0.012455791 0.04678696 -0.044680342 -0.031852216 0.025623428 -0.0029294
0.014803286 -0.0011091998 0.0070613385 -0.0071875877 0.013023407 -0.0059703947 0.00059538195 0.0036335299
-0.010563818 0.0060500964 -0.0013241506 -0.015274911 -0.013078428 -0.012191799 0.0041936734 -0.010286155
0.0051664985 -0.028252142 -0.029928993 -0.04476208 -0.00987503 -0.026461855 -0.030029552 -0.0027071894
-0.019357996 0.004948463 0.0014179053 0.00027743165 -0.0017607937 0.00066970283 0.004091415 -0.020117147
-0.004298783 -0.0020485537 -0.016193766 -0.0087262485 -0.0020043892 0.005338414 -0.008048193 0.005674065
0.024999568 -0.0013130327 0.0033741356 0.016080854 -0.027652463 -0.024346408 -0.016022395 -0.02732166
-0.027282482 -0.002699627 -0.004657088 0.0018413049 0.01034584 -0.020799933 -0.03181468 -0.044511262
-0.057219468 -0.06806936 -0.060204994 -0.05006429 -0.043166626 -0.052972477 0.00023165566 0.030094692
0.009996992 0.009068257 0.031429347 0.008506051 0.046664078 0.048382316 0.01602221 -0.029125007
-0.011282852 -0.01917738 -0.030962335 -0.017073106 -0.015342971 -0.009971497 -0.0075190035 0.012805069
-0.02542821 -0.005289665 -0.0073077437 0.006464705 -0.0055684014 0.008383565 0.0042199204 -0.0028492024
0.013688475 -0.006713315 -0.0055198646 -0.008446441 -0.00016322422 -0.024620838 0.0072630346 -0.009218496
-0.0035832704 -0.0033988901 0.0064412244 -0.008361379 0.00038728825 -0.0032160117 0.012337695 0.014857248
-0.0005140628 -0.0012140683 -0.008887018 -0.01576691 -0.020751795 -0.004222134 0.007369419 -0.016970105
0.0030363407 -0.012044509 0.014886845 -0.013226615 -0.0036842166 0.0046912916 0.008009124 0.0032294893
00000000: a1d0 5e39 1010 12bb 9725 fcbb 4bb3 c8bb
00000010: ba16 053c 039b 9dbc e3db 0bba 7ff7 9b3b
00000020: d631 f6bb 3d8b 2b3d 4494 313d 9955 a93c
00000030: 598a 95ba 1bea 0c3d 15e7 2dbc 766d d5bb
00000040: 175e 19bc c971 5bbb ccb6 b13a ae73 30bc
00000050: 4670 aa3b d456 793c 0e4c dc3b 4e25 a23b
00000060: c897 afbb 7a59 e43b 512d de3a 7ca5 573d
00000070: 763a 5f3d adf0 783d 7866 ae3b 864b b83c
00000080: 579e 4abc e8b9 0fbd 0658 81bd 5496 3ebd
00000090: 9672 cf3c 9015 3e3c 621d b23c ed1a 3f3d
000000a0: 1abe 0a3d 591f 893c 277f 3abc 5634 c0bc
000000b0: 42e3 91bb 6c77 2d3d 1b98 493d dd97 fd3b
000000c0: 6062 75bc bc75 63bc 5edc 96bc 1f8b e4bb
000000d0: 7b64 783c 3a89 dc3c 4eaf 8c3d 9182 c93d
000000e0: 1b57 ac3d 7ae7 e9bc fc8a 10bd 7ccc 5fbd
000000f0: 2f2d 4bbd d8e4 b2bd b48f 4dbd db89 423c
00000100: b0f4 bd3c 3f44 cd3c 092b 6b3c 1cb3 9b3c
00000110: 7e93 0e3c 4d5a 803b 0644 00bb af36 3dbc
00000120: 6d8a a7bb 80dd 3dbc 3416 9dbb f67d b93c
00000130: 540b c03b 52be 163c 7f09 9b3a 61e2 5939
00000140: e59d 9a3b 4b9c a83c 3664 6f3c c323 90bc
00000150: b861 c43a 94dd eb3c 0f25 1e3c 629b 0e3b
00000160: 69ed 85bb 5f5e 513c 87bc 5bbc afdb fb3b
00000170: 7a60 81bb 0f82 9f3a 326b d03b d4eb 863c
00000180: 0892 e83b d600 6eb9 876b c63c f399 e1bc
00000190: 08d1 c1bc 523c 093d 5abb e6bc 43c8 28bc
000001a0: 2bfe ff3c 0a0f 6abc ed98 7ebc 5cdb 7c3c
000001b0: 8481 a63c 19e5 a5ba 941d 87bc d22d 96bc
000001c0: 8e48 dbbb aaba 1b3b 1291 033b 5fe9 173c
000001d0: 72ce 79bc 5d3d 5cbc 9b69 a3bb 597a d53c
000001e0: 8408 1c3d 1d71 17bc f605 1dbc a7ff 8a3c
000001f0: 8a43 2e3d 83c2 22bd 27f5 63bd 7197 253d
00000200: cccd 553d 93f2 59bd 6013 4cbc afa3 3f3d
00000210: bc02 37bd 7877 02bd 39e8 d13c 2dfb 3fbb
00000220: 7b89 723c 9262 91ba cd62 e73b db85 ebbb
00000230: 2160 553c 4da3 c3bb 6813 1c3a 8420 6e3b
00000240: dd13 2dbc e33f c63b 1f8f adba 9f43 7abc
00000250: e746 56bc 1cc0 47bc 156b 893b 4387 28bc
00000260: bb4b a93b 0971 e7bc a62d f5bc 7158 37bd
00000270: e1ca 21bc 88c6 d8bc 8900 f6bc 1a6b 31bb
00000280: a994 9ebc b726 a23b 02d9 b93a 3f74 9139
00000290: 6fca e6ba ff8e 2f3a 4711 863b b7cc a4bc
000002a0: cedc 8cbb 0741 06bb caa8 84bc 8af8 0ebc
000002b0: 125c 03bb dded ae3b 91dc 03bc 82ed b93b
000002c0: e5cb cc3c 111a acba 9a20 5d3b ffbb 833c
000002d0: 6b87 e2bc 1e72 c7bc 6641 83bc add1 dfbc
000002e0: 837f dfbc 3aec 30bb 7c9a 98bb f157 f13a
000002f0: 9981 293c 9f64 aabc 1c50 02bd 7151 36bd
00000300: f65e 6abd f367 8bbd 8399 76bd 3710 4dbd
00000310: 7dcf 30bd abf9 58bd 98e8 7239 2589 f63c
00000320: 6cca 233c 0793 143c 0fbc 003d f75c 0b3c
00000330: d522 3f3d 892c 463d 0241 833c 9197 eebc
00000340: b6db 38bc e119 9dbc b9a4 fdbc e6dc 8bbc
00000350: 1661 7bbc 7d5f 23bc f961 f6bb 5acc 513c
00000360: d24e d0bc ed54 adbb cc75 efbb e0d5 d33b
00000370: 2377 b6bb 385b 093c 4247 8a3b afb9 3abb
00000380: a045 603c 5efb dbbb fbdf b4bb f162 0abc
00000390: 2b27 2bb9 a4b1 c9bc c0fe ed3b 2d09 17bc
000003a0: 4dd5 6abb eabf 5ebb e810 d33b 2afe 08bc
000003b0: f30c cb39 b9c3 52bb 0b24 4a3c d16b 733c
000003c0: 2cc2 06ba 5f21 9fba db9a 11bc 9b29 81bc
000003d0: abff a9bc d459 8abb 2b7b f13b e404 8bbc
000003e0: 58fd 463b 5556 45bc f4e7 733c 72b4 58bc
000003f0: e672 71bb 68b9 993b b338 033c d7a5 533b

conv2.bias f4 [16]
-0.0027057214 -0.00028871247 -0.005209469 1.1420341e-06 -0.0009067829 0.00047363617 -0.0015705425 -0.00045077447
0.00019840615 -0.00029781944 -4.574571e-06 -0.0015324778 -0.003438674 3.6691627e-06 -0.00012377911 -0.0068339473
00000000: 7952 31bb 555e 97b9 31b4 aabb fe47 9935
00000010: 2cb5 6dba 5f52 f839 a9da cdba ed55 ecb9
00000020: 3f0b 5039 a624 9cb9 447f 99b6 6cdd c8ba
00000030: 605b 61bb bc3b 7636 b4ca 01b9 4eef dfbb

conv3.weight f4 [32, 16, 3, 3]
-0.01573224 -0.01633764 -0.00724687 -0.013656891 0.061284643 0.03677352 -0.00511856 0.017023286
0.011430639 0.0011998292 -0.027034467 -0.03399636 0.008567769 0.0026259485 -0.02156624 -0.010801128
0.002605714 -0.01362824 0.0064673927 0.035817984 -0.007979116 0.0036125998 0.008796819 -0.025611613
-0.037478395 -0.035961974 -0.029539807 0.003803582 -0.012493141 0.023455476 0.004464312 0.024175085
-0.0013821904 -0.017088432 -0.00445055 0.010068854 -0.018374415 -0.006020188 -0.0010669054 -0.006504109
0.023416527 0.032039437 0.021262862 0.05165259 -0.02362553 0.0062094033 -0.00019723238 0.01073808
0.0060050897 0.007761618 -0.02795619 0.00093309983 0.006072103 -0.006869789 0.017018802 0.041330703
0.018537689 -0.025619177 0.008349428 -0.008750377 -0.038012337 0.0013667252 0.008839045 -0.0023040925
-0.007727151 0.0091591375 -0.0043066326 -0.008754431 0.0106362635 -0.021138957 0.0073074945 -0.0107247345
0.04303081 0.04420378 -0.013704539 -0.02707839 -0.008692435 -0.024340581 0.0038492547 -0.01868175
-0.01992321 -0.0052016396 -0.0011979755 0.0007554724 -0.012861972 0.0007760112 0.0028429015 0.001873139
-0.012067874 0.011892863 -0.010595521 -0.011199709 0.0081348 -0.013599002 -0.001850477 0.0028115038
-0.008055361 0.0036907457 0.009079753 -0.00024726495 -0.015864596 -0.047263235 0.012823613 0.017219156
-0.039165992 -0.030320527 -0.008964541 -0.02479293 -0.0033060636 -3.262174e-05 -0.009427215 0.0265126
0.016480308 -0.023130909 -0.02358381 -0.011369634 -0.0049777427 0.012680296 0.002981627 -0.013461129
0.0060179415 -0.0034514018 0.0034060588 -0.0048249774 0.019692067 0.002423544 -0.014782066 -0.009587747
-0.0010492133 -0.023039483 -0.02010512 0.0019400461 0.00011240959 -0.014086133 -0.0029805636 -0.009221695
0.012240123 0.0049313703 -0.020188186 0.05381666 0.010002337 -0.008751365 -0.014602362 -0.03604119
-0.008425061 0.028951041 0.029671306 -0.0040602447 -0.017015364 0.0012993685 0.0031653028 0.00692526
0.014068766 0.029184487 0.0050098323 0.030267593 0.015435732 0.00569657 -0.004575522 0.0060107918
0.026171299 0.0019775562 -0.010822848 -0.01792142 -0.023383461 -0.000520645 -0.0080352295 -0.03616194
-0.02213821 -0.03034495 -0.014419818 2.7228198e-05 -0.016970905 -0.0004328538 -0.012995576 -0.010322494
0.011694765 -0.010026946 0.018965285 0.0018744124 -0.017683966 0.02053985 0.025865033 -0.027590688
-0.001475501 0.005206331 0.0113562355 0.01936765 0.0061866203 -0.004206641 -0.006844071 0.007783526
0.014971448 -0.0061530047 0.010691587 0.00040453643 -0.0025135463 0.015048818 0.008208433 -0.013982942
-0.0007238828 -0.0073335227 0.016077138 0.0010556693 0.032639794 -0.02320533 -0.002833785 0.005671302
0.0064504426 -0.0005658613 -0.00023881454 -0.0064292983 0.014272883 -0.001651885 -0.007971902 0.004830399
-0.012907096 -0.012027555 -0.019959241 -0.0010361838 0.0038131627 0.0001033541 0.00012658237 -0.01651505
-0.009604366 0.002852656 0.025338389 0.0101521695 0.017096953 0.014474041 0.00360647 -0.005424535
-0.0024517847 0.005288497 -0.009556604 -0.015815863 0.0097995475 -0.00018691615 -0.007800414 0.0005356541
-0.00074876845 0.003871068 -0.0023898818 -0.0047542965 -0.013466476 0.012396776 0.0022666145 0.0005347898
-0.0059570516 0.010999774 -0.0047175284 0.0035540445 -0.0026163866 0.002267337 -0.005283535 0.002808211
00000000: e6e0 80bc 84d6 85bc 2777 edbb 27c1 5fbc
00000010: 9b05 7b3d d59f 163d 98b9 a7bb 6b74 8b3c
00000020: 9347 3b3c 9643 9d3a 6377 ddbc c43f 0bbd
00000030: d45f 0c3c 1b18 2c3b afab b0bc 37f7 30bc
00000040: a0c4 2a3b fb48 5fbc 6cec d33b e1b5 123d
00000050: d7ba 02bc 5ec1 6c3b 8820 103c 72cf d1bc
00000060: f282 19bd dd4c 13bd 77fd f1bc 8445 793b
00000070: 08b0 4cbc b325 c03c 5d49 923b d40a c63c
00000080: 9d2a b5ba 0afd 8bbc ebd5 91bb d6f7 243c
00000090: f185 96bc ff44 c5bb 68d7 8bba 6c20 d5bb
000000a0: 04d4 bf3c c93b 033d 742f ae3c ab91 533d
000000b0: 548a c1bc 4078 cb3b 2ad0 4eb9 c6ee 2f3c
000000c0: 58c6 c43b 2c55 fe3b 6104 e5bc 459b 743a
000000d0: 7ef8 c63b f81b e1bb 046b 8b3c 624a 293d
000000e0: 5adc 973c 4fdf d1bc 0acc 083c be5d 0fbc
000000f0: d3b2 1bbd b023 b33a a4d1 103c 4200 17bb
00000100: 0a34 fdbb 3510 163c a71e 8dbb bf6e 0fbc
00000110: b943 2e3c 9b2b adbc b573 ef3b ccb6 2fbc
00000120: 1341 303d 060f 353d 0189 60bc 80d3 ddbc
00000130: b76a 0ebc e665 c7bc c743 7c3b 780a 99bc
00000140: 0036 a3bc 8472 aabb 6305 9dba e50a 463a
00000150: 05bb 52bc 3b6d 4b3a f94f 3a3b 1d84 f53a
00000160: 55b8 45bc 48da 423c d698 2dbc fc7e 37bc
00000170: d347 053c 59ce 5ebc b48b f2ba 3541 383b
00000180: a2fa 03bc 70e0 713b 3fc3 143c 57a3 81b9
00000190: 78f6 81bc 1897 41bd 221a 523c 300f 8d3c
000001a0: 856c 20bd c162 f8bc 03e0 12bc 8b1a cbbc
000001b0: 8baa 58bb 54d3 08b8 9b74 1abc f430 d93c
000001c0: b601 873c 087d bdbc d632 c1bc b447 3abc
000001d0: 551c a3bb 04c1 4f3c 6667 433b 118c 5cbc
000001e0: 2732 c53b ea30 62bb 2f38 5f3b d81a 9ebb
000001f0: 4251 a13c 52d4 1e3b 7b30 72bc ed15 1dbc
00000200: c285 89ba 4cbd bcbc 7eb3 a4bc 2549 fe3a
00000210: 70bd eb38 86c9 66bc 8f55 43bb 9816 17bc
00000220: cc8a 483c 5597 a13b b261 a5bc dc6e 5c3d
00000230: d8e0 233c e361 0fbc bf3e 6fbc ed9f 13bd
00000240: 4409 0abc bc2a ed3c 3d11 f33c cd0b 85bb
00000250: ce63 8bbc 924f aa3a f870 4f3b 4bed e23b
00000260: ae80 663c 4e14 ef3c 8529 a43b bef3 f73c
00000270: 27e6 7c3c 4baa ba3b 43ee 95bb 2df6 c43b
00000280: 3165 d63c e399 013b 5152 31bc f1cf 92bc
00000290: ac8e bfbc e57b 08ba 32a6 03bc 8b1e 14bd
000002a0: 315b b5bc f995 f8bc 1a41 6cbc 1c68 e437
000002b0: 9106 8bbc a7f0 e2b9 65eb 54bc ae1f 29bc
000002c0: 669b 3f3c 0f48 24bc 165d 9b3c d8ae f53a
000002d0: f7dd 90bc 3043 a83c e8e2 d33c de05 e2bc
000002e0: 9965 c1ba df99 aa3b 810f 3a3c e8a8 9e3c
000002f0: 22b9 ca3b ddd7 89bb 3b44 e0bb f30c ff3b
00000300: ce4a 753c 259f c9bb c42b 2f3c f617 d439
00000310: 4fba 24bb 518f 763c aa7c 063c b618 65bc
00000320: f4c2 3dba 0c4e f0bb 34b4 833c 625e 8a3a
00000330: 4eb1 053d 1b19 bebc 06b7 39bb 54d6 b93b
00000340: 3c5e d33b 4f56 14ba 4a6a 7ab9 ddac d2bb
00000350: cfd8 693c 1084 d8ba 959c 02bc 5348 9e3b
00000360: 4978 53bc 390f 45bc 9081 a3bc 8fd0 87ba
00000370: 41e6 793b cfbf d838 32bb 0439 924a 87bc
00000380: a15b 1dbc a0f3 3a3b 7492 cf3c 4955 263c
00000390: e90e 8c3c 8724 6d3c 875a 6c3b 4cc0 b1bb
000003a0: 1fae 20bb 214b ad3b 4d93 1cbc 4590 81bc
000003b0: 488e 203c ecfe 43b9 9e9a ffbb 236b 0c3a
000003c0: 0049 44ba beb1 7d3b 909f 1cbb eec9 9bbb
000003d0: 7fa2 5cbc d91b 4b3c 7b8b 143b 2331 0c3a
000003e0: 5f33 c3bb 6538 343c 7f95 9abb f9ea 683b
000003f0: af77 2bbb 9a97 143b 8121 adbb f609 383b

conv3.bias f4 [32]
-0.040415354 0.0020825001 0.009871785 0.0009813312 -0.0016608171 0.00027412616 -0.0030788674 -0.009000711
-0.02106444 -0.0013629213 0.00020046256 0.009918381 -0.000783925 -0.0016257956 0.0012048172 0.01509905
-0.0013241022 -0.025494508 -0.00043856932 -0.00067633187 -0.005501677 -0.00024799202 -0.0020444093 -0.022174047
-0.0066930493 -0.008381466 -0.0005952385 -0.005094635 0.0012706632 -0.003386978 0.0034990713 -0.00044432984
00000000: 928a 25bd 8e7a 083b 44bd 213c 03a0 803a
00000010: c6af d9ba 97b8 8f39 d3c6 49bb b877 13bc
00000020: 558f acbc 0da4 b2ba 4233 5239 b580 223c
00000030: 5180 4dba a618 d5ba f5ea 9d3a 0162 773c
00000040: 7f8d adba dcd9 d0bc c7ef e5b9 dd4b 31ba
00000050: 6947 b4bb ed04 82b9 7ffb 05bb 59a6 b5bc
00000060: 5e51 dbbb 6b52 09bc c809 1cba e5f0 a6bb
00000070: 628c a63a 10f8 5dbb ad50 653b f1f4 e8b9

fc.weight f4 [15, 8192]
0.013236843 -0.0049652564 -0.013370779 0.0013950771 0.0049557323 0.0010992751 -0.0048061055 0.0052706343
-0.03027886 -0.00032283543 -0.0025065094 -0.009393254 -0.022279775 -0.0041533164 -0.001074725 0.021326514
-0.0033019844 -0.0039734836 0.004006266 0.008209468 0.0018262031 -0.0106212655 -0.0007351422 -0.0035306937
0.01785729 -0.0001975614 0.027223809 -0.005428611 -0.028734896 -0.0159403 -0.032023016 -0.017507548
-0.0076623377 -0.0031424614 0.0026428166 0.00072877255 -0.011186963 -0.012910019 0.008250408 0.010238403
0.010312673 -0.023461025 -0.0050661974 -0.0142086195 0.002073866 -0.0067412066 -0.013119937 0.008501284
0.0026886694 0.009518833 -0.016520616 -0.015364844 0.0061694565 -0.009176512 0.011156272 -0.012053214
0.0037900165 -0.00491459 -0.011610119 -0.019773236 0.012422478 0.0022846973 -0.022126447 -0.00077188754
-0.0060260617 -0.025371367 -0.00074950146 0.0032695932 -0.0071262326 -0.026898421 0.0070796236 -0.0068638865
-0.006097606 -0.0055314084 0.0020153143 -0.0056036734 -0.018930472 0.018065743 0.027128462 -0.012528526
-0.017040245 -0.0112075135 -0.003121143 -0.0030354257 -0.011677123 0.010232695 -0.018817274 -0.011166818
-0.010135404 -0.009864737 -0.0058035585 -0.030915208 -0.0044317995 0.003737855 -0.015178206 0.00023309988
0.009910584 0.016499719 -0.013618648 -0.010366582 -0.009757318 -0.0036793961 0.0010446829 -0.0019056753
0.012877301 -0.0035691943 -0.0062195743 -0.009270395 -0.0145399105 0.008495959 0.015798956 0.0213765
0.010848183 0.018826393 0.0057486435 -0.012941629 -0.008971445 0.019743748 -0.0022190956 -0.0050978516
0.009812419 -0.008559735 -0.0062575717 -0.020104742 -0.009953989 0.002296875 0.001925807 0.009219921
-0.01925692 0.0029650428 0.010108596 0.015875163 0.009093887 0.0052266903 0.0022099307 0.0038909556
0.0040431386 0.003356301 -0.0018986182 0.0061020646 -0.008551524 -0.014307543 -0.007133368 -0.004186975
-0.013711548 -0.021569157 -0.0060222945 0.013592902 0.015763722 -0.0013961844 -0.0048925034 -0.0041763973
-0.0033622067 -0.001099985 0.0013632996 0.016924275 0.020671131 0.009145424 -0.011758301 -0.008857746
0.0068033026 0.008716889 -0.0016136789 0.015917815 0.014141071 -0.00084599265 0.017382985 0.0031236787
-0.008107796 0.008800918 0.008814169 -0.0010400931 -0.011725703 -0.0031798794 -0.0056577185 -0.023989372
0.0044238353 0.020896392 0.002147201 0.021177916 -0.0023424812 0.010712989 0.010057641 0.008592031
0.014891926 -0.0044107945 0.0051787943 -0.011308968 -0.005384004 -0.012741949 -0.003223935 0.012174576
-0.00042199725 -0.010585982 -0.015037076 -0.0057868264 -0.0007485947 0.019170316 0.028000839 0.011526923
0.020101622 -0.0014052887 -0.0013562265 -0.0025329252 0.014524904 -0.004871834 0.035594054 0.008358394
-0.018427942 0.0056649777 -0.0033021308 0.0019142998 -0.00034118368 0.008640505 0.010191443 0.004333257
-0.0014534263 -0.007980366 0.004636364 0.0032668654 -0.0021630372 0.0020109913 0.02243215 0.0030649642
-0.011422975 -0.003858358 -0.003974506 0.0016617831 -0.006331611 -0.015642097 -0.0037276368 -0.0012127287
0.007630164 0.005788949 -0.013542491 0.0050323936 -7.613465e-05 0.0027275742 0.013341842 0.0048466185
-0.005980185 -0.002727385 -0.007254616 0.005641061 0.0067000277 0.0019690292 0.015429886 0.011277982
0.009314803 0.0023810999 -0.00046942983 -0.009776691 0.007117719 0.00017211286 -0.018417258 -0.017416364
00000000: 58df 583c 97b3 a2bb 1d11 5bbc 05db b63a
00000010: b263 a23b 8d15 903a 897c 9dbb 49b5 ac3b
00000020: 5f0b f8bc 3d42 a9b9 4044 24bb 2ae6 19bc
00000030: 1384 b6bc 8b18 88bb c9dd 8cba f1b4 ae3c
00000040: 1b66 58bb ff33 82bb ff46 833b 0181 063c
00000050: 355d ef3a d104 2ebc 8fb6 40ba 3663 67bb
00000060: 7449 923c 7c28 4fb9 7704 df3c 7de2 b1bb
00000070: 7265 ebbc 3b95 82bc 912a 03bd fd6b 8fbc
00000080: 5914 fbbb c1f1 4dbb 1b33 2d3b 190b 3f3a
00000090: 8649 37bc 8b84 53bc b82c 073c fabe 273c
000000a0: 7cf6 283c 5631 c0bc 5802 a6bb 45cb 68bc
000000b0: b3e9 073b 57e5 dcbb 01f5 56bc f848 0b3c
000000c0: 6334 303b e1f4 1b3c 3e56 87bc d4bc 7bbc
000000d0: 2729 ca3b 1559 16bc ccc8 363c d87a 45bc
000000e0: ed61 783b 920a a1bb 5e38 3ebc 7bfb a1bc
000000f0: a687 4b3c dcba 153b 8642 b5bc 7f58 4aba
00000100: 4576 c5bb 9dd7 cfbc 317a 44ba ac46 563b
00000110: 2c83 e9bb 145a dcbc 30fc e73b 74ea e0bb
00000120: 6dce c7bb d140 b5bb 5d13 043b 059f b7bb
00000130: 1414 9bbc 9cfe 933c 823c de3c 7244 4dbc
00000140: fc97 8bbc b89f 37bc 178c 4cbb feed 46bb
00000150: 6751 3fbc 09a7 273c af26 9abc 08f5 36bc
00000160: f70e 26bc b59f 21bc c72b bebb e441 fdbc
00000170: a138 91bb cdf6 743b 03ae 78bc 466c 7439
00000180: 0160 223c 6b2a 873c c020 5fbc 99d8 29bc
00000190: 28dd 1fbc 0622 71bb beed 883a dac7 f9ba
000001a0: 51fb 523c 25e9 69bb 92cd cbbb dbe2 17bc
000001b0: ce38 6ebc a332 0b3c d06c 813c c51d af3c
000001c0: 94bc 313c cf39 9a3c 1e5f bc3b 2009 54bc
000001d0: f8fc 12bc a4bd a13c 3f6e 11bb e10b a7bb
000001e0: 45c4 203c 213e 0cbc 510c cdbb b3b2 a4bc
000001f0: 0e16 23bc 2b87 163b 5c6b fc3a 270f 173c
00000200: b0c0 9dbc 2a51 423b 869e 253c a10c 823c
00000210: 87fe 143c a844 ab3b 7cd4 103b 67ff 7e3b
00000220: 4e7c 843b 63f5 5b3b 0edb f8ba d4f3 c73b
00000230: b11b 0cbc 2f6a 6abc 07bf e9bb e432 89bb
00000240: 67a6 60bc cdb1 b0bc ab56 c5bb c3b4 5e3c
00000250: ec22 813c 2d00 b7ba 4b51 a0bb 29da 88bb
00000260: 7858 5cbb 5f2d 90ba beb0 b23a c7a4 8a3c
00000270: 8156 a93c b0d6 153c e4a5 40bc 1420 11bc
00000280: 3dee de3b 48d1 0e3c 1482 d3ba 1466 823c
00000290: f3af 673c 9bc5 5dba c366 8e3c a2b6 4c3b
000002a0: 90d6 04bc ba31 103c 4e69 103c bc53 88ba
000002b0: 2a1d 40bc 8665 50bb 6264 b9bb 5c85 c4bc
000002c0: d2f5 903b e92e ab3c 0eb8 0c3b 4f7d ad3c
000002d0: 5084 19bb 8885 2f3c cec8 243c 97c5 0c3c
000002e0: 44fd 733c 6d88 90bb e0b2 a93b 4049 39bc
000002f0: 4d6c b0bb 9cc3 50bc a748 53bb df77 473c
00000300: 833f ddb9 d470 2dbc 115e 76bc 6b9f bdbb
00000310: 573d 44ba 110b 9d3c 0462 e53c 6bdb 3c3c
00000320: 28ac a43c aa31 b8ba 69c3 b1ba 6fff 25bb
00000330: ddf9 6d3c e8a3 9fbb 12cb 113d a5f1 083c
00000340: 32f6 96bc 47a1 b93b 9068 58bb 3ee9 fa3a
00000350: e6e0 b2b9 e890 0d3c 03fa 263c fffd 8d3b
00000360: e580 beba 15c0 02bc a4ec 973b e818 563b
00000370: bec1 0dbb d6ca 033b a1c3 b73c 91dd 483b
00000380: 6e27 3bbc 81dc 7cbb 933c 82bb 30d0 d93a
00000390: 6779 cfbb db23 80bc 5e4b 74bb 6cf4 9eba
000003a0: 7406 fa3b 39b1 bd3b 53e1 5dbc c7e6 a43b
000003b0: 7baa 9fb8 1ac1 323b be97 5a3c 62d0 9e3b
000003c0: 6df5 c3bb edbd 32bb 21b8 edbb a6d8 b83b
000003d0: e88b db3b d40a 013b a2cd 7c3c 49c7 383c
000003e0: 1e9d 183c 3a0c 1c3b ce1d f6b9 6a2e 20bc
000003f0: c13b e93b 3279 3439 cadf 96bc c3ac 8ebc

fc.bias f4 [15]
-0.016544664 -0.005812186 0.03116523 0.0015359526 -0.017566651 -0.0045692944 -0.006484534 0.00030088995
0.01452551 0.012299905 0.008523631 -0.009625032 -0.0026672925 -0.021159796 0.016078314
00000000: ad88 87bc 2674 bebb 394e ff3c 0452 c93a
00000010: f0e7 8fbc 05ba 95bb 377c d4bb c4c0 9d39
00000020: 68fc 6d3c 8a85 493c b3a6 0b3c 4fb2 1dbc
00000030: becd 2ebb 4f57 adbc abb6 833c
