models/kernel.pth (torch, 349428 bytes, 8 tensors)

conv1.weight f4 [8, 3, 3, 3]
00000000: 241c fdbd 0877 77bd ba1a 36be a986 b539
00000010: 8a1f 0dbd 2e75 68bd c358 3c3d 9de5 18be
00000020: cf91 e23d 93d7 523d c98e 5abe 46fc 09bb
00000030: 85d2 683c b122 153e f6e7 753e 3dfd 263e
00000040: 6733 b2bd d255 11bb 0c78 b2bd 99ab 79be
00000050: c529 0dbe 30f3 1c3e 2b26 e33c 542f 7f3e
00000060: f992 763e 1105 27be 6384 a43d edba 2c3d
00000070: 1400 293d 851f 3ebe f239 8ebd b35c 093e
00000080: 2017 65bd 8930 f2bb 4a42 97bd 7ea4 c13d
00000090: 5cf6 f8bc 0f66 fd3d ecfa 08be 1661 bebd
000000a0: aa41 c9bd 6479 063d 270d 2dbd f715 b8bb
000000b0: 5aea b93d 6e3f 8e3d b1e2 71ba 64a9 f6bd
000000c0: 9ce4 0c3e 9e4c 30be 839b 743d ff53 72bd
000000d0: d001 a3bb f4bd 6fbc c57c 0a3e b947 403c
000000e0: 4c92 a53d 7301 023d fbc5 0ebe 0ff5 7c3d
000000f0: f75a 1b3e 05b3 36bd e2aa b0bd 2961 e83c
00000100: 1b2f 29be 794c 8ebb d856 473e 4b18 01bd
00000110: c4b1 e43c 64d1 b23d 0994 093b 11fe 89bd
00000120: a409 c73d 5933 46be d63e 803d 590c 083c
00000130: 5a7a 1fbe a6aa 30be 06a7 503e 4922 2ebe
00000140: f7c5 8cbd 56e1 663e 1a98 8ebd fc7f 9e3d
00000150: e9d2 21be fe4a a4bd 9211 b2bd 8972 f1bd
00000160: 291e 11be 565a 083e 971a 043e 2c4c 973d
00000170: 4b57 8f3d 3b9e 043e 21f6 fe3c bf75 00be
00000180: 2959 2b3e 784b 5c3d 9e43 2abe 5ed6 673e
00000190: b790 343e 1ff1 dfbd b440 4dbe 25fa 48be
000001a0: 7158 c03c ef9f 20be 177f fdbc 32cb be3d
000001b0: d550 923c 14ad 703d 9310 afbd cf2f 7a3d
000001c0: f575 0b3d 66df ccbd ccae 1ebe 365d 89bc
000001d0: dde7 90bd 575a 1bbe e364 2b3e 78e4 7b3d
000001e0: 7579 1ebd b50c 9e3c aedc b3bd f97b 0cbc
000001f0: dcfe 62bd caeb 1cbe ed2d 06bd eb21 3c3e
00000200: 1d63 44be dca3 a7bc 9f22 dd3d f9b9 5cbd
00000210: a3d1 e63d 02ea ddba 3a9f e1bc f37b f7bd
00000220: 408a 9c3c 47ea 37be 81cd eb3d 3415 72bd
00000230: 17ee 0f3e bfd9 e93d d163 16bd a448 00be
00000240: 681c 3c3d e3b0 d1bc 9a77 3ebe a8b0 fcbc
00000250: 7025 ea3d 3067 b33d d218 e53d 5f97 533d
00000260: c0d4 1fbe aec2 153e 311d c23d 6f00 19be
00000270: 832c 25be 5ed8 1a3c 8e59 093e 1eec 39bd
00000280: 7c25 24be 35d5 f5bd a287 9b3d a8ca 2abe
00000290: 52f9 023e e7eb 473e 28d6 e93d c8bd 883a
000002a0: f702 c9bd ec74 f0bd 84c3 1cbe 3ef2 ac3d
000002b0: 8446 683c da49 19be 568f 2ebe 8c5b 32be
000002c0: 9643 cc3d 4bbc 40be 1e5f b73d e14b 0bbc
000002d0: 55dd 09bd b5e6 733d e689 11be e27c 113e
000002e0: fa56 7a3d 66d0 e9bc 9656 2a3e 1cd8 83bd
000002f0: ec08 373c ff7d 443d 3bf9 ebbd 86c2 22bd
00000300: b959 083d 8798 ddbc dc45 e93d 9b39 aebd
00000310: 0c7c 42be cb25 2c3d a5e7 8d3d 719d 3dbe
00000320: 600b afbc 029b 973d 362f 04be c397 063e
00000330: 20bf 33bc fa22 29be a996 e23d 85f5 d5bd
00000340: 1a19 d6bd 8ab4 e13d cb01 24be 3f0f 01be
00000350: c48b e83d 605a 38be 8174 16be abb2 3bbe
-0.12358883 -0.06041625 -0.17783633 0.0003462334 -0.034453906 -0.056752376 0.045983087 -0.1493134
0.11062967 0.05147512 -0.2134353 -0.0021054908 0.014210348 0.14564015 0.24014267 0.1630754
-0.087012105 -0.0022176397 -0.087143034 -0.24381866 -0.13785465 0.15327144 0.02772816 0.24920398
0.24079503 -0.16310526 0.08033063 0.042170454 0.04125984 -0.18566711 -0.06944646 0.13414268
-0.055930257 -0.0073910397 -0.073856905 0.094552025 -0.03039091 0.12372982 -0.13376969 -0.092958614
-0.098269776 0.03283061 -0.04224887 -0.005617853 0.09077902 0.06945692 -0.00092272 -0.120440274
0.13759083 -0.17216727 0.05971862 -0.059162136 -0.0049745813 -0.014632691 0.13524158 0.01173585
0.080845445 0.031739663 -0.13942711 0.061757144 0.15171419 -0.04460432 -0.08626343 0.028366642
-0.16521876 -0.0043426123 0.19466722 -0.03151731 0.027916797 0.08731344 0.0020992777 -0.067379124
0.09718636 -0.19355525 0.06261985 0.008303725 -0.15574017 -0.17252597 0.20376214 -0.17005266
-0.06873696 0.22546896 -0.06962605 0.07739255 -0.15803112 -0.08022116 -0.086947575 -0.11789424
-0.14171661 0.1331571 0.12900768 0.073875755 0.06999072 0.12950985 0.031123223 -0.12544917
0.1673323 0.05378291 -0.16627356 0.22640368 0.1763333 -0.10934662 -0.20044214 -0.19626673
0.023479672 -0.1568601 -0.03094439 0.093161 0.01786081 0.05875881 -0.08548083 0.06108075
0.03404804 -0.10003547 -0.15496367 -0.01676808 -0.070754744 -0.1517118 0.16737704 0.06149718
-0.03869005 0.019293169 -0.08782326 -0.008574479 -0.055418834 -0.15324321 -0.032758642 0.18372314
-0.19178434 -0.020463876 0.10797619 -0.053888295 0.11270454 -0.0016930702 -0.027541745 -0.12084188
0.019108891 -0.17960463 0.11513806 -0.059102252 0.14055668 0.11418485 -0.036716286 -0.1252771
0.045925528 -0.025597041 -0.18600312 -0.030845955 0.11432922 0.08759916 0.11186375 0.05165803
-0.15608501 0.14625046 0.09478224 -0.14941572 -0.16130261 0.009451 0.13413069 -0.045391195
-0.16029924 -0.12003557 0.07594229 -0.1667887 0.1279042 0.19523583 0.114178 0.0010432536
-0.098150186 -0.11741051 -0.15308958 0.084446415 0.0141769685 -0.14969578 -0.17046866 -0.17417735
0.099738285 -0.18821828 0.08953689 -0.008501978 -0.033658344 0.05954619 -0.1421276 0.14207795
0.061118104 -0.028541755 0.16634592 -0.06437704 0.011171561 0.04797172 -0.11522146 -0.039736293
0.03328869 -0.02705027 0.11390278 -0.08507081 -0.18992633 0.04202823 0.06928948 -0.1851709
-0.021367729 0.07402612 -0.12908635 0.1314383 -0.010970861 -0.16517249 0.110638924 -0.1044722
-0.104540065 0.11020763 -0.16016309 -0.12603472 0.11354783 -0.18003225 -0.1469288 -0.18329875

conv1.bias f4 [8]
00000000: 7a93 0d3d e9e5 afbd 363f 213e 03f7 8bbd
00000010: 4c6e 3e3e 1332 f2bd a437 d13d 912e dbbd
0.034564473 -0.08588774 0.1574677 -0.06834223 0.18596762 -0.11825957 0.10215691 -0.10702241

conv2.weight f4 [16, 8, 5, 5]
00000000: 49c4 d6bc a99f 603d cee2 ba3c 926e c2bc
00000010: b063 7b3d 7f45 423d 3bac 04bd a5f2 92bd
00000020: 37e9 0cbd 61bd b6bc 587d 593d 0211 73bd
00000030: 12ae 983c bdb4 3cbd 8e71 d23b f8d9 b63c
00000040: 2c65 643c 3da1 9fbd 5265 793d 847f 2d3d
00000050: 0dcf 15bc 5189 343c 1325 88bd 830e 64b9
00000060: 3327 6e3d c9c1 a6bc b0ee 62bd dfa3 1fbd
00000070: 7ded 65bd c917 7abd 7e54 4ebd 9902 f53c
00000080: 7034 5abd 00f8 5fbd ecc7 823d 475e c1ba
00000090: a8d0 363d 0800 4a3d 4f4a 7abd ffc7 373c
000000a0: fea4 563d ed8a bfbc 1f40 243d 737e 71bb
000000b0: 4ba4 16bd 225e 303d a49e a03c 5230 b7bc
000000c0: 631a 39bc 50a1 50ba a60b c3bc 09c8 6d3d
000000d0: ed66 83bd 685a c83c 6287 743d 42de 853c
000000e0: e33d 8e3d 8ff9 1bbb 419c 63bd 5efe 3abd
000000f0: accb 2cbd c7f0 5dbd a83e 0cbd fbce 29bd
00000100: 9459 94bb fcd0 2bbd 5262 483d e93b 2c3c
00000110: 4524 6ebd a3dc 163d 8041 183d e872 863d
00000120: c51b 0b3a 2f06 4bbd a5dc 8f3d b86f 5d3d
00000130: eb5d da3b fb89 a9bc cd74 b23c 415b 31bd
00000140: 2867 6cbd 8186 22bd 2cce 603d bc66 783d
00000150: a7e5 6ebb 3cd3 1b3d 6673 82bd ed79 25bd
00000160: 2995 55bb 12f0 e63c a6cc 87bc de32 5bbd
00000170: 737b 233d fdaf 7ebd effc 803d cd0d d73c
00000180: 13d4 90bd e020 95bc 52cf c73b 1bd5 533d
00000190: b811 7cbd 5645 2dbd 5b19 18bd 3e81 f7bb
000001a0: 6c29 083c 830b 21bc 9013 693c 2aee f7bb
000001b0: 3d05 06bd 8133 583d ea8a 863d 9e02 1abd
000001c0: 4c92 dcbc 0080 693d a7fd 713d ccc7 a2bc
000001d0: 8c3f cf3b f8fd 99bc da0a 35bc 927f 053c
000001e0: f876 903a 5ae6 ac3c ecd9 b0bb 23a1 8a3c
000001f0: 0e33 713d a4e2 dcbb 13cc 223d 24cd d93c
00000200: ee69 5ebc f113 8b3d 47c5 c0bc a091 08bd
00000210: 1506 203c 1bc8 a6ba 4f82 56bd 1557 28bc
00000220: e08e c9bb 80ef 30bd bcd9 44bd c070 46bd
00000230: 515d 9f3c 2164 3c3c 7f0f 033d ae52 903d
00000240: 3836 80bd 9f2c 1a3d 060d ec3c 7499 aabb
00000250: c905 293b b39e 843d 4456 393d 06dd 5dbb
00000260: 6604 633d 1355 943b 4993 a3bc fed6 16bc
00000270: be89 6a3c 6b97 f83c 2b28 5c3d e985 4e3b
00000280: 6c64 78bd 9842 fc3c efc6 763c 1946 d53b
00000290: 80d9 08bc 5485 4c3d b2ac 2abd a6b7 7e3d
000002a0: a653 adbb e542 f93c 1069 7bbd 534e 883c
000002b0: 2bc1 81bd e4d9 22bc b823 e4bc 99c1 4e3d
000002c0: 0cb1 66ba 190d 21bc 8119 81bb c3b8 383c
000002d0: 14c8 b03b 6486 21bd 61cf 7abd 813d 82bd
000002e0: c442 773d 88ba 3d3d ada6 8cbd 3e51 873d
000002f0: b884 0bbb 7cf3 1dbd cb93 2f3c d608 903d
00000300: eee8 5e3d 56a0 49bd 35ba 86bd 7545 6dbd
00000310: 9880 d2bc b16b 90bd a9d9 133d 61c6 823d
00000320: 3430 853c 6691 7fbb 2f05 273d 70cb 843b
00000330: 5807 773d 0865 18bb 45b0 f73a 9344 c53c
00000340: 45f6 97bd cb70 823c 1fcd 603d c585 12bd
00000350: 392d cfbc a6dc 0d3c 30ba 83bd 8dc9 c63b
00000360: f26a 803d d169 353d aeb8 9b3c 0d57 983d
00000370: b606 fe3c 48b8 4abb 5332 003d 37a8 e6bc
00000380: 7f56 efbc 7152 b0bc b803 2ebd 72fc 393d
00000390: f4e9 e8bc 7fc7 8f3b 02f6 2b3d f471 a7bd
000003a0: 4d90 bdbd db40 bd3c f328 28bd 02e0 393d
000003b0: ae4f 47bd d0da 8bbd e514 72bd e1dc 443d
000003c0: 1c28 d03b 634d 163d 4c31 adbd f2d0 f1bc
000003d0: 5739 593c 3002 75bd cf44 e23c 2bc2 0f3d
000003e0: dee9 61bd 4d16 733b c366 31bc 308d 143d
000003f0: 8e45 b23c baba 52bb 1921 4a3d 27f0 40bd
-0.026216643 0.054839764 0.022813227 -0.023734365 0.061374366 0.047429558 -0.032390814 -0.07175187
-0.0344021 -0.0223071 0.053098053 -0.05934239 0.01863769 -0.046070803 0.006422228 0.022320732
0.013940137 -0.07794426 0.060887642 0.042357937 -0.009143603 0.011019067 -0.06647696 -0.0002174918
0.058142852 -0.020356076 -0.05540341 -0.03897464 -0.05613469 -0.06105784 -0.050373547 0.029908465
-0.053272665 -0.05467987 0.06385788 -0.0014752828 0.044632584 0.049316436 -0.061106022 0.011217116
0.052403443 -0.023381675 0.040100213 -0.0036849051 -0.036777776 0.043058522 0.019606896 -0.022361908
-0.011297795 -0.0007958608 -0.023809265 0.058052097 -0.06416116 0.024457172 0.059699424 0.016341332
0.06945398 -0.0023799872 -0.055568937 -0.04565274 -0.042186424 -0.0541847 -0.03423944 -0.041457158
-0.00452728 -0.04194735 0.04892189 0.010512331 -0.058140058 0.03683151 0.03717184 0.065648854
0.0005306567 -0.049566444 0.070245065 0.05406162 0.006664028 -0.020695677 0.02178421 -0.043299917
-0.057715565 -0.039679054 0.05488412 0.06064485 -0.0036452801 0.038043246 -0.06369667 -0.04039948
-0.0032590127 0.028190646 -0.016577076 -0.053515308 0.039912652 -0.062179554 0.06298243 0.026251698
-0.070717 -0.018204153 0.0060977126 0.051716905 -0.061540335 -0.042302452 -0.037133556 -0.0075532487
0.008310657 -0.009829405 0.0142258555 -0.007566233 -0.03271984 0.052783493 0.065694645 -0.037600152
-0.026925229 0.057006836 0.059079792 -0.019870661 0.006324714 -0.01879786 -0.0110499505 0.008148091
0.0011021784 0.021105934 -0.005397072 0.01692254 0.05888658 -0.006740885 0.0397454 0.026587076
-0.01357506 0.06790913 -0.02353157 -0.033342004 0.009767075 -0.0012724431 -0.052370366 -0.010274668
-0.006151065 -0.043197155 -0.04805921 -0.04844737 0.019453676 0.011498482 0.0319972 0.0704702
-0.062603414 0.03764021 0.028814804 -0.0052062813 0.0025790802 0.06475582 0.045248285 -0.0033853664
0.055424117 0.004526743 -0.019967692 -0.009206532 0.014315067 0.03034564 0.053749245 0.0031512922
-0.060642645 0.030793473 0.015062078 0.0065086004 -0.008352637 0.04993184 -0.0416686 0.06218686
-0.0052895127 0.030427406 -0.061379492 0.01663891 -0.06335672 -0.0099396445 -0.027849063 0.050477598
-0.0008800186 -0.009829783 -0.003939808 0.011274519 0.005394945 -0.039434806 -0.06123293 -0.06359387
0.060366407 0.04632047 -0.068677284 0.066072926 -0.0021288823 -0.038562283 0.010716389 0.07032935
0.054421358 -0.049225174 -0.06578485 -0.057927568 -0.025696084 -0.070517905 0.03609625 0.06385494
0.016258337 -0.0038996576 0.040776428 0.004052572 0.060309738 -0.0023253579 0.0018897137 0.02408055
-0.07420019 0.015922925 0.05488312 -0.035772104 -0.025290119 0.008658564 -0.06431997 0.006066507
0.06270398 0.044290368 0.01900896 0.074384786 0.03100906 -0.0030932594 0.031297993 -0.028156383
-0.02921605 -0.021523686 -0.042484015 0.045406766 -0.02843187 0.0043877955 0.04198266 -0.08176032
-0.09256039 0.023102215 -0.041054677 0.045379646 -0.048659973 -0.068288445 -0.059101958 0.04806221
0.0063524377 0.036694895 -0.08456668 -0.029518578 0.0132583 -0.05981654 0.027620701 0.035097282
-0.055154674 0.003709215 -0.010827723 0.03626746 0.021761682 -0.0032154755 0.04934797 -0.047104027

conv2.bias f4 [16]
00000000: 1ab0 ea3c 276b 2ebd 3401 443d c28e 84bd
00000010: 5b15 0f3d 94cf 57bd 2ac8 403d 5113 573d
00000020: cbb0 903c 31b9 523d 9884 20bb 5d4f 773a
00000030: c1f5 64bd 01d6 2dbd e630 67bd 9898 c13c
0.028648425 -0.042582657 0.04785271 -0.064725414 0.034932476 -0.052688196 0.04706589 0.052508656
0.017662426 0.051446144 -0.0024493095 0.00094341283 -0.05589843 -0.04244042 -0.056443118 0.023632333

conv3.weight f4 [32, 16, 7, 7]
00000000: e557 84bc 0385 28bc 5e93 c2bc 9829 b7bb
00000010: f1f7 2b3b ea31 0c3d 0602 09bd ec97 173c
00000020: 78c1 ba3c b337 0ebd 3a56 c0bb d5d1 7fbb
00000030: aa0b 1fbd ff70 eebc 0775 a53c efb9 07bd
00000040: 4415 ac3c b58c b8bc adaa 5cbc f435 253c
00000050: fb35 423b 79bb ed3c 30ba f63c e75d be3c
00000060: f98c a2bc a53f 0cbd ea4f fbbb 1501 9f3c
00000070: 0c8c 273c 1092 df3c 852c a0bc eee2 f63c
00000080: 8200 a0bb f38d 07bd 2241 babc 5697 88bb
00000090: 2882 3ebc aa7a 463c 3e51 a83a c3e2 f73c
000000a0: da41 d7bc d4e2 12bc 3502 d8bc 3f4c f7bc
000000b0: eae7 a83c e8b3 883c 3c94 a73b 03f3 ef3c
000000c0: 2008 063d 2ba8 bfbc 6207 ea3c 0165 98bc
000000d0: 7201 f0bc 25d5 74bc 3cc1 533c b21c 0e3c
000000e0: b1de a5bc ecbc 583c fb04 183c d658 e4bb
000000f0: 04f8 b73c d46d af3c b8a9 34bc 05e4 913c
00000100: dd25 233c b497 633c db75 4c3c b06b 723c
00000110: 45b1 103b 1e68 c83c b7e9 eebc bfeb 853a
00000120: 98b7 e7bc d9dd e4bb 254c fbbb 482c 3fbc
00000130: e11c d5bc 919a f13b 45c1 a4bc 64ec 47bc
00000140: 7fec c13c 99cf 0ebd d6b1 43bb feba 623c
00000150: bc6d 363c 25ec 16bd 676b 913c fcb2 51bc
00000160: b17f 6dbb af65 0b3d aef0 c1bc 04e1 a1bb
00000170: 7f7f ca3c d2e8 0b3d 6828 a03a 4541 44bc
00000180: 3b48 b23c 7ac5 073d 4061 b53c 2e1a 953c
00000190: fde6 7b3c 8a88 043d c730 ae3c 57eb bfbc
000001a0: 89b2 d83c 57fb 113a 9829 1abd d07a b63c
000001b0: 418b 5a3b ef9f 333c 870a 5c3c 3ba2 bb3c
000001c0: 4c3c 953c ea43 d3bc dd35 833c 4a4b 513a
000001d0: 1922 0ebd 1e1b cdbb ce5e bcbb f1af 19bc
000001e0: 12cf 22bc 2ef2 113c fa81 8db9 5d81 11bd
000001f0: c74d 733c 2eea e13c aaae dc3c 83d5 b3bc
00000200: ad11 ec3b b268 e63c b592 d03c 9dd5 d43c
00000210: df0a f4bc cef4 883c 8866 8cbc 5fd9 c3bc
00000220: 478f b4b9 4ee0 fb3c ae3d 37bb 1186 fc3b
00000230: d22c a6bc bbcf f83c a1e9 f4bc 3a3d a63c
00000240: a7b3 6d3c 744c 0d3c a672 ddbc cff5 ddbc
00000250: 73c0 1abd f38e 15bd 4b89 dabb c096 0ebd
00000260: 8bd6 05bd 2b82 a63b 107c ed3c a21f 3dbc
00000270: 41cd 0abc 3c65 d0bc 98dc e43c 897d 30bb
00000280: 5616 4fbc 05d4 ecbb c99f 333c 53db 673c
00000290: 2912 15bc 5ef2 1b3c d124 c6bc 084c 16bd
000002a0: 35a4 d6bc 8e52 bc3a bc67 e9bc 00f7 e63c
000002b0: 5429 f73b a2d2 e1bc 39c1 b8bc 82ac 9dbc
000002c0: 88e0 98bc f31c bcbc a130 ed3b 5375 3dbc
000002d0: 13ef 0dbd 44ec 623c e35c c83b b70b cb3c
000002e0: 83d1 e33c 90aa 1c3c 41e7 9d3c fd84 55bc
000002f0: 88dc bd3c 2545 56bb 853b 423c 29ce 4c3c
00000300: abd4 8dbc 69cc 4a3c 03af 963c 6b8e dabc
00000310: 75a6 e4bb 43cf d13c 9740 ec3c bdf0 953c
00000320: 26f9 80bc 7641 10bd d1c4 803c 9caf 4d3b
00000330: 3621 0c3d 4059 0a3d e760 0b3d 126e 9d3c
00000340: 108b 8ebc 83be ce3c c7db f7b9 a0d7 03bd
00000350: f9df 933c 986b fe3c f5dd 6abc 67de e63b
00000360: 45e0 823b b82f ec3c a19c cebc b66a 033c
00000370: 5f8d cabc db1d 64bc 5003 343c 6f32 afbc
00000380: 048e 92b9 f765 5b3c 5fa8 08bd 7212 30bc
00000390: c452 023d 0f25 603c ffb2 85bc 559b bbbb
000003a0: 314f 8fbb 6a6c d63b 10b4 f9ba d90d 2b3c
000003b0: 6aa5 3ab9 574c 95bc 53cd df3c 94c4 c1bc
000003c0: 9bb3 c23c e8f5 5a3c 090f 063d 2006 ae3c
000003d0: 781d 6c3b d1ad 6f3c d5cb efbc 7147 cd3c
000003e0: dc4a f53b c566 f23c ad5f 013d 3ed7 9fbb
000003f0: ac03 b23c d572 7abc c13c c6bc b5c6 e3bc
-0.016155193 -0.010285619 -0.02375191 -0.005589675 0.0026240314 0.03422729 -0.033449195 0.00925253
0.022797331 -0.034721088 -0.005869654 -0.0039034982 -0.038829483 -0.029106615 0.020197405 -0.033136304
0.021006234 -0.022528032 -0.013468427 0.010083664 0.0029634226 0.029020058 0.030118078 0.023238136
-0.019842612 -0.034240384 -0.0076694386 0.019409696 0.010226261 0.027291328 -0.019552479 0.030137505
-0.004882873 -0.033094358 -0.022736136 -0.0041684313 -0.011627711 0.012114206 0.0012841595 0.030259496
-0.026276518 -0.008965213 -0.02636824 -0.030187724 0.020618398 0.016687348 0.0051141065 0.029290682
0.032722592 -0.023395618 0.028567974 -0.01860285 -0.029297564 -0.014943396 0.012924489 0.008673834
-0.02024779 0.013228636 0.009278531 -0.006968598 0.02245713 0.021414675 -0.011026792 0.017808923
0.009957758 0.013891149 0.012479271 0.0147961825 0.0022078317 0.02446371 -0.029164178 0.0010217353
-0.028285787 -0.006984454 -0.0076689892 -0.011668272 -0.026014747 0.007373162 -0.02011169 -0.012202356
0.02367234 -0.03486595 -0.0029860637 0.013838528 0.011134561 -0.0368463 0.017751409 -0.012799021
-0.003623944 0.03403252 -0.023674335 -0.004940154 0.024718998 0.03415758 0.0012219073 -0.011978452
0.021762958 0.033147313 0.022141099 0.01820096 0.015374896 0.032356776 0.021263493 -0.023427648
0.02645232 0.00055687636 -0.037637323 0.022275358 0.0033347162 0.010963424 0.013430244 0.022904506
0.018217228 -0.02578922 0.016016895 0.0007983936 -0.034700487 -0.006259336 -0.0057486063 -0.009380327
-0.009937065 0.008907838 -0.00026990456 -0.03552376 0.0148500865 0.027577486 0.026938755 -0.021952396
0.0072042556 0.028126094 0.02546058 0.025980765 -0.02979034 0.016718294 -0.017138734 -0.023907362
-0.00034439025 0.030746605 -0.0027960348 0.0077064116 -0.020285044 0.030372491 -0.02989656 0.020292867
0.0145081645 0.008624185 -0.027032208 -0.02709475 -0.03778119 -0.03651328 -0.0066691986 -0.034811735
-0.032675307 0.005081435 0.028989822 -0.011543186 -0.008471788 -0.025438897 0.027937219 -0.0026930294
-0.012639603 -0.007227423 0.010963389 0.014151412 -0.009098568 0.009518234 -0.024187477 -0.036693603
-0.026201347 0.0014367865 -0.028491847 0.02819395 0.0075427685 -0.027566258 -0.022553073 -0.019247297
-0.018661752 -0.022963023 0.007238463 -0.011563617 -0.034651827 0.013850275 0.0061145886 0.02478586
0.027809864 0.00956215 0.01927531 -0.013032195 0.023176447 -0.0032695022 0.011855011 0.012500324
-0.017313322 0.012377837 0.018393999 -0.026679238 -0.006977851 0.025611525 0.028839393 0.01830327
-0.015743803 -0.03521868 0.01571885 0.003138519 0.03421136 0.03377652 0.03402796 0.019217525
-0.017400295 0.025237327 -0.00047275258 -0.032188058 0.018051134 0.031057164 -0.014335145 0.0070455554
0.00399402 0.028831348 -0.02522117 0.008021047 -0.024725614 -0.013923134 0.010987118 -0.021386353
-0.000279531 0.0133910095 -0.033363696 -0.010746585 0.031817213 0.01368071 -0.016320704 -0.005725304
-0.004373454 0.0065436857 -0.0019050855 0.010440313 -0.00017799964 -0.018224878 0.027319586 -0.023653306
0.023767283 0.013364293 0.032729182 0.021243155 0.0036028307 0.014628843 -0.029272 0.02505848
0.0074857306 0.02959002 0.031585384 -0.004877954 0.021730267 -0.015286167 -0.024198892 -0.027804712

conv3.bias f4 [32]
00000000: b50a d8bc c8e6 2ebb 085f eebc f531 b5bc
00000010: d84e 9cbb 948f 8ebb 3871 03bd 1acf f8bb
00000020: 3994 393c 25a0 74bc 124e 54bb 05b3 ef3b
00000030: 0312 49bc a4d4 26bc ad29 e23c 8647 853c
00000040: 23e3 71bc 2b56 8cbc 7a0b 1b3d 7764 febb
00000050: 6046 eebc 9db8 ac3c 6a36 abbc e998 973c
00000060: d0c5 18bc 35ad cd3c f564 1e3c ee5f 1f3d
00000070: 4e5e 2a3c 29f5 573c 361f 1e3b 7f4c a9bc
-0.026372293 -0.002668785 -0.029098049 -0.022118548 -0.004770141 -0.004350612 -0.032090396 -0.007593048
0.011326843 -0.01493076 -0.0032395166 0.007315042 -0.012272361 -0.010182533 0.027607763 0.016269457
-0.014763626 -0.017130932 0.03785274 -0.007763441 -0.029086292 0.021084124 -0.02089997 0.01850553
-0.009324506 0.025107006 0.009667625 0.038909845 0.010398461 0.013181009 0.002412749 -0.020666359

fc.weight f4 [15, 3872]
00000000: 8176 9a3b fa8a 1f3c ded2 f33b dbf9 1cbc
00000010: 7aee 173c 0fcf 4a3c aab5 6dba baa4 ecbb
00000020: e0c8 b4b8 6a1c 373c fe0f d0bb f0ac 263c
00000030: 901b 1ebc 7dc7 443b c393 34bc aead 013c
00000040: 5a94 afbb 16cb 163c f76b 373c b45d 763c
00000050: cbb5 09bb 22b8 623c 2ad5 bb3b 80ce fc3b
00000060: a52f 73bc 80a7 06bc c5d2 893c 1435 833c
00000070: 4388 e9bb 8295 ca3a 5a4b 75bc ae8f 893c
00000080: ee7e 3a3c a2b1 0dbc e9fa 633c 1a18 1e3c
00000090: 36bc a9bb 539f 443c 15dc 053c 6fb7 4a3c
000000a0: 05cf 193c e79f 0abc ac79 4f3b a373 2eba
000000b0: 562e 5ebc d3c4 8f3b dd3c 0f3c f068 063c
000000c0: b06e a1bb 3b1a 1bbc f403 e6ba 7278 47bc
000000d0: 1ef8 b7bb fc9b 233c 4169 adbb a06b 2ebc
000000e0: 92ec 6f3b 66d1 2b3a 922d 7e3c dba6 63bc
000000f0: 093c 92bb 40f7 333c 20e2 443b 5d2c df3a
00000100: dbbc 32bc 113f 8c3c ace9 49bb 6912 34bc
00000110: 0239 b0bb af28 273c b593 d13a 7547 6bbc
00000120: 5820 e3ba ebd6 76bc 16dc f33b 9b26 39bc
00000130: e7e2 fd3a 9e99 a1ba 19f5 87bb 86cd baba
00000140: 5af9 493c 93a9 2cbb 3aa0 1cbb eb8e dabb
00000150: 9757 c6bb d257 413b d119 3b3c 1c7a 493c
00000160: 8464 cf3a b7ba 193c 7c68 46bb c968 1fbb
00000170: 9f6c 4bbc 5de2 2c3c e2b0 8cba ade6 f43b
00000180: 58fd a6bb 9c36 9a3b ac43 45bc 2e16 5cbc
00000190: 443c 5a3c b748 c7bb 3088 833b 2006 3dbc
000001a0: 0c56 763c 27af a9bb 6f7b 233c 208c 063a
000001b0: 97df edbb 30e2 63bc b86c 463b 7a07 4e3c
000001c0: c5e5 25bc e4fc 1c3c 68cf a3bb 85a3 813b
000001d0: 8e28 6e3c a487 a3bb 42a2 c33b 1832 d73a
000001e0: 3054 59bc bea4 59bc ce40 e13b 2132 a03c
000001f0: 98dc a23c 82eb 8bbb 8959 623c 954a 6c3c
00000200: e696 82bc 2832 0cbc 2d4d 403c 9504 273b
00000210: 4c96 453c d047 6cbc 8503 29bb ca41 08bc
00000220: 6dbf f73a e146 833c 2f70 b0bb 9d19 053c
00000230: 3444 d93b 4cd1 bfbb 03b3 2cbc 8878 173c
00000240: 3b09 293c 0451 58bc 8c53 e6bb 3110 3f3c
00000250: 0a39 8c3b 1e8a 7a3c 58a1 b03b 93a2 753c
00000260: f5a6 a9bb 8982 5dbc 9cb7 2b3a 1952 f1bb
00000270: bf0c d3bb a960 013c 5fbf a9bb 91be 7dbb
00000280: 46d1 303a ad05 2e3c 4bfb bf3c 4eac f33b
00000290: b7e0 33ba 6a00 84bc 9ede db3b 7cc8 5ebc
000002a0: 3028 a6bc 45fd ee3b dfa7 2cbc f7cd 393c
000002b0: fe24 d03b 7504 353c 222e 40bc a285 54bc
000002c0: 8ca5 333c 3870 b33c 9279 083c 882b b0bc
000002d0: 25ed 5d3c 0e46 8e3b 68e2 2039 1696 783c
000002e0: 6890 0f3b 98c6 8dbb 3475 3fbc 6dfb b03b
000002f0: 55f8 07bb d6f9 b2b6 796b ba3b e5cb cbbb
00000300: 7d4d 5738 c32a 96bc 3a9a 11bb b4dd 5e3c
00000310: e568 543a 3bd3 bd3b c9fc 813c a5ce d03a
00000320: a2d9 293c 4201 643b 804b bdba 28ad 153c
00000330: 9642 c1ba 419d b13a 235d 80ba e715 c8ba
00000340: ab1b a6b9 06bf a4bb d45b b2bb 59a2 303c
00000350: 09ab 22bc 0661 ef3a dd96 debb 96f4 99ba
00000360: 9277 51bc 6ea3 a7bc 7b01 4f3c 5b34 013c
00000370: fa87 97bb 349e c0bc ad12 1dbc c486 c8bb
00000380: 97b8 a13b 333b c4bb 038d 393b dbc0 8cbb
00000390: ed53 3cbc 7bf5 c8bc 8624 713b ab4e ba3a
000003a0: d1bc 78bb 6aa3 3d3c 2dd6 1cbb 91e3 823c
000003b0: 0f2a 443c 9007 0ebc 2b7f 24bc b38e 623c
000003c0: 2a29 503b 4cc5 903c b0fa 80bc d74b 85bb
000003d0: 13c3 1839 189e 723c f05b 8b3c 0f4f 013c
000003e0: 3c10 8b3c 121e 463c 78dd 57bc e0f3 babb
000003f0: f995 843c 22ea d33b 8e54 413c cf49 35bc
0.004713834 0.009737724 0.007440909 -0.009581055 0.009273166 0.012378468 -0.00090679026 -0.0072217854
-8.620485e-05 0.011176208 -0.0063495627 0.010173067 -0.009650126 0.003002613 -0.011021557 0.007914944
-0.005358261 0.009203693 0.011195174 0.015036989 -0.0021012898 0.013837846 0.0057321982 0.0077150464
-0.014842902 -0.008218646 0.016824136 0.01601652 -0.0071268394 0.0015455934 -0.0149715785 0.016792145
0.011382801 -0.008648308 0.013914802 0.009649301 -0.005179907 0.0120008765 0.008170147 0.012372836
0.009387736 -0.008460975 0.0031658215 -0.00066548045 -0.013560852 0.004387477 0.008742538 0.00820373
-0.004926525 -0.009466703 -0.0017548786 -0.0121747125 -0.0056142947 0.00998592 -0.0052920883 -0.010645777
0.0036609513 0.0006554335 0.0155137945 -0.013894762 -0.004462723 0.010984242 0.0030042008 0.0017026771
-0.010909284 0.017119916 -0.0030809445 -0.010990717 -0.0053778896 0.010202571 0.0015989455 -0.014360298
-0.0017328365 -0.015065889 0.007442008 -0.011300708 0.001936999 -0.0012329107 -0.004149091 -0.0014251925
0.012327516 -0.0026346191 -0.0023899213 -0.006669869 -0.006052922 0.0029501808 0.011419729 0.01229718
0.0015822803 0.009382895 -0.003027468 -0.0024323931 -0.012416034 0.010552016 -0.0010733868 0.0074737878
-0.005096119 0.004706217 -0.01204006 -0.013433022 0.0133200325 -0.0060816663 0.0040140375 -0.011537105
0.015035164 -0.0051783505 0.009978159 0.00051325746 -0.00725932 -0.013908908 0.0030277204 0.012575025
-0.010125582 0.009581778 -0.00499909 0.0039562606 0.014536036 -0.004990535 0.0059702704 0.0016418127
-0.013264701 -0.0132839065 0.0068741804 0.019555153 0.019880578 -0.004270018 0.013815292 0.014422079
-0.015941095 -0.00855688 0.01173715 0.002548491 0.012059759 -0.014421418 -0.0025789451 -0.008316467
0.0018901654 0.016025009 -0.005384467 0.008123782 0.006630445 -0.0058538076 -0.010540727 0.0092450455
0.010317142 -0.013202909 -0.0070290025 0.011661575 0.0042792605 0.015291719 0.0053903274 0.014992374
-0.0051773735 -0.013519892 0.0006550492 -0.007364523 -0.0064407284 0.007896581 -0.005180284 -0.0038718323
0.00067450514 0.01062147 0.023435256 0.007436312 -0.0006861793 -0.016113479 0.0067098876 -0.013597604
-0.020282835 0.0072933757 -0.01053807 0.01134061 0.006352066 0.011048426 -0.011729749 -0.012971314
0.010964762 0.021904096 0.008329766 -0.021505132 0.013545309 0.0043418473 0.00015343132 0.015172502
0.0021906141 -0.0043266527 -0.011685658 0.005401066 -0.0020747383 -5.333898e-06 0.0056890813 -0.0062193745
5.133216e-05 -0.018330937 -0.002221717 0.013602663 0.00081027887 0.005793003 0.015867608 0.0015930725
0.010366829 0.0034790789 -0.0014442056 0.009135522 -0.0014744576 0.0013550894 -0.0009793382 -0.0015265316
-0.00031682602 -0.0050276546 -0.0054430757 0.010780894 -0.009928473 0.0018263168 -0.0067928866 -0.0011745866
-0.012784855 -0.020463672 0.01263463 0.007886018 -0.004624364 -0.023512937 -0.009586972 -0.006119581
0.004935335 -0.0059885024 0.002831281 -0.004295451 -0.011494619 -0.024531117 0.0036795451 0.0014214119
-0.003795434 0.0115746055 -0.002393137 0.015977653 0.011972918 -0.008668795 -0.010040085 0.013827967
0.0031762817 0.017672203 -0.015744537 -0.0040678787 0.0001456852 0.0148082 0.017011613 0.007892384
0.016975515 0.01209213 -0.013175361 -0.0057053417 0.016184794 0.00646712 0.011799945 -0.011064961

fc.bias f4 [15]
00000000: cae2 18bc a238 ba3c a360 943a 4e99 9cbb
00000010: 75ce 02ba d29b 87bc 907c 913a 816c f53b
00000020: ddaf b03c c677 833b cf48 b43c 72a4 0dbc
00000030: 335c fc3b 7f2f 07bc f8f8 2ebb
-0.0093314145 0.022732083 0.0011320304 -0.0047790175 -0.0004989871 -0.016553793 0.0011099745 0.0074897413
0.021568233 0.004012081 0.022007374 -0.008645164 0.0077014207 -0.00825107 -0.002669869
